SE3_DS/nn_models/models/PegInHole_models/best_model_003.pth (torch, 396402 bytes, 80 tensors)

0.scale_net.network.0.weight f4 [64, 6]
0.259234 0.10509506 0.34187514 -0.023782905 0.2951215 -0.14496809 0.08397552 -0.44771495
0.38912147 0.59211636 0.2921399 -0.03590428 -0.06945431 -0.23680666 0.28346282 0.03144756
0.098038554 0.064780906 0.3021593 -0.23346981 -0.3747992 -0.06007659 -0.31089783 0.12182038
0.09912413 -0.040845435 0.3793649 -0.23836535 0.05149907 -0.0038429215 -0.05194524 -0.1746873
0.39290565 0.34144446 0.34269828 -0.22724049 -0.056768388 -0.34671572 0.25080943 -0.124221265
-0.12596068 -0.1852179 0.30353224 -0.45140108 0.28251135 0.15765043 0.104076564 0.30749214
0.23925102 -0.00706926 0.3037675 0.17275983 0.20880663 0.1545496 -0.36680886 -0.23715697
-0.38821054 -0.28416857 0.10551554 -0.14869443 -0.29163224 -0.17171414 -0.06041321 0.44013813
-0.102467656 -0.23367369 -0.01832968 -0.27965719 -0.3747585 -0.2754678 -0.06337792 0.2740108
0.2118429 -0.06726767 0.28740746 -0.24466279 0.24237424 -0.022200152 -0.22618276 -0.27345985
0.39154875 -0.129285 -0.16085535 -0.113300085 -0.37189615 0.5185406 0.11066306 0.59020865
0.29244596 0.45562527 0.12228447 -0.11063331 -0.37918574 -0.27273548 -0.26634467 0.0173041
-0.27682257 -0.05033207 0.10857856 -0.036345128 0.10621077 0.23929513 -0.24268335 0.2024552
-0.21745647 0.13463354 -0.24146327 -0.40072778 0.21239007 -0.061973363 0.107984066 -0.29506734
0.0077558756 -0.39680573 0.054992437 -0.041471332 -0.3144338 -0.010917187 0.00403589 -0.08692303
-0.32748383 -0.40682384 0.20417333 1.6116054 0.111441374 -1.4435418 0.0709953 -0.101747304
-0.008951902 0.22380336 -0.09114286 -0.3499942 -0.01719156 -0.0077046556 -0.17791523 -0.2612594
0.40356612 -0.17803112 0.2638721 -0.015248299 0.39431328 0.29503125 0.14518946 -0.083881736
0.031371623 -0.04430337 0.33005476 0.2503638 0.37697303 -0.006143785 -0.18836004 -0.55183345
-0.38487315 0.2683638 -0.021456003 0.32254726 0.10575777 -0.026599556 -0.1056903 0.41068995
-0.2590593 0.057734884 0.28434724 0.23354447 0.016717702 0.39084014 -0.39779907 -0.6507944
0.22038937 -0.018773232 0.2872579 -0.026512152 0.18743753 0.31167462 0.051832736 -0.12503113
0.25117773 0.03818539 0.2914762 -0.13087375 0.20163053 -0.16704902 -0.0016456842 -0.22582386
-0.27646554 -0.12208161 0.14447868 -0.08421165 0.030430436 0.24545813 0.07259518 -0.31465966
0.33398533 0.3152113 -0.044472277 0.38938856 0.3547694 -0.302392 -0.052738577 -0.030998498
0.10733074 0.12743682 0.23989058 0.2107504 0.012165517 -0.50346935 0.087698996 0.2717381
-0.22436085 -1.0881644 0.3281917 0.10771925 -0.11705011 -0.15866585 -0.3687176 -0.21842729
0.33287728 0.23814428 -0.058808744 0.6389028 0.28363138 -0.3069941 0.20580417 0.16409835
0.25502193 -0.12778775 0.12812644 -0.36517787 -0.32919073 0.101439565 -0.32564855 0.8256987
0.14338368 0.19753009 -0.3009199 0.1286123 -0.0037742257 -0.21089718 0.18276429 -0.27469593
0.16614085 0.33451697 0.28529257 0.48762292 0.19695944 0.070240855 0.16579139 -0.011654615
0.15762603 -0.035801828 -0.096419275 -0.087732375 0.14545697 0.29489708 -0.256816 0.03986746
00000000: 52ba 843e 143c d73d 420a af3e 5ed4 c2bc
00000010: 2a1a 973e 8472 14be 5cfb ab3d e53a e5be
00000020: ee3a c73e f094 173f 5c93 953e 5e10 13bd
00000030: 103e 8ebd 727d 72be 0a22 913e 28cf 003d
00000040: 70c8 c83d daab 843d a0b4 9a3e b612 6fbe
00000050: aee5 bfbe df12 76bd 002e 9fbe f77c f93d
00000060: 9801 cb3d 8b4d 27bd 1e3c c23e 0c16 74be
00000070: b0f0 523d 86d9 7bbb 88c4 54bd 3ae1 32be
00000080: ee2a c93e cfd1 ae3e 2676 af3e bbb1 68be
00000090: f885 68bd b984 b1be 186a 803e b867 febd
000000a0: d6fb 00be c3a9 3dbe 9468 9b3e 0b1e e7be
000000b0: 54a5 903e 1d6f 213e 1826 d53d 9c6f 9d3e
000000c0: 38fe 743e 40a5 e7bb 6a87 9b3e f4e7 303e
000000d0: 68d1 553e 4042 1e3e 5fce bbbe 47d9 72be
000000e0: 88c3 c6be 8b7e 91be 8818 d83d 5a43 18be
000000f0: d250 95be d5d5 2fbe d873 77bd c959 e13e
00000100: 90da d1bd 2848 6fbe 2028 96bc 3a2f 8fbe
00000110: 59e0 bfbe 1e0a 8dbe 48cc 81bd 254b 8c3e
00000120: 58ed 583e a2c3 89bd 1227 933e e288 7abe
00000130: f430 783e 18dd b5bc 749c 67be ee02 8cbe
00000140: 1479 c83e 4963 04be 44b7 24be e009 e8bd
00000150: 2c69 bebe 14bf 043f 50a3 e23d ea17 173f
00000160: 7abb 953e b747 e93e 4870 fa3d b893 e2bd
00000170: a224 c2be fca3 8bbe 545e 88be 54c1 8d3c
00000180: b0bb 8dbe 0029 4ebd 705e de3d a1de 14bd
00000190: 0885 d93d c809 753e fc81 78be 6a50 4f3e
000001a0: e9ac 5ebe 60dd 093e 2642 77be 312c cdbe
000001b0: c87c 593e c8d7 7dbd c026 dd3d 1113 97be
000001c0: 0025 fe3b 1f2a cbbe c03f 613d d8dd 29bd
000001d0: 78fd a0be 00de 32bc 803f 843b b404 b2bd
000001e0: f6ab a7be 374b d0be d012 513e 1649 ce3f
000001f0: 603b e43d fac5 b8bf fc65 913d e460 d0bd
00000200: 00ab 12bc b52c 653e 1ca9 babd 7132 b3be
00000210: 50d5 8cbc 5677 fcbb 692f 36be cbc3 85be
00000220: 38a0 ce3e ca4d 36be 3e1a 873e 00d4 79bc
00000230: 6ee3 c93e 560e 973e 8cac 143e 30ca abbd
00000240: 887f 003d 7377 35bd f0fc a83e af2f 803e
00000250: 9c02 c13e ce51 c9bb 74e1 40be f544 0dbf
00000260: 180e c5be fb66 893e 80c4 afbc ea24 a53e
00000270: 8897 d83d 50e7 d9bc 2874 d8bd f445 d23e
00000280: 6ca3 84be 6a7b 6c3d f695 913e 4826 6f3e
00000290: 90f3 883c 331c c83e 52ac cbbe 769a 26bf
000002a0: c0ad 613e 52ca 99bc 7813 933e 0330 d9bc
000002b0: a0ef 3f3e d193 9f3e 904e 543d 2908 00be
000002c0: 5e9a 803e 4968 1c3d 5e3c 953e c503 06be
000002d0: 3c78 4e3e e60e 2bbe 00b4 d7ba 5f3e 67be
000002e0: e48c 8dbe ec05 fabd 38f2 133e 2877 acbd
000002f0: 4049 f93c 6059 7b3e c8ac 943d 121b a1be
00000300: 2000 ab3e 6063 a13e 9028 36bd f05d c73e
00000310: 56a4 b53e 20d3 9abe 6804 58bd 90f0 fdbc
00000320: 38d0 db3d cc7e 023e e0a5 753e f4ce 573e
00000330: e051 473c 5ee3 00bf 889b b33d 4221 8b3e
00000340: dabe 65be f948 8bbf be08 a83e e99b dc3d
00000350: f8b7 efbd 4d79 22be 8ec8 bcbe 67ab 5fbe
00000360: e46e aa3e 18dc 733e 70e1 70bd 228f 233f
00000370: 2238 913e 552e 9dbe 54be 523e 6609 283e
00000380: 3c92 823e cbda 02be 9433 033e 98f8 babe
00000390: b08b a8be 8cbf cf3d 68bb a6be fd60 533f
000003a0: 2cd3 123e 5445 4a3e 2c12 9abe f1b2 033e
000003b0: 0059 77bb 6ef5 57be 9026 3b3e f2a4 8cbe
000003c0: d420 2a3e cf45 ab3e de11 923e b6a9 f93e
000003d0: bcaf 493e 70da 8f3d 38c5 293e 00f3 3ebc
000003e0: b868 213e f0a4 12bd 7877 c5bd 08ad b3bd
000003f0: acf2 143e c0fc 963e 637d 83be 104c 233d

0.scale_net.network.0.bias f4 [64]
-0.09227391 0.15069783 0.00353883 -0.15210633 -0.39470902 0.1260788 -0.26444557 0.06482534
-0.37845832 -0.0046246108 0.14731735 0.13785858 -0.26018426 -0.30796728 -0.21233082 -0.008809171
-0.0989563 0.069925256 -0.40802526 -0.117702514 0.23451875 0.410697 -0.007578416 -0.39751193
-0.1338068 -0.0018711966 -0.08322018 0.1645534 0.018913852 0.08841042 -0.37368467 -0.09346253
-0.34440306 -0.35337558 0.2668204 0.05319461 0.3015029 0.0132315485 -0.084931985 0.07709697
0.0004013736 -0.049358636 -0.15206766 0.025322298 -0.4172322 0.16188961 0.029787304 -0.17246243
-0.046711065 -0.38512373 -0.29856935 -0.0057868296 0.15849291 -0.055982023 -0.20885994 -0.27148885
-0.35009515 0.20301998 -0.25654176 -0.26763296 -0.1002052 0.019532103 -0.285162 0.12738597
00000000: 1bfa bcbd 8850 1a3e b7eb 673b c3c1 1bbe
00000010: 4d17 cabe cd1a 013e 6965 87be 26c3 843d
00000020: 4ac5 c1be 0c8a 97bb 5cda 163e cd2a 0d3e
00000030: df36 85be e3ad 9dbe 406d 59be 5754 10bc
00000040: 9aa9 cabd f934 8f3d b0e8 d0be 040e f1bd
00000050: af25 703e e146 d23e 5c54 f8bb af86 cbbe
00000060: a604 09be f042 f5ba 576f aabd b080 283e
00000070: 39f1 9a3c 8610 b53d 9953 bfbe 4869 bfbd
00000080: 9955 b0be a5ed b4be af9c 883e 97e2 593d
00000090: 975e 9a3e 23c9 583c d2f0 adbd 04e5 9d3d
000000a0: 746f d239 482c 4abd a0b7 1bbe b570 cf3c
000000b0: 759f d5be 64c6 253e 8104 f43c fe99 30be
000000c0: 1a54 3fbd f02e c5be 15de 98be 729f bdbb
000000d0: f74b 223e 684d 65bd 61df 55be 9600 8bbe
000000e0: ac3f b3be 78e4 4f3e 7159 83be 3007 89be
000000f0: 6238 cdbd ca01 a03c c100 92be 7871 023e

0.scale_net.network.2.weight f4 [64, 64]
0.084259845 0.19877928 0.01901789 0.0053158207 0.089462206 0.0095470045 0.030426249 -0.049168035
-0.05146718 -0.21843377 0.12190747 -0.18304345 0.0785637 0.036079172 -0.03805405 -0.086897545
-0.20377769 0.014357458 0.06761369 0.03293836 0.3883325 0.08484024 0.0516548 -0.10924716
-0.11691067 -0.09560436 -0.09486182 0.18028577 -0.2200937 0.107847124 0.16481213 0.11057556
-0.06399508 -0.122745514 0.22440065 0.0784698 0.13713677 -0.021074204 -0.09153226 -0.087607846
-0.11651785 0.06585388 0.060824588 0.108879164 0.143811 0.026323762 -0.028150834 0.14570253
-0.18754864 -0.0036559617 -0.029873908 0.029463988 -0.14475311 -0.049518537 0.16901429 -0.08443543
0.069566146 0.2501599 0.03735374 0.12158139 -0.07696365 0.07440035 0.052823752 0.21071538
0.07388988 -0.1934418 -0.22810978 -0.1604311 0.044050783 -0.24791916 -0.014544487 -0.30145338
0.093167305 -0.10201227 -0.28266644 -0.1135912 0.17221968 0.040511355 -0.002048343 -0.3282188
-0.040021304 -0.17725821 0.11457957 -0.00038267672 -0.23982999 -0.11344452 -0.25123614 -0.11641914
0.041760057 -0.22635216 -0.047535673 -0.28987357 -0.056560125 -0.066362455 -0.10662234 0.05327061
-0.06396672 -0.0783875 -0.23535575 -0.09682921 -0.1530527 -0.17019083 -0.14009334 -0.27123746
-0.051782824 -0.003005311 -0.034658283 -0.24357973 0.110646695 -0.2947198 -0.33008718 -0.09412709
0.04354428 -0.015956659 0.0056843758 0.043587506 -0.2934897 -0.020651087 -0.07719509 0.05942379
-0.016071483 -0.25256538 0.08026408 -0.055955306 -0.069053404 -0.37287712 -0.077580094 -0.15582432
-0.018452466 -0.118542016 0.053449035 0.025741905 0.056509435 -0.1224494 -0.083231196 0.045492932
-0.049871758 -0.040305585 0.061413452 -0.016170263 0.040771782 0.053496107 -0.06526087 0.015531898
-0.06322245 -0.10756466 0.09670049 0.076449186 -0.022576094 0.03997436 0.002771765 -6.3970685e-05
0.09796564 -0.10180436 0.06857172 0.08400196 -0.030712172 0.0032119006 0.045642212 0.06374708
0.0007003993 0.11813015 0.0019468963 -0.02499275 0.08642046 -0.012349948 0.07117958 -0.07584651
0.047062784 -0.11236641 -0.041922897 -0.02864413 0.049846888 0.06571445 0.009833351 -0.0045212507
0.09458135 -0.06941429 -0.04742892 -0.04189159 0.0990112 -0.09227823 0.07545914 -0.08993241
-0.11839375 0.0878225 0.0991309 -0.0080026835 -0.048465237 -0.0041052997 -0.12080014 -0.053597033
0.078152135 -0.041950986 -0.1411141 -0.10452978 -0.013151735 0.018793857 -0.09414658 0.03427228
0.06839071 -0.1193835 -0.04487887 -0.15823992 -0.056924835 -0.057658553 0.017723218 0.018500192
0.108654276 -0.09844151 -0.052723438 -0.033630133 0.073806316 0.015833173 -0.004549435 0.042147264
-0.07963452 0.009568677 0.12059243 -0.01655263 -0.1114665 0.056312848 0.12164211 0.04555723
-0.012783304 -0.090687424 0.048906285 0.0616323 0.01823878 -0.015656086 -0.13997877 -0.13852897
-0.10503608 -0.019681484 0.07911822 -0.104243025 -0.016008392 -0.11612646 -0.07696109 0.08043231
-0.11554171 0.119198576 0.017530993 0.013675161 0.027810054 -0.026569977 -0.028248519 -0.101751566
0.040987834 0.038741827 -0.008687124 -0.10613082 0.0009921283 -0.09021458 -0.050453335 -0.08867872
00000000: 6d90 ac3d cc8c 4b3e 68cb 9b3c 5630 ae3b
00000010: f637 b73d 0a6b 1c3c 7840 f93c 6c64 49bd
00000020: 40cf 52bd 1aad 5fbe a0aa f93d be6f 3bbe
00000030: 01e6 a03d c1c7 133d 90de 1bbd 57f7 b1bd
00000040: 19ab 50be 8b3b 6b3c 0c79 8a3d 60ea 063d
00000050: 84d3 c63e b8c0 ad3d fc93 533d fabc dfbd
00000060: dd6e efbd 38cc c3bd ea46 c2bd d59c 383e
00000070: 3e60 61be f4de dc3d 83c4 283e 7075 e23d
00000080: da0f 83bd 0062 fbbd 49c9 653e c6b4 a03d
00000090: 956d 0c3e cfa3 acbc 4475 bbbd be6b b3bd
000000a0: e9a0 eebd 66de 863d 3423 793d 0afc de3d
000000b0: 3143 133e eea4 d73c 949c e6bc 0b33 153e
000000c0: c00c 40be dc98 6fbb 20ba f4bc 765e f13c
000000d0: 293a 14be f3d3 4abd 1512 2d3e 7cec acbd
000000e0: b278 8e3d f514 803e 3c00 193d aaff f83d
000000f0: 1e9f 9dbd 365f 983d b85d 583d c6c5 573e
00000100: 9453 973d 9b15 46be 9c95 69be 0d48 24be
00000110: 986e 343d 85de 7dbe 004c 6ebc 1958 9abe
00000120: 80ce be3d cfeb d0bd a8b9 90be 81a2 e8bd
00000130: 5b5a 303e 3cef 253d 7e3d 06bb 4b0c a8be
00000140: 61ed 23bd 2d83 35be b2a8 ea3d 00a2 c8b9
00000150: fe95 75be 9a55 e8bd 06a2 80be 286d eebd
00000160: 980c 2b3d dcc8 67be c4b4 42bd 4f6a 94be
00000170: 97ab 67bd 0ae9 87bd d05c dabd 4832 5a3d
00000180: fc00 83bd a089 a0bd 1901 71be 654e c6bd
00000190: d9b9 1cbe 8146 2ebe a174 0fbe a3df 8abe
000001a0: 3a1a 54bd c0f4 44bb d8f5 0dbd f76c 79be
000001b0: bc9a e23d 83e5 96be 3001 a9be b4c5 c0bd
000001c0: 7d5b 323d 8ab7 82bc 0044 ba3b d088 323d
000001d0: 4844 96be 782c a9bc 7618 9ebd 5c66 733d
000001e0: 58a8 83bc 4050 81be 7e61 a43d 6431 65bd
000001f0: df6b 8dbd c0e9 bebe 50e2 9ebd 6990 1fbe
00000200: a029 97bc 28c6 f2bd 60ed 5a3d b0e0 d23c
00000210: 7076 673d c0c6 fabd 1e75 aabd cc56 3a3d
00000220: 5446 4cbd 7817 25bd ac8c 7b3d 8077 84bc
00000230: 5000 273d bc1e 5b3d 7ea7 85bd 8079 7e3c
00000240: c67a 81bd dc4a dcbd e80a c63d 6491 9c3d
00000250: 80f1 b8bc 28bc 233d 80a6 353b 0028 86b8
00000260: 36a2 c83d ce7e d0bd 546f 8c3d 3809 ac3d
00000270: 1898 fbbc c07e 523b 54f3 3a3d d48d 823d
00000280: 009b 373a 38ee f13d 002f ff3a 98bd ccbc
00000290: 36fd b03d 7057 4abc 9ac6 913d 6a55 9bbd
000002a0: e8c4 403d 5c20 e6bd 58b7 2bbd 18a7 eabc
000002b0: 402c 4c3d 4c95 863d 101c 213c 0027 94bb
000002c0: deb3 c13d 1429 8ebd d444 42bd 8496 2bbd
000002d0: 62c6 ca3d 5efc bcbd 528a 9a3d 7c2e b8bd
000002e0: 6c78 f2bd 48dc b33d 2405 cb3d b01d 03bc
000002f0: 7c83 46bd c085 86bb 1066 f7bd 9088 5bbd
00000300: 3a0e a03d ccd4 2bbd 3780 10be b613 d6bd
00000310: 607a 57bc 93f5 993c eccf c0bd 1761 0c3d
00000320: 6e10 8c3d 567f f4bd e8d2 37bd a509 22be
00000330: 042a 69bd 602b 6cbd 4830 913c b78d 973c
00000340: 2286 de3d b49b c9bd 88f4 57bd c0bf 09bd
00000350: c427 973d 92b4 813c 6d13 95bb 9ca2 2c3d
00000360: 6c17 a3bd f1c5 1c3c 2af9 f63d 6299 87bc
00000370: 8c48 e4bd 4da8 663d 801f f93d 389a 3a3d
00000380: 1071 51bc 54ba b9bd f551 483d 2772 7c3d
00000390: 7e69 953c 3141 80bc 9856 0fbe 8ada 0dbe
000003a0: 281d d7bd 103b a1bc bc08 a23d 5e7d d5bd
000003b0: 0824 83bc b6d3 edbd c79d 9dbd b2b9 a43d
000003c0: 22a1 ecbd 621e f43d 289d 8f3c c80d 603c
000003d0: e9d1 e33c 48a9 d9bc 7069 e7bc 2063 d0bd
000003e0: dce2 273d c0af 1e3d 7054 0ebc 1e5b d9bd
000003f0: 4d0a 823a 6cc2 b8bd 28a8 4ebd 309d b5bd

0.scale_net.network.2.bias f4 [64]
0.04345172 -0.13680941 -0.099028274 -0.14403433 0.038939897 -0.10375648 -0.0043600863 0.06262194
-0.06362825 -0.013566319 0.01095545 -0.14293066 -0.027779559 0.03136264 0.007619153 -0.12288155
-0.06755629 -0.06345209 -0.07037113 0.13982527 -0.038225606 0.03976034 0.033095926 -0.02477205
-0.123256 -0.01615746 0.02530678 -0.0010858715 -0.055619195 0.009515846 -0.06985296 -0.042383272
-0.0066547054 -0.006296516 -0.011720901 -0.124899305 0.026840353 -0.08795701 -0.17798492 0.011723136
-0.107127994 -0.07460726 -0.16673355 -0.103110746 0.051444832 -0.26414067 0.003745466 0.11637463
-0.1558104 -0.050217982 -0.05362058 0.06719454 0.047507342 -0.040745467 -0.16418834 -0.05695036
0.03285709 0.03446246 -0.008546073 -0.019058827 -0.14770523 -0.06196274 -0.06391032 -0.09885703
00000000: 6efa 313d c417 0cbe 56cf cabd bc7d 13be
00000010: 717f 1f3d 477e d4bd 0edf 8ebb ef3f 803d
00000020: 874f 82bd 4445 5ebc 7d7e 333c 6a5c 12be
00000030: f591 e3bc 1d76 003d 16aa f93b 52a9 fbbd
00000040: f45a 8abd 2bf3 81bd bd1e 90bd 5b2e 0f3e
00000050: 7492 1cbd bddb 223d 988f 073d c1ee cabc
00000060: a46d fcbd a65c 84bc 2a50 cf3c cd53 8eba
00000070: f4d0 63bd 5ae8 1b3c 120f 8fbd 159a 2dbd
00000080: b70f dabb 0153 cebb 0609 40bc 35cb ffbd
00000090: 4de0 db3c ce22 b4bd ae41 36be 6512 403c
000000a0: ec65 dbbd b1cb 98bd 33bc 2abe ba2b d3bd
000000b0: d1b7 523d 723d 87be 7e76 753b d255 ee3d
000000c0: c38c 1fbe 5fb1 4dbd 41a1 5bbd 4a9d 893d
000000d0: 0f97 423d b8e4 26bd fd20 28be c844 69bd
000000e0: 2895 063d 8228 0d3d d404 0cbc 4221 9cbc
000000f0: 0a40 17be a4cc 7dbd 6ae3 82bd 8e75 cabd

0.scale_net.network.4.weight f4 [64, 64]
-0.061693642 0.4567012 -0.0112707615 -0.1742709 -0.09860048 -0.06711437 -0.07336484 0.033935934
-0.18612093 0.09159999 0.3033626 0.16167188 0.0010446379 -0.104881294 -0.14993353 0.0972486
-0.10479981 -0.015693147 0.18635559 0.049145713 -0.0667696 -0.006083164 -0.06305675 0.03331901
-0.07586384 -0.14622267 0.037469365 -0.051861025 0.027211875 -0.051707257 0.08740531 0.004692836
-0.10669994 0.054880764 -0.10663894 0.047350567 0.14687951 -0.026213378 -0.13678572 -0.008047165
0.15587413 0.06255761 0.0037655965 -0.061608206 -0.018291526 -0.07920189 0.06028642 0.038540233
0.011734888 -0.11908656 -0.009214089 0.07765834 -0.121586904 0.029516708 0.03905262 -0.039229393
0.04850769 -0.13413651 -0.047022533 0.05442576 -0.115257055 0.026236624 -0.0027795753 -0.1219219
-0.17174086 0.045556527 0.056686297 -0.008769387 0.0076206005 -0.12664689 -0.10478549 -0.046235193
-0.21257448 0.0183107 0.14137502 0.09632848 -0.080608465 -0.025323657 -0.15259764 0.015887715
0.014569223 -0.021921419 0.07594302 -0.07748256 0.027335148 -0.11317958 -0.041874647 0.013145686
0.114977285 -0.02997862 0.104943804 0.057828087 -0.11887999 -0.0680659 -0.0893832 -0.113784194
-0.14021619 -0.13025816 0.029197505 -0.00063522905 0.082941175 0.086500466 -0.091620535 -0.093361706
0.009345078 -0.04370002 0.015652424 -0.09460444 -0.0739177 -0.11541751 -0.0059824944 0.072259836
-0.10124602 -0.026657933 -0.0007081029 0.07523679 -0.053282756 0.04529682 -0.059925508 -0.034172222
-0.120542705 0.04148664 -0.02783236 -0.045267757 -0.25308204 0.036908593 0.008777595 -0.072123125
0.10245524 0.0148408115 0.056060225 -0.020410284 -0.035651475 -0.09879878 0.11908239 -0.012559906
0.054631338 0.06151606 -0.017044127 0.09392294 0.11229575 -0.0010215938 0.07776296 0.08067167
-0.052099854 -0.015182644 0.097709656 -0.025657356 0.07418388 -0.084432095 0.007958978 -0.0037911087
-0.028583214 -0.09003964 -0.007988378 -0.057323053 0.08202712 -0.035666198 -0.038943276 0.08769831
-0.12267183 -0.116138965 -0.045198143 0.10066545 -0.01014623 0.06630032 -0.09444286 -0.117893144
-0.06104715 -0.115495145 0.06307727 0.11712116 -0.040471673 -0.0037917048 0.06054637 0.08825393
0.0035517514 0.087623775 -0.06860468 -0.014237836 0.07936667 0.1031239 0.006581515 0.08307129
0.08412896 -0.10786414 -0.038344845 0.054342747 0.043440178 -0.083157346 -0.11584349 0.098184735
-0.025680391 -0.025993269 -0.04473512 -0.10124834 0.035023734 0.048165407 -0.16226092 0.052952353
-0.16955218 -0.031742167 0.27118394 -0.05199406 -0.1461262 -0.05369485 -0.04591236 -0.14868706
0.0728403 0.00074512005 0.059033427 0.015687732 0.07020999 0.01891671 0.03172341 -0.016028086
-0.03022547 -0.11441856 -0.007070047 0.082566 -0.06330241 0.064674556 0.07748105 -0.15722953
-0.09880931 -0.07704564 0.06801346 -0.10653108 0.0908332 0.0049862415 -0.14446467 0.04669681
-0.030967502 0.015316092 -0.057166398 0.012989137 -0.060224604 -0.046289608 0.016601903 -0.028378367
0.15328683 -0.12678912 -0.093549035 0.06556563 -0.08705503 0.04230076 -0.0023410465 0.12117182
0.0872315 -0.09042878 -0.13844615 -0.018690215 -0.06688854 -0.05648642 0.059600335 -0.09299481
00000000: 79b2 7cbd bdd4 e93e 00a9 38bc 1274 32be
00000010: 0cef c9bd 4273 89bd 4e40 96bd 6800 0b3d
00000020: 7c96 3ebe c798 bb3d 5852 9b3e 508d 253e
00000030: 3bec 883a 01cc d6bd 2d88 19be 462a c73d
00000040: 48a1 d6bd ea8e 80bc 00d4 3e3e 044d 493d
00000050: 80be 88bd 4755 c7bb e623 81bd 8479 083d
00000060: 805e 9bbd 65bb 15be 7a79 193d 3a6c 54bd
00000070: 70eb de3c fdca 53bd 8e01 b33d 5dc6 993b
00000080: 8085 dabd a7ca 603d 8465 dabd abf2 413d
00000090: 9567 163e 70bd d6bc 8e11 0cbe 42d8 03bc
000000a0: 789d 1f3e 341e 803d 3ac8 763b e358 7cbd
000000b0: 1cd8 95bc 9a34 a2bd e5ee 763d 5ddc 1d3d
000000c0: b043 403c a8e3 f3bd b1f6 16bc 560b 9f3d
000000d0: 8e02 f9bd 06cd f13c a4f5 1f3d 00af 20bd
000000e0: 00b0 463d 155b 09be b39a 40bd 8ced 5e3d
000000f0: e40b ecbd 30ee d63c 8929 36bb 30b2 f9bd
00000100: d6dc 2fbe 7b99 3a3d e42f 683d 7aad 0fbc
00000110: 3bb6 f93b b9af 01be c699 d6bd 1d61 3dbd
00000120: 20ad 59be 5200 963c 9dc4 103e de47 c53d
00000130: 0d16 a5bd 8f73 cfbc 8e42 1cbe f426 823c
00000140: c0b3 6e3c 8c94 b3bc 0488 9b3d 2daf 9ebd
00000150: f6ed df3c b2ca e7bd c084 2bbd 0161 573c
00000160: 3679 eb3d b995 f5bc c7ec d63d 25dd 6c3d
00000170: 5a77 f3bd 2266 8bbd 8a0e b7bd b007 e9bd
00000180: d594 0fbe 6562 05be 9b2f ef3c 8085 26ba
00000190: 10dd a93d 2827 b13d 8ca3 bbbd 6c34 bfbd
000001a0: 191c 193c cbfe 32bd 8339 803c f9bf c1bd
000001b0: 2a62 97bd 0460 ecbd cd08 c4bb f7fc 933d
000001c0: 135a cfbd bd61 dabc fb9f 39ba bf15 9a3d
000001d0: 053f 5abd 2989 393d 7374 75bd 2cf8 0bbd
000001e0: 18df f6bd e5ed 293d b000 e4bc af6a 39bd
000001f0: f893 81be 772d 173d e7cf 0f3c 4ab5 93bd
00000200: 0ed4 d13d e026 733c 689f 653d 7833 a7bc
00000210: 4807 12bd 0457 cabd 78e1 f33d 10c8 4dbc
00000220: 1cc5 5f3d 44f8 7b3d 20a0 8bbc ac5a c03d
00000230: 50fb e53d 00e7 85ba 3042 9f3d 3037 a53d
00000240: a866 55bd a0c0 78bc 001c c83d 602f d2bc
00000250: b8ed 973d bcea acbd 6066 023c 4074 78bb
00000260: 5827 eabc b466 b8bd b0e1 02bc 94cb 6abd
00000270: d6fd a73d b816 12bd fc82 1fbd 2c9b b33d
00000280: 5e3b fbbd 44da edbd b021 39bd b029 ce3d
00000290: 603c 26bc 76c8 873d 426b c1bd f671 f1bd
000002a0: 940c 7abd b888 ecbd a82e 813d 38dd ef3d
000002b0: a0c5 25bd 407e 78bb 78ff 773d 7abe b43d
000002c0: 80c4 683b 1874 b33d 9c80 8cbd d045 69bc
000002d0: fe8a a23d a032 d33d c0a9 d73b 4821 aa3d
000002e0: ce4b ac3d e0e7 dcbd 7c0f 1dbd 8096 5e3d
000002f0: 54ee 313d 664e aabd 5a3f edbd 1415 c93d
00000300: af5f d2bc d6ef d4bc 2c3c 37bd 4a5b cfbd
00000310: 0c75 0f3d 1749 453d ba27 26be 91e4 583d
00000320: 169f 2dbe 1304 02bd 9fd8 8a3e b9f7 54bd
00000330: 1ba2 15be 22ef 5bbd 990e 3cbd 6c41 18be
00000340: 4c2d 953d 2954 433a 09cd 713d 8f83 803c
00000350: 41ca 8f3d 37f7 9a3c 68f0 013d 554d 83bc
00000360: 689b f7bc 4754 eabd daab e7bb 5d18 a93d
00000370: b2a4 81bd 1874 843d 62ae 9e3d c700 21be
00000380: 895c cabd 1bca 9dbd a44a 8b3d f82c dabd
00000390: c206 ba3d a063 a33b 8cee 13be 2745 3f3d
000003a0: 8faf fdbc 59f0 7a3c 5027 6abd 64d0 543c
000003b0: 13ae 76bd 2c9a 3dbd b700 883c c079 e8bc
000003c0: 39f7 1c3e 02d5 01be a396 bfbd 4647 863d
000003d0: e849 b2bd 9043 2d3d 3e6c 19bb ee28 f83d
000003e0: 6ea6 b23d b932 b9bd d4c4 0dbe 391c 99bc
000003f0: dcfc 88bd 4e5e 67bd 7b1f 743d 1074 bebd

0.scale_net.network.4.bias f4 [64]
0.03995595 0.016288055 -0.120767236 0.04943203 0.27850538 -0.04298457 0.0054226485 -0.2640938
0.012765268 -0.124521226 0.023976998 0.34660736 -0.14328833 -0.03621336 -0.025520686 0.029299602
0.0068760174 0.050521765 -0.07935668 -0.000529672 -0.017406434 -0.10678208 0.20213582 -0.145754
-0.020375479 -0.17568664 -0.15124515 0.004314966 -0.018408058 0.07328455 0.36196354 -0.007991314
-0.0933805 -0.04418659 0.009024293 0.023560975 -0.100992724 -0.107799605 -0.117498696 -0.085603036
-0.08096583 0.06352156 -0.04559616 0.009524409 -0.119940065 0.0101465825 0.094043605 0.0038147233
-0.1285795 -0.012034981 -0.08016762 -0.114998475 -0.05912791 0.047841974 -0.06683857 -0.3033545
0.005741358 -0.1373539 0.112120405 -0.09860154 0.2563321 0.025253143 0.25870356 0.13126032
00000000: daa8 233d 876e 853c d054 f7bd 3e79 4a3d
00000010: 4298 8e3e 9710 30bd 79b0 b13b 4d37 87be
00000020: 6a25 513c fc04 ffbd 696b c43c 8576 b13e
00000030: 2dba 12be 7654 14bd c210 d1bc b805 f03c
00000040: 3750 e13b e9ef 4e3d c185 a2bd b0d9 0aba
00000050: f097 8ebc 90b0 dabd b1fc 4e3e 8940 15be
00000060: 7aea a6bc 33e7 33be 02e0 1abe 8f64 8d3b
00000070: 7fcc 96bc 3616 963d 4953 b93e 00ee 02bc
00000080: 473e bfbd fffc 34bd a1da 133c f202 c13c
00000090: 46d5 cebd 0ac6 dcbd 28a3 f0bd a550 afbd
000000a0: 6ad1 a5bd 9717 823d 0ac3 3abd 440c 1c3c
000000b0: 23a3 f5bd da3d 263c ef99 c03d 7000 7a3b
000000c0: 58aa 03be 5e2e 45bc ec2e a4bd 5284 ebbd
000000d0: 1b30 72bd f2f5 433d a9e2 88bd 4851 9bbe
000000e0: 0022 bc3b 80a6 0cbe 629f e53d 9bef c9bd
000000f0: f63d 833e aedf ce3c cb74 843e 1b69 063e

0.scale_net.network.6.weight f4 [6, 64]
0.01795978 0.0457904 -0.053037956 0.036665417 -0.2164955 0.020096172 0.031029385 0.16603093
-0.006705151 0.012061898 -0.030330975 -0.31730047 -0.038439937 0.008024506 -0.0103368275 -0.031929348
0.3047235 0.04278997 -0.0066901306 -0.07896254 0.062418763 0.054830723 -0.0744157 0.0034126758
0.11691869 -0.052657127 0.051763773 0.0026914263 0.27278662 0.027310098 -0.31718516 0.076156504
-0.025633335 -0.0015744236 0.16564995 0.06942826 0.0 0.0 0.0 -0.01873885
0.022089707 0.39304683 -0.053219747 0.39344722 -0.017013637 0.0067330217 0.0058943797 0.20082572
-0.030251514 0.14644378 0.0 -0.03669061 0.055733923 0.457963 -0.021608125 0.016586302
-0.0129203405 0.030711224 -0.02564531 0.0021962665 -0.2084406 -0.03785459 -0.20155412 -0.22180381
0.0 0.0 0.0 0.0 0.0 0.0 0.0 0.0
0.0 0.0 0.0 0.0 0.0 0.0 0.0 0.0
0.0 0.0 0.0 0.0 0.0 0.0 0.0 0.0
0.0 0.0 0.0 0.0 0.0 0.0 0.0 0.0
0.0 0.0 0.0 0.0 0.0 0.0 0.0 0.0
0.0 0.0 0.0 0.0 0.0 0.0 0.0 0.0
0.0 0.0 0.0 0.0 0.0 0.0 0.0 0.0
0.0 0.0 0.0 0.0 0.0 0.0 0.0 0.0
-0.03400407 -0.011989153 0.06315728 -0.023042116 -0.09965616 0.025985073 -0.0063784253 0.06640672
0.0019841534 0.085000955 0.11031343 -0.22432579 0.13578068 0.10666748 -0.031054005 0.10516211
0.0029303306 -0.033398926 0.04313451 -0.012718615 0.04771767 0.065833285 -0.14552456 -0.13875024
0.007914719 0.03575808 0.06955656 0.22137707 0.06601392 -0.04914459 -0.1698406 0.0142532615
0.0037335611 -0.037066642 0.0017618394 -0.02764269 0.0 0.0 0.0 0.012601899
0.0030645083 0.10753835 0.046948295 0.012939875 0.0027940362 -0.013629916 -0.062019333 0.043270927
0.023985887 0.01297683 0.0 -0.068065315 0.050421562 0.12878112 0.017745884 0.005277584
-0.08600682 0.07101411 -0.0826885 0.048768163 -0.067998745 -0.016924443 -0.10621701 -0.10089061
0.0 0.0 0.0 0.0 0.0 0.0 0.0 0.0
0.0 0.0 0.0 0.0 0.0 0.0 0.0 0.0
0.0 0.0 0.0 0.0 0.0 0.0 0.0 0.0
0.0 0.0 0.0 0.0 0.0 0.0 0.0 0.0
0.0 0.0 0.0 0.0 0.0 0.0 0.0 0.0
0.0 0.0 0.0 0.0 0.0 0.0 0.0 0.0
0.0 0.0 0.0 0.0 0.0 0.0 0.0 0.0
0.0 0.0 0.0 0.0 0.0 0.0 0.0 0.0
00000000: 6320 933c b78e 3b3d 543e 59bd 7a2e 163d
00000010: ffb0 5dbe baa0 a43c 5631 fe3c 0304 2a3e
00000020: e2b6 dbbb 449f 453c aa78 f8bc 3575 a2be
00000030: 3273 1dbd 3879 033c cc5b 29bc 59c8 02bd
00000040: b804 9c3e 8944 2f3d e238 dbbb 1db7 a1bd
00000050: d1aa 7f3d 2e96 603d 4267 98bd 33a7 5f3b
00000060: 1173 ef3d 00af 57bd 4006 543d a462 303b
00000070: b0aa 8b3e 6db9 df3c 1866 a2be f1f7 9b3d
00000080: 00fd d1bc e45c ceba 24a0 293e 6730 8e3d
00000090: 0000 0000 0000 0000 0000 0000 3782 99bc
000000a0: 79f5 b43c 6f3d c93e f3fc 59bd ea71 c93e
000000b0: 2f60 8bbc aea0 dc3b a425 c13b 42a5 4d3e
000000c0: 06d2 f7bc 5cf5 153e 0000 0000 e548 16bd
000000d0: 4149 643d 207a ea3e 8603 b1bc ffdf 873c
000000e0: d6af 53bc 1b96 fb3c 1d16 d2bc 3def 0f3b
000000f0: 7471 55be 6a0d 1bbd 3464 4ebe 8a20 63be
00000100: 0000 0000 0000 0000 0000 0000 0000 0000
00000110: 0000 0000 0000 0000 0000 0000 0000 0000
00000120: 0000 0000 0000 0000 0000 0000 0000 0000
00000130: 0000 0000 0000 0000 0000 0000 0000 0000
00000140: 0000 0000 0000 0000 0000 0000 0000 0000
00000150: 0000 0000 0000 0000 0000 0000 0000 0000
00000160: 0000 0000 0000 0000 0000 0000 0000 0000
00000170: 0000 0000 0000 0000 0000 0000 0000 0000
00000180: 0000 0000 0000 0000 0000 0000 0000 0000
00000190: 0000 0000 0000 0000 0000 0000 0000 0000
000001a0: 0000 0000 0000 0000 0000 0000 0000 0000
000001b0: 0000 0000 0000 0000 0000 0000 0000 0000
000001c0: 0000 0000 0000 0000 0000 0000 0000 0000
000001d0: 0000 0000 0000 0000 0000 0000 0000 0000
000001e0: 0000 0000 0000 0000 0000 0000 0000 0000
000001f0: 0000 0000 0000 0000 0000 0000 0000 0000
00000200: da47 0bbd 276e 44bc 9b58 813d d2c2 bcbc
00000210: 8718 ccbd a6de d43c 1c02 d1bb 3f00 883d
00000220: 9208 023b fb14 ae3d 02ec e13d a9b5 65be
00000230: 170a 0b3e 7b74 da3d f864 febc 3b5f d73d
00000240: ca0a 403b 50cd 08bd d0ad 303d bd61 50bc
00000250: 9b73 433d 9ad3 863d 6404 15be 8b14 0ebe
00000260: bdac 013c 1177 123d ab73 8e3d acb0 623e
00000270: 4e32 873d d64b 49bd b2ea 2dbe 8386 693c
00000280: c3ae 743b 31d3 17bd 85ed e63a ec72 e2bc
00000290: 0000 0000 0000 0000 0000 0000 3278 4e3c
000002a0: ebd5 483b 113d dc3d db4c 403d c501 543c
000002b0: 261c 373b 0350 5fbc fc07 7ebd db3c 313d
000002c0: 0d7e c43c c59c 543c 0000 0000 d465 8bbd
000002d0: d786 4e3d 33df 033e d15f 913c 95ef ac3b
000002e0: 5824 b0bd d96f 913d 9758 a9bd 20c1 473d
000002f0: ed42 8bbd 21a5 8abc 4e88 d9bd bc9f cebd
00000300: 0000 0000 0000 0000 0000 0000 0000 0000
00000310: 0000 0000 0000 0000 0000 0000 0000 0000
00000320: 0000 0000 0000 0000 0000 0000 0000 0000
00000330: 0000 0000 0000 0000 0000 0000 0000 0000
00000340: 0000 0000 0000 0000 0000 0000 0000 0000
00000350: 0000 0000 0000 0000 0000 0000 0000 0000
00000360: 0000 0000 0000 0000 0000 0000 0000 0000
00000370: 0000 0000 0000 0000 0000 0000 0000 0000
00000380: 0000 0000 0000 0000 0000 0000 0000 0000
00000390: 0000 0000 0000 0000 0000 0000 0000 0000
000003a0: 0000 0000 0000 0000 0000 0000 0000 0000
000003b0: 0000 0000 0000 0000 0000 0000 0000 0000
000003c0: 0000 0000 0000 0000 0000 0000 0000 0000
000003d0: 0000 0000 0000 0000 0000 0000 0000 0000
000003e0: 0000 0000 0000 0000 0000 0000 0000 0000
000003f0: 0000 0000 0000 0000 0000 0000 0000 0000

0.scale_net.network.6.bias f4 [6]
-0.2291716 0.0 -0.010624177 0.0 -0.039125856 0.0
00000000: f6ab 6abe 0000 0000 0711 2ebc 0000 0000
00000010: 6f42 20bd 0000 0000

0.translate_net.network.0.weight f4 [64, 6]
-0.26564866 -0.31990582 -0.29150125 0.29402024 0.049964637 0.1348296 0.032174528 -0.06137766
-0.19826022 -0.3306974 0.18960822 0.17894682 -0.16988133 -0.107681654 -0.10343644 0.40884325
0.3309163 0.42014736 0.15160125 -0.29015008 0.28340846 0.064822115 0.38609433 0.1535282
0.0055174828 0.21403292 0.4012164 0.009907798 -0.2720993 -0.1635065 -0.15711835 -0.20189105
-0.06452295 -0.261612 -0.038535893 0.09062274 -0.31961647 0.31352696 -0.11182964 0.036470193
-0.3109519 -0.22943683 -0.11655462 0.357322 -0.14697003 -0.09832178 -0.06505808 -0.2677432
0.36102486 -0.37916982 0.056871086 -0.23545013 0.3685224 -0.07256427 -0.00876385 -0.18098891
-0.32211402 0.07481584 0.23247999 0.038954515 -0.050796807 0.21251023 -0.22935468 0.100670286
0.19089514 -0.21601383 0.32314378 -0.30886728 -0.050349325 -0.07303563 0.2116003 0.10678512
-0.027538836 -0.11191474 -0.37478718 0.17019114 -0.27358973 0.3749903 -0.036616474 -0.113140814
-0.056504667 0.31934595 0.17585701 -0.0677349 -0.2520076 -0.27025586 -0.07795814 -0.08195722
0.22233391 0.25862718 -0.20301557 0.2407508 0.03795013 0.20159578 -0.33924708 0.16482118
0.035848647 -0.32350507 0.010550469 0.32683372 -0.065071136 -0.1552602 -0.27820027 -0.0018436611
0.36954814 0.09115556 -0.34563974 0.17056805 -0.3861474 -0.40984386 0.28123242 -0.22507547
0.14931512 0.3235053 -0.28152066 -0.4422157 0.36812222 -0.110577665 -0.06449753 0.40069535
-0.22777018 0.2860201 -0.31437105 0.45350838 -0.028587222 -0.28648472 -0.051027775 0.007922455
0.25352907 0.042069152 0.30492145 0.069050916 0.38548815 0.18762824 0.37287337 0.27791363
-0.15911561 0.2248462 0.3046645 -0.2218384 -0.17182037 -0.107382685 0.28044415 0.25467175
0.3864708 0.22762631 0.1463297 0.19299206 0.36502677 -0.25398993 -0.25243646 0.053565532
-0.16069043 0.11034399 -0.3594671 -0.2685606 -0.23508424 0.13187808 0.3972627 0.31942135
-0.2501428 0.14787771 0.16351908 -0.057306636 0.20634437 -0.030606134 0.20923412 0.01951975
-0.36644197 0.3773788 0.09437895 0.39208576 -0.3506183 -0.237579 -0.33780143 0.4151663
0.038239807 -0.16623025 0.33634233 0.18070947 -0.24180803 0.47266775 0.33613127 -0.061239664
0.33132845 0.39959854 0.112624764 0.11406556 -0.17393738 -0.26013523 -0.36591333 -0.14627478
0.05160284 -0.18016487 0.18692851 0.012278169 0.07421011 -0.34637597 -0.038681656 0.13490409
0.059514135 -0.1526986 0.11054188 0.026257247 -0.107553214 0.32796192 0.30388153 -0.5339821
-0.07337946 0.10536873 -0.24122305 0.12630416 -0.37573257 0.16965793 -0.07978675 0.31130695
-0.16253743 -0.9764064 -0.22749044 -0.33178028 -0.16174532 0.28244418 -0.033834368 0.02334605
0.3403647 -0.04646341 -0.047136694 -0.15581484 0.36885434 0.19198759 -0.030651093 -0.4864734
-0.30619493 -0.268201 0.35168707 -1.5169985 -0.021967053 -0.19127662 -0.08149025 -0.07464532
0.2841072 -0.34618092 0.2275998 0.09599772 0.101736546 0.2558235 -0.36593202 -0.19331108
0.17590821 -0.08005551 -0.21930188 -0.20285994 0.38329238 -0.19952343 -0.3006518 0.0078232
00000000: 1a03 88be b2ca a3be a73f 95be d289 963e
00000010: b8a7 4c3d c510 0a3e 70c9 033d 2467 7bbd
00000020: ba04 4bbe 2b51 a9be a828 423e d63d 373e
00000030: 5ff5 2dbe 3388 dcbd 7cd6 d3bd e753 d13e
00000040: dc6d a93e 8e1d d73e 5c3d 1b3e 8d8e 94be
00000050: ea1a 913e 75c1 843d 28ae c53e 7f36 1d3e
00000060: 00cc b43b 722b 5b3e 3c6c cd3e 5154 223c
00000070: 9950 8bbe 3f6e 27be a2e3 20be 87bc 4ebe
00000080: 9c24 84bd 02f2 85be d0d7 1dbd 6a98 b93d
00000090: c5a4 a3be 9b86 a03e f006 e5bd c561 153d
000000a0: 1635 9fbe 7df1 6abe 30b4 eebd e9f2 b63e
000000b0: 507f 16be ee5c c9bd 2c3d 85bd a315 89be
000000c0: 40d8 b83e 8c22 c2be a8f1 683d d719 71be
000000d0: f8ae bc3e 939c 94bd 4096 0fbc 2855 39be
000000e0: 21ec a4be 0c39 993d 3c0f 6e3e c58e 1f3d
000000f0: 5010 50bd 489c 593e f4db 6abe 392c ce3d
00000100: 047a 433e bb32 5dbe 1a73 a53e da23 9ebe
00000110: 183b 4ebd b493 95bd c0ad 583e 28b2 da3d
00000120: 2099 e1bc 8e33 e5bd 1be4 bfbe 9646 2e3e
00000130: f413 8cbe bbfe bf3e 28fb 15bd 5fb6 e7bd
00000140: 7071 67bd 5081 a33e dc13 343e 98b8 8abd
00000150: 2407 81be fa5e 8abe 84a8 9fbd 30d9 a7bd
00000160: 80ab 633e c86a 843e 50e3 4fbe 6187 763e
00000170: 9871 1b3d 206f 4e3e cbb1 adbe e2c6 283e
00000180: 08d6 123d 75a2 a5be e0db 2c3c c056 a73e
00000190: 0444 85bd 88fc 1ebe 4470 8ebe 00a7 f1ba
000001a0: 6a35 bd3e c4af ba3d b1f7 b0be 64a9 2e3e
000001b0: 1db5 c5be 0ed7 d1be b2fd 8f3e 2f7a 66be
000001c0: 10e6 183e 7da2 a53e 7a23 90be 196a e2be
000001d0: 847a bc3e 8b76 e2bd 4817 84bd f127 cd3e
000001e0: 963c 69be 3a71 923e 3ef5 a0be 4032 e83e
000001f0: c02f eabc 20ae 92be 8002 51bd 2fcd 013c
00000200: 90ce 813e b450 2c3d aa1e 9c3e 916a 8d3d
00000210: b45e c53e 9e21 403e 42e9 be3e b24a 8e3e
00000220: 34ef 22be 153e 663e fcfc 9b3e 9b29 63be
00000230: aef1 2fbe 74eb dbbd 6096 8f3e 5664 823e
00000240: 80df c53e df16 693e 74d7 153e b69f 453e
00000250: cae4 ba3e f80a 82be 5a3f 81be 8867 5b3d
00000260: 088c 24be 08fc e13d 120c b8be c680 89be
00000270: ecb9 70be 0c0b 073e 0466 cb3e 328b a33e
00000280: b812 80be 416d 173e 8c71 273e 5dba 6abd
00000290: f04b 533e b7b9 fabc 7841 563e e2e7 9f3c
000002a0: 489e bbbe cb37 c13e c049 c13d 77bf c83e
000002b0: 3e84 b3be e947 73be 4ff4 acbe ad90 d43e
000002c0: 58a1 1c3d 4338 2abe 1035 ac3e e70b 393e
000002d0: 869c 77be 8201 f23e 6619 ac3e 71d6 7abd
000002e0: e2a3 a93e 2e98 cc3e d0a7 e63d 349b e93d
000002f0: a41c 32be 7230 85be fe58 bbbe 0ec9 15be
00000300: 805d 533d 247d 38be 306a 3f3e 602a 493c
00000310: 78fb 973d 3158 b1be a870 1ebd 4c24 0a3e
00000320: 18c5 733d 065d 1cbe c863 e23d 7019 d73c
00000330: dc44 dcbd a0ea a73e 5c96 9b3e 0db3 08bf
00000340: f847 96bd 90cb d73d 2d03 77be e155 013e
00000350: 0560 c0be cfba 2d3e 3c67 a3bd a063 9f3e
00000360: 3670 26be c5f5 79bf 41f3 68be 1bdf a9be
00000370: 91a0 25be 869c 903e e895 0abd 3740 bf3c
00000380: 4844 ae3e 6b50 3ebd 6812 41bd ed8d 1fbe
00000390: 7ada bc3e 6598 443e 0018 fbbc 0b13 f9be
000003a0: 95c5 9cbe a451 89be 5410 b43e 022d c2bf
000003b0: 40f4 b3bc 05de 43be 5ce4 a6bd a5df 98bd
000003c0: 8076 913e a03e b1be ec0f 693e 749a c43d
000003d0: 405b d03d 4cfb 823e 715b bbbe 57f3 45be
000003e0: 4821 343e 25f4 a3bd ac90 60be 84ba 4fbe
000003f0: e63e c43e df4f 4cbe 08ef 99be e12c 003c

0.translate_net.network.0.bias f4 [64]
-0.28508282 0.07370294 0.022650829 0.004789946 0.018267926 0.025517225 -0.3823137 -0.032116238
0.026290208 0.025899049 0.03910742 -0.34697223 0.051299665 0.27593267 -0.3995359 0.16840456
-0.09072734 -0.3794623 0.022528108 0.009768896 -0.12612857 -0.24247077 -0.059287354 -0.30499262
0.0741496 -0.28721023 0.07480936 -0.021797314 -0.37598062 -0.29635617 -0.35570264 -0.029770138
-0.103361115 -0.33020163 -0.00025429804 -0.1818436 -0.16360596 -0.03543378 -0.07226212 0.027437434
0.027476083 -0.24596412 0.03992011 -0.4394009 -0.36858547 -0.006326472 0.19456844 0.18323329
-0.07575393 -0.0031146856 -0.00046725146 -0.029560223 -0.08962681 0.030283203 -0.3542059 0.25362018
-0.31961954 -0.1500834 -0.21976632 -0.14233692 0.041872855 -0.17395996 -0.3483367 0.16481136
00000000: 60f6 91be 91f1 963d 3b8e b93c fbf4 9c3b
00000010: 9ea6 953c 8009 d13c 9fbe c3be 518c 03bd
00000020: 905e d73c 3e2a d43c 1a2f 203d 58a6 b1be
00000030: 991f 523d 0c47 8d3e f88f ccbe 3f72 2c3e
00000040: 41cf b9bd e248 c2be de8c b83c b80d 203c
00000050: d927 01be 424a 78be 4cd7 72bd fe27 9cbe
00000060: bfdb 973d 380d 93be a635 993d 4890 b2bc
00000070: 8880 c0be ffbb 97be a81e b6be 81e0 f3bc
00000080: feae d3bd 3010 a9be 4e53 85b9 3535 3abe
00000090: 5288 27be 0323 11bd 2afe 93bd 78c4 e03c
000000a0: 8615 e13c 05de 7bbe 4583 233d 28f9 e0be
000000b0: 3cb7 bcbe 4b4e cfbb f33c 473e 82a1 3b3e
000000c0: e024 9bbd c11f 4cbb 6ef9 f4b9 4828 f2bc
000000d0: 438e b7bd 7b14 f83c 7a5a b5be 81da 813e
000000e0: 2ca5 a3be 76af 19be 6c0a 61be c5c0 11be
000000f0: df82 2b3d 8f22 32be 3059 b2be 4fc4 283e

0.translate_net.network.2.weight f4 [64, 64]
0.07033831 -0.056263298 -0.0118519 0.01703745 -0.0070405863 -0.09955356 -0.0029588044 -0.12839775
-0.024960505 -0.07196329 -0.09461735 0.01793708 -0.18854704 -0.16133444 0.045087755 0.028345557
0.056060713 0.0274923 0.051501807 -0.17716442 -0.049240015 -0.12523162 -0.13516505 -0.0035936385
-0.009921972 0.053244144 -0.058088217 -0.179419 -0.06162874 -0.17357875 -0.08264251 -0.12029806
0.041469786 0.06923321 0.010262032 -0.11563978 0.103455 -0.1641675 -0.0060036695 -0.006937262
0.021125538 -0.0967515 -0.052545354 -0.05007223 -0.03497711 -0.18409914 0.029867072 -0.088388816
-0.11110613 -0.030911852 -0.13799344 -0.15715447 -0.14646783 -0.11619379 -0.0449377 0.02086153
-0.13081515 -0.10312238 0.0486771 0.038261283 -0.12763536 0.04819709 0.11927442 -0.013722646
0.082537435 -0.019648958 0.04817215 -0.04704526 -0.035135686 -0.12435688 0.08933949 -0.17854957
-0.024921002 -0.21727341 -0.19323112 -0.08302076 0.058397546 -0.1053331 -0.122032136 0.008061827
0.08274261 -0.116659924 0.069197126 0.068492495 0.12592612 0.15414825 -0.01833305 0.08810957
-0.13113056 -0.012980193 0.002011716 0.025844697 -0.13006335 -0.006980637 0.13180467 0.0047205165
-0.08304592 0.0985253 -0.052251663 -0.06319525 0.18004742 -0.095368005 -0.049544662 -0.2461978
0.004140148 -0.16304348 -0.052275483 -0.033969365 -0.13207315 -0.14165443 -0.20020926 -0.07304672
-0.1515044 0.057158496 -0.060629148 0.054605085 -0.17430565 -0.09451231 -0.04136671 0.008889847
-0.05029768 0.008838068 0.10633166 -0.043996014 -0.13188581 -0.009513661 0.01336205 0.0020134668
0.06542346 -0.16685319 -0.1296969 -0.1137475 -0.29652536 -0.15780129 -0.07989904 -0.16270697
-0.0787612 -0.051444404 -0.2673018 0.11593032 -0.16770457 -0.12582058 -0.08673474 -0.23809692
-0.092454314 -0.10666026 -0.15086426 -0.032155998 0.12053099 -0.11877146 -0.13731155 -0.050999984
-0.17796786 0.009729639 -0.016734734 -0.2504736 -0.09855281 -0.08312409 -0.13334002 -0.10453197
0.021325976 -0.07690935 -0.20280808 -0.03083315 -0.15449086 -0.07166926 -0.10803434 -0.008728079
-0.2713353 0.037179664 -0.08898255 0.01297988 -0.11686821 -0.07847498 -0.2519945 -0.10417623
-0.01921429 -0.09158224 -0.11818786 -0.11305086 -0.041029155 -0.23077656 0.01821889 -0.12688337
-0.11716242 -0.2249725 -0.26674294 0.036733102 -0.20439616 -0.05302331 0.018206984 -0.22334102
0.08267534 0.06788259 0.008135394 0.044962287 -0.052825067 0.029777661 -0.074741095 -0.07399321
0.06544159 0.030899107 -0.03415142 -0.112364784 -0.115439825 0.025068924 -0.05744107 -0.13746694
0.06313428 -0.068188995 0.04675674 -0.059466295 0.029316902 0.08390626 -0.1145095 -0.0928541
-0.021220079 -0.111408934 -0.15761654 0.010654699 0.053802967 0.005982162 -0.017894642 -0.12950397
-0.097463675 -0.0011327863 0.008237382 -0.097892106 -0.07005693 -0.08362076 -0.13180143 0.07102688
-0.07373032 -0.02568015 -0.14912108 0.057767704 -0.010367751 -0.11102596 -0.015307018 -0.051806226
0.040618807 -0.0988783 -0.06017425 -0.083726324 -0.16012834 -0.067624375 0.06764953 -0.16421963
-0.049798887 -0.045815147 -0.14951824 -0.11409192 0.016655743 0.021435678 0.103257045 -0.15646823
00000000: 880d 903d 5874 66bd 792e 42bc 1f92 8b3c
00000010: b8b4 e6bb bde2 cbbd 80e8 41bb b37a 03be
00000020: f979 ccbc 7d61 93bd bec6 c1bd c8f0 923c
00000030: 7a12 41be db34 25be f0ad 383d f134 e83c
00000040: eb9f 653d 8837 e13c 8ff3 523d 976a 35be
00000050: e6af 49bd b83c 00be b568 0abe 4083 6bbb
00000060: c48f 22bc 8816 5a3d e9ed 6dbd 9db9 37be
00000070: 6b6e 7cbd a1be 31be 7a40 a9bd d45e f6bd
00000080: 39dc 293d 24ca 8d3d 1522 283c 8dd4 ecbd
00000090: 37e0 d33d 861b 28be 6eba c4bb f951 e3bb
000000a0: 770f ad3c a725 c6bd cc39 57bd 8a18 4dbd
000000b0: 2844 0fbd 7c84 3cbe caab f43c 3205 b5bd
000000c0: 9c8b e3bd da3a fdbc 274e 0dbe 1aed 20be
000000d0: aafb 15be 03f7 edbd 9810 38bd cde5 aa3c
000000e0: 68f4 05be d431 d3bd a461 473d ddb7 1c3d
000000f0: d8b2 02be 506a 453d 2646 f43d f3d4 60bc
00000100: 6309 a93d daf6 a0bc 2950 453d 88b2 40bd
00000110: 70ea 0fbd d2ae febd 9ff7 b63d b3d5 36be
00000120: 2127 ccbc ec7c 5ebe 61de 45be ca06 aabd
00000130: 4432 6f3d e1b8 d7bd fceb f9bd c115 043c
00000140: f574 a93d 66eb eebd 39b7 8d3d cb45 8c3d
00000150: c7f2 003e 0ad9 1d3e 312f 96bc ca72 b43d
00000160: 1747 06be e0aa 54bc fed6 033b 42b8 d33c
00000170: 542f 05be d4bd e4bb cef7 063e 90ae 9a3b
00000180: fb13 aabd a2c7 c93d d705 56bd 836c 81bd
00000190: 5a5e 383e 4d50 c3bd 58ef 4abd 471b 7cbe
000001a0: 14aa 873b dff4 26be d11e 56bd 7623 0bbd
000001b0: 2f3e 07be dc0d 11be a803 4dbe 8599 95bd
000001c0: f823 1bbe 071f 6a3d 4556 78bd 95a9 5f3d
000001d0: 2e7d 32be ac8f c1bd 2470 29bd b9a6 113c
000001e0: f104 4ebd 8bcd 103c 6ac4 d93d 2a35 34bd
000001f0: 130d 07be 30df 1bbc 80ec 5a3c 5ef4 033b
00000200: bcfc 853d 90db 2abe 44cf 04be 73f4 e8bd
00000210: 2cd2 97be a996 21be 1ca2 a3bd a89c 26be
00000220: 8d4d a1bd 5eb7 52bd c8db 88be e06c ed3d
00000230: bfba 2bbe 1cd7 00be fca1 b1bd aecf 73be
00000240: b058 bdbd b270 dabd 297c 1abe 02b6 03bd
00000250: f4d8 f63d 743e f3bd 669b 0cbe 5ce5 50bd
00000260: 353d 36be 1069 1f3c 4817 89bc 133e 80be
00000270: 0ed6 c9bd f73c aabd 498a 08be dc14 d6bd
00000280: d0b3 ae3c a682 9dbd ecac 4fbe cd95 fcbc
00000290: da32 1ebe 55c7 92bd 1c41 ddbd 3700 0fbc
000002a0: 76ec 8abe b449 183d 7c3c b6bd 90a9 543c
000002b0: 9a58 efbd 7eb7 a0bd 6c05 81be 595a d5bd
000002c0: 4967 9dbc 788f bbbd 7a0c f2bd 3687 e7bd
000002d0: 300e 28bd b150 6cbe c83f 953c b7ed 01be
000002e0: daf2 efbd 315f 66be 8892 88be 7375 163d
000002f0: 3a4d 51be f82e 59bd d026 953c 82b3 64be
00000300: b051 a93d 0706 8b3d 514a 053c 602a 383d
00000310: 195f 58bd 48f0 f33c dc11 99bd c189 97bd
00000320: 3e06 863d 2020 fd3c 5ce2 0bbd 821f e6bd
00000330: b76b ecbd 585d cd3c 5447 6bbd 22c4 0cbe
00000340: 8c4c 813d aca6 8bbd ff83 3f3d ee92 73bd
00000350: 002a f03c 0cd7 ab3d f583 eabd 4a2a bebd
00000360: bbd5 adbc 5e2a e4bd 3b66 21be 0c91 2e3c
00000370: 8060 5c3d 0306 c43b c997 92bc b09c 04be
00000380: 099b c7bd 007a 94ba 16f6 063c a87b c8bd
00000390: 027a 8fbd 5c41 abbd f4f6 06be 8a76 913d
000003a0: ecff 96bd 2e5f d2bc 32b3 18be d49d 6c3d
000003b0: 80dd 29bc 9461 e3bd 49ca 7abc c432 54bd
000003c0: e85f 263d b580 cabd 4679 76bd b578 abbd
000003d0: aff8 23be a67e 8abd d68b 8a3d 3129 28be
000003e0: ebf9 4bbd aaa8 3bbd 4f1b 19be 06a9 e9bd
000003f0: a071 883c e099 af3c 6e78 d33d 3539 20be

0.translate_net.network.2.bias f4 [64]
0.030523952 -0.05023513 -0.2066882 -0.014135432 -0.084545255 -0.07893815 -0.17786716 -0.015591048
0.0344176 -0.07937218 -0.10402123 0.10619885 -0.09283307 -0.09683353 -0.25693023 0.020400753
0.06697095 0.051448658 -0.0229393 -0.005159975 -0.12882783 -0.13592583 -0.054060906 -0.011303166
-0.04462407 0.020211998 -0.0091790585 0.018955152 -0.09935732 0.017637303 -0.10473954 0.009199461
-0.049936824 0.01169986 -0.11281218 -0.082748696 -0.0690061 0.06869766 -0.022357598 -0.1378747
-0.028344827 -0.17898129 0.012357609 0.20050868 -0.08667329 -0.04842724 0.056156363 0.042625446
-0.036742482 0.13556127 -0.170303 0.010090679 -0.3032965 -0.03375207 0.052159805 0.0073354733
0.057366863 0.090061426 0.0055666626 -0.0042010867 0.0050220336 -0.00924597 -0.028157031 -0.039078325
00000000: 5e0d fa3c 5ac3 4dbd 12a6 53be 4d98 67bc
00000010: 1026 adbd 53aa a1bd cf22 36be 9871 7fbc
00000020: 78f9 0c3d e28d a2bd 1509 d5bd c87e d93d
00000030: 441f bebd a850 c6bd 5c8c 83be 7b1f a73c
00000040: 1128 893d d4bb 523d 33eb bbbc 0215 a9bb
00000050: 71eb 03be 2430 0bbe f86e 5dbd ea30 39bc
00000060: bbc7 36bd a293 a53c c363 16bc d647 9b3c
00000070: da7b cbbd 1b7c 903c af81 d6bd 56b9 163c
00000080: 8e8a 4cbd c5b0 3f3c 120a e7bd 2678 a9bd
00000090: 1253 8dbd 5cb1 8c3d 4827 b7bc 062f 0dbe
000000a0: 6933 e8bc df46 37be 9277 4a3c 2652 4d3e
000000b0: c481 b1bd a45b 46bd 3704 663d 0598 2e3d
000000c0: 497f 16bd 93d0 0a3e e963 2ebe 6053 253c
000000d0: ae49 9bbe 9c3f 0abd 85a5 553d 695e f03b
000000e0: 84f9 6a3d 2072 b83d 8d68 b63b 45a9 89bb
000000f0: df8f a43b 697c 17bc 93a9 e6bc 9810 20bd
