SE3_DS/nn_models/models/PegInHole_models/best_model_004.pth (torch, 396402 bytes, 80 tensors)

0.scale_net.network.0.weight f4 [64, 6]
0	0x3bc80700	0.00610435
1	0x3ddb24e0	0.10700393
2	0xbeb2049e	-0.34769148
3	0xbe474c29	-0.19462647
4	0xbe73a379	-0.23792829
5	0xbf12858e	-0.5723504
6	0x3eb8dd9a	0.3610657
7	0x3e41652b	0.18886249
8	0x3e7c2404	0.24623114
9	0x3e88b89a	0.2670334
10	0xbd56cda8	-0.052442223
11	0xbbff31d0	-0.0077879205
12	0x3d64a680	0.05582285
13	0xbe7400e7	-0.23828469
14	0xbd80eb80	-0.06294918
15	0x3eed4a44	0.46345723
16	0xbe94c7fe	-0.29058832
17	0xbc8fbe55	-0.017546812
18	0xbecc4172	-0.3989368
19	0x3dfa7028	0.12228423
20	0x3e915c92	0.28390938
21	0x3eb6dda2	0.35715967
22	0x3e185770	0.14877105
23	0xbd8ab4d4	-0.067727715
24	0xbea9b328	-0.33144498
25	0xbeec0046	-0.4609396
26	0xbe6bf039	-0.23040856
27	0x3ea8c11b	0.32959828
28	0x3e8eb852	0.27875
29	0x3ef398c8	0.475775
30	0x3e0a7e7c	0.13524812
31	0xbe76a345	-0.2408572
32	0xbdc92668	-0.098217785
33	0x3ee5409c	0.44775856
34	0x3e403dd0	0.1877358
35	0xbe4843aa	-0.19557062
36	0xbe99c418	-0.3003242
37	0xbe52687c	-0.2054767
38	0x3e859ace	0.2609467
39	0xbc6a91a0	-0.014316946
40	0xbe37654c	-0.17909735
41	0x3d0ed790	0.034873545
42	0x3e609134	0.2193039
43	0x3ea1ce58	0.3160274
44	0x3e19051c	0.14943355
45	0x3e51d299	0.20490493
46	0xbe1d8250	-0.15381742
47	0xbe8178ab	-0.25287375
48	0xbdff2160	-0.12457538
49	0x3db87e68	0.09008485
50	0xbc59ed60	-0.0133012235
51	0x3dedf440	0.116188526
52	0x3eaa9dd0	0.33323526
53	0xbd8db998	-0.06920165
54	0xbe3749b0	-0.17899203
55	0xbe46b2b1	-0.19404103
56	0x3daefbb0	0.08544099
57	0x3d845470	0.06461418
58	0xbe703000	-0.2345581
59	0x3e2aae4d	0.16668053
60	0xbe68a374	-0.22718602
61	0xc0144625	-2.3167813
62	0x3ec53e84	0.38524258
63	0x3f1b3596	0.6062864
64	0xbe0ac4d0	-0.1355164
65	0xbef9e0dc	-0.48804367
66	0x3eaa6506	0.332802
67	0xbdd3ea66	-0.10347442
68	0xbeb57a0f	-0.35444686
69	0x3f05a291	0.5220118
70	0x3e7f6248	0.24939835
71	0xbeb3d231	-0.351213
72	0x3ea24a8c	0.316975
73	0xbd2b3008	-0.041793853
74	0x3e6abbcc	0.22923201
75	0x3b9dcfc0	0.0048160255
76	0x3ebde198	0.37086177
77	0xbd8b5fbc	-0.06805369
78	0x3e02a8fc	0.12759775
79	0xbdac3ddc	-0.08410236
80	0x3eb2e0e2	0.34937197
81	0x3db21584	0.0869551
82	0xbe6c588e	-0.23080656
83	0xbeb64b37	-0.3560426
84	0x3e4106a8	0.18850195
85	0x3e53c14e	0.20679209
86	0xbdb93180	-0.090426445
87	0xbe165f9a	-0.14684907
88	0xbdea2dd4	-0.11434522
89	0x3ddc649d	0.10761378
90	0xbe8e2cd9	-0.2776859
91	0xbee5bfbc	-0.44872844
92	0x3e2c56d0	0.16829991
93	0x3f30a63e	0.69003665
94	0x3d86e08c	0.06585798
95	0xbe9e7ea8	-0.30956006
96	0xbdc3a330	-0.0955261
97	0xbe9d76cb	-0.30754694
98	0xbe8daf0c	-0.27672613
99	0xbee92f97	-0.4554412
100	0x3e6c2cf0	0.23064017
101	0xbd3b505c	-0.045730934
102	0x3bca5b80	0.0061754584
103	0xbe20fba1	-0.15720989
104	0xbe3f1b5e	-0.18662784
105	0xbe48bcf4	-0.1960333
106	0xbe0e2b90	-0.13883805
107	0xba0bf05a	-0.00053382444
108	0xbed08410	-0.40725756
109	0xbe0b26ca	-0.13589016
110	0x3e972ea0	0.2952776
111	0xbe997462	-0.29971606
112	0xbe850ee2	-0.25987917
113	0xbe9c6548	-0.3054602
114	0xbe8ec7fa	-0.27886945
115	0x3defc8f5	0.117082514
116	0x3da0ce20	0.07851815
117	0x3e595c6a	0.2122666
118	0x3dffef38	0.12496799
119	0x3e02b8bd	0.12765785
120	0xbd5342e8	-0.05157748
121	0x3eacf63a	0.33781606
122	0xbea681f4	-0.3252102
123	0xbe12767d	-0.14303012
124	0x3c11cdc0	0.008899152
125	0x3e5a7d9c	0.21336979
126	0x3eb35c16	0.35031193
127	0xbe8364a6	-0.25662726
128	0x3dbba8f4	0.091630846
129	0xbe792919	-0.24332084
130	0x3ea1be2a	0.31590396
131	0xb9e21800	-0.0004312396
132	0x3dabfb0c	0.08397493
133	0xbfdf5e4d	-1.7450653
134	0x3e763858	0.24044931
135	0x3eb1df32	0.34740597
136	0xbeb0daa1	-0.345418
137	0xbef3d723	-0.47625074
138	0xbe8d8f1b	-0.27648243
139	0xbdb7d665	-0.089764394
140	0xbe23b752	-0.159879
141	0xbedd1f26	-0.43187827
142	0x3ba8c500	0.0051504374
143	0xbe9606f8	-0.29302192
144	0xbe2e9ceb	-0.17052047
145	0x3e56b86c	0.20968789
146	0x3e1bec74	0.15226918
147	0x3e914a2c	0.283769
148	0xbeb2c8ca	-0.34918815
149	0xbef7cb27	-0.4839718
150	0x3eb9323a	0.36171132
151	0x3e849ceb	0.2590097
152	0x3e528298	0.2055763
153	0x3e0c4457	0.13697945
154	0xbe3c296f	-0.1837518
155	0xbd580a6f	-0.052744325
156	0x3eab8676	0.33501023
157	0x3bcc987f	0.006243765
158	0x3eca5398	0.39516902
159	0x3e5e3220	0.21698809
160	0xbe593eea	-0.21215406
161	0x3dbfffc6	0.09374957
162	0x3d7ea208	0.062166244
163	0xbe777047	-0.24163924
164	0xbe11d004	-0.14239508
165	0xbe56b036	-0.20965657
166	0x3e9275f0	0.28605604
167	0xbe00a66c	-0.12563485
168	0xbe2a3b1a	-0.16624108
169	0xbe1fa286	-0.15589342
170	0x3e6b0564	0.22951275
171	0xbe85511d	-0.26038447
172	0x3e3ba7dc	0.18325752
173	0x3bc4f678	0.0060108267
174	0x3e4bf51c	0.1991772
175	0x3eb7211f	0.35767457
176	0xbe966feb	-0.29382262
177	0xbd9a567d	-0.075360276
178	0x3de88bc8	0.11354786
179	0xbe6e2b57	-0.2325872
180	0x3ebf22da	0.37331277
181	0x3d17105b	0.036880832
182	0xbe8f5384	-0.27993405
183	0xbe8dbc30	-0.27682638
184	0xbd51eb68	-0.05124989
185	0xbe8f3536	-0.27970284
186	0xbe6bee0e	-0.2304003
187	0x3e63dfd8	0.22253358
188	0xbe95ef0a	-0.29283935
189	0xbe800662	-0.2500487
190	0x3e47be14	0.19506103
191	0xbeafb408	-0.3431704
192	0x3dbde458	0.09272069
193	0xbe6a0fc7	-0.22857581
194	0x3e4164cc	0.18886107
195	0x3e157d3c	0.14598554
196	0x3dd0b250	0.101902604
197	0xbed07b8b	-0.40719256
198	0xbe503640	-0.20333195
199	0x3dd916b2	0.10600032
200	0xbe1ac730	-0.15115047
201	0xbef7e378	-0.48415732
202	0xbd4d2d88	-0.05009225
203	0xbf09c93f	-0.538227
204	0xbca15b40	-0.019696832
205	0xbd05ed82	-0.03269721
206	0x3e5fd418	0.21858251
207	0x3ee54e1a	0.4478615
208	0x3ec18260	0.3779478
209	0xbe655949	-0.22397341
210	0xbdd0312c	-0.10165629
211	0x3e42ce8c	0.19024104
212	0x3e18a850	0.14907956
213	0xbda79bc4	-0.08184007
214	0x3dc758e8	0.097337544
215	0xbec1f52d	-0.37882367
216	0x3ea7e490	0.32791567
217	0x3e297078	0.1654681
218	0x3eaed1a6	0.34144324
219	0xbf02d9d2	-0.5111362
220	0x3deef960	0.11668658
221	0x3e959266	0.29213256
222	0xbea0d5dc	-0.31413162
223	0xbe855c2b	-0.2604688
224	0xbd5ab8c8	-0.053398877
225	0xbe88c507	-0.2671282
226	0x3ec2ed9c	0.38071907
227	0xbe79e199	-0.24402465
228	0xbbd3f180	-0.006467998
229	0xbe814a85	-0.25252166
230	0xbe0c5f6e	-0.13708279
231	0x3e87cdcb	0.26524195
232	0x3deee320	0.116644144
233	0x3e1ebd89	0.1550199
234	0xbe645e1a	-0.22301522
235	0x3e8d5db7	0.2761056
236	0x3e487194	0.19574577
237	0x3e3132b7	0.17304502
238	0xbed06d85	-0.40708557
239	0x3e8a5571	0.27018312
240	0x3eb27bc2	0.34860045
241	0x3e61e668	0.2206055
242	0xbe3f4666	-0.18679199
243	0xbe285d81	-0.16441919
244	0x3e40e100	0.1883583
245	0xbeaac609	-0.33354214
246	0x3c041180	0.008060813
247	0x3d7e750e	0.06212335
248	0x3e65c034	0.22436601
249	0x3e5e9b5a	0.2173895
250	0xbd7407b0	-0.059577644
251	0x3e80cd1c	0.25156486
252	0x3cec1f50	0.028823525
253	0x3ea2c1e8	0.31788564
254	0xbe3a7ee1	-0.18212463
255	0x3e4619a1	0.19345714

0.scale_net.network.0.bias f4 [64]
0	0x3e66d8db	0.22543661
1	0xbe1d21d7	-0.1534494
2	0x3e01e458	0.12684762
3	0xbed04ba0	-0.40682697
4	0xbe097e14	-0.13427001
5	0x3e0b4fd0	0.13604665
6	0xbe1436e4	-0.14474064
7	0xbe9e9960	-0.3097639
8	0xbe5d57fc	-0.21615595
9	0xbe3e7066	-0.18597564
10	0xbe257100	-0.16156387
11	0x3e362eb5	0.17791255
12	0xbdf11f04	-0.11773494
13	0xbebf7892	-0.37396675
14	0xbe176fd2	-0.1478875
15	0x3e948aa3	0.2901202
16	0x3df4cca3	0.11953094
17	0x3d32f9b8	0.04369518
18	0xbe6fc692	-0.23415592
19	0xbee71928	-0.4513638
20	0xbe698d65	-0.22807844
21	0xbe90ae70	-0.28258085
22	0xbd9a8a9d	-0.0754597
23	0x3e3b8240	0.18311405
24	0xbec466df	-0.38359734
25	0xbe2f62e3	-0.17127566
26	0xbee30545	-0.44339958
27	0xbe95a50c	-0.29227483
28	0xbebace5b	-0.36485562
29	0xbe64081f	-0.22268723
30	0xbe3f6fe6	-0.1869503
31	0xbe478746	-0.19485196
32	0xbe48cb63	-0.19608836
33	0x3e8c16fa	0.2736128
34	0x3e0838ad	0.1330287
35	0xbd763740	-0.060111284
36	0xbe926408	-0.28591943
37	0x3da1b72c	0.078962654
38	0xbe0d06cb	-0.13772123
39	0xbe61155f	-0.21980809
40	0xbe20209e	-0.15637442
41	0xbe796dd7	-0.24358307
42	0xbdcc4ad0	-0.09975207
43	0x3d0c3497	0.03422984
44	0xbe662679	-0.22475614
45	0xbe2d3808	-0.16915905
46	0xbe3127d8	-0.17300355
47	0xbe8f0b80	-0.2793846
48	0x3d85458e	0.06507407
49	0xbe979413	-0.2960516
50	0x3e1d490d	0.15359898
51	0xbe2a7b4d	-0.16648598
52	0xbe901025	-0.28137317
53	0xbeadcbaf	-0.3394446
54	0x3dcb7ba8	0.09935695
55	0xbe21f428	-0.15815794
56	0xbe7e39d2	-0.24826744
57	0xbe688c84	-0.22709852
58	0xbeb2abe2	-0.3489676
59	0x3e0f4887	0.1399251
60	0xbebdc55d	-0.3706464
61	0xbe16a736	-0.14712223
62	0xbe071832	-0.13192824
63	0x3e7bd05c	0.24591202

0.scale_net.network.2.weight f4 [64, 64]
0	0xbe82d860	-0.25555706
1	0x3e0203b4	0.12696725
2	0xbbdcee70	-0.006742291
3	0x3df2d8c8	0.11857754
4	0x3df7a132	0.120912924
5	0xbe0626e3	-0.13100772
6	0xbd9e12a4	-0.07718399
7	0x3e17fd72	0.14842775
8	0x3dcda782	0.10041715
9	0xbad454bd	-0.001619957
10	0x3d84b935	0.06480638
11	0xbdacf50a	-0.08445175
12	0x3ce1bcc0	0.027555823
13	0xbd1e08e8	-0.038582712
14	0xbd8d16cb	-0.06889113
15	0x3df3d0f9	0.11905093
16	0xbe25c6c5	-0.16189106
17	0xbac5df03	-0.001509637
18	0xbdb46320	-0.08807969
19	0x3dfcd26e	0.12344824
20	0xbda354d1	-0.07975162
21	0x3d82672c	0.06367335
22	0xbd4eb566	-0.050465964
23	0xbe351908	-0.1768533
24	0xbd03276c	-0.032020018
25	0x3d152ed0	0.036421597
26	0xbc32160b	-0.010869513
27	0x3d742c48	0.059612542
28	0xbe1fc2b0	-0.15601611
29	0xbcf0e3ca	-0.029405493
30	0xbe319705	-0.17342766
31	0x3df663ba	0.1203074
32	0xbc4433c0	-0.011975229
33	0x3d3f5795	0.046714384
34	0xbdc6f8c2	-0.097154155
35	0xbdf6bb18	-0.12047404
36	0x3d04fe21	0.03246892
37	0xbd410364	-0.047122374
38	0xbdfccd69	-0.123438664
39	0x3d91e19e	0.07123111
40	0xbd772450	-0.060337365
41	0xbe2328aa	-0.15933481
42	0x3d380ff8	0.044937104
43	0xbdd25a8b	-0.10271176
44	0xbd7eeccc	-0.062237546
45	0x3b28eab1	0.0025774653
46	0xbd6f82b4	-0.058474258
47	0xbcd89ebb	-0.026442876
48	0xbd649fa0	-0.055816293
49	0xbe071cb7	-0.13194548
50	0xbd821f25	-0.063535966
51	0xbde312c9	-0.11087567
52	0x3c3a37a0	0.011365801
53	0xbd6afb44	-0.05736853
54	0xbe5f733a	-0.21821299
55	0x3c29be12	0.010360258
56	0xbdc4b04e	-0.0960394
57	0x3cbbf722	0.02294499
58	0x3df31432	0.11869086
59	0x3aa85383	0.0012842271
60	0x3ccb5758	0.024821922
61	0x3d32d4bb	0.043659907
62	0xbca99ea8	-0.020705536
63	0xbdb57f11	-0.088621266
64	0xbe12cc4a	-0.14335743
65	0x3d5bdacc	0.053675458
66	0xbdd14a24	-0.10219219
67	0xbde6efcc	-0.112762064
68	0xbdb9b3d8	-0.090675056
69	0xbe0e9784	-0.13924986
70	0x3da9468a	0.082654074
71	0x3c91c688	0.017794862
72	0xbca06e60	-0.01958388
73	0xbd8d4ce6	-0.06899433
74	0xbdf57498	-0.11985129
75	0xbe2a8d78	-0.16655529
76	0x3daa4464	0.08313826
77	0x3df95e52	0.12176193
78	0x3d91a85a	0.07112189
79	0x3cf69548	0.03010048
80	0xbe123628	-0.14278471
81	0xbdecd89e	-0.11564754
82	0x3dcec796	0.10096662
83	0xbc03d370	-0.008046016
84	0xbe1aa600	-0.15102386
85	0x3d8c9596	0.06864469
86	0xbd1f19a6	-0.03884282
87	0xbd83331e	-0.06406234
88	0x3da5200c	0.08062753
89	0x3df41cca	0.119195536
90	0xbd76ef54	-0.060286835
91	0xbdd7adf8	-0.10531229
92	0x3caf4058	0.021392986
93	0xbd5da450	-0.05411178
94	0xbd487610	-0.04894072
95	0xbcd77098	-0.026298806
96	0xbd81d464	-0.063393384
97	0x3d452ce9	0.048138533
98	0xbdc620b5	-0.09674207
99	0x3ddf9214	0.10916534
100	0x3d94ba24	0.07262066
101	0xbdb79f1b	-0.08965894
102	0xbd965bc1	-0.073417194
103	0xbd829056	-0.06375186
104	0xbdd84e5a	-0.105618194
105	0xbd11669c	-0.035498247
106	0xbddf4772	-0.10902299
107	0xbe17a590	-0.14809251
108	0x3c9883d8	0.018617555
109	0xbd87cdea	-0.06631072
110	0x3d9e4398	0.07727736
111	0x3af0ba80	0.0018366128
112	0xbd2b280d	-0.041786242
113	0xbd20051c	-0.039067373
114	0xbe17e2ef	-0.14832662
115	0xbd8c46ae	-0.068494186
116	0xbd87226e	-0.06598364
117	0xbd3e3f44	-0.046447054
118	0x3bcbc597	0.006218623
119	0xbe07a507	-0.13246547
120	0xbdaf3c90	-0.08556473
121	0x3ce71770	0.028209418
122	0x3dca486c	0.098770946
123	0xbd993ee1	-0.07482696
124	0x3de10882	0.10987951
125	0xbd999594	-0.07499233
126	0xbd86b2d0	-0.065770745
127	0xbd0b7ae4	-0.034052745
128	0xbd490fce	-0.04908734
129	0x3cc168dd	0.023609573
130	0xbe058644	-0.130395
131	0x3dcc092c	0.09962687
132	0x3d91023f	0.070805065
133	0xbd945167	-0.07242089
134	0x3df11110	0.117708325
135	0xbde1cef7	-0.110258035
136	0xbc112800	-0.008859634
137	0x3d1ac458	0.037784904
138	0xbd50fe7a	-0.051023938
139	0xbe2c82e1	-0.16846801
140	0xbdcc93bc	-0.099891156
141	0x3dcac564	0.099009305
142	0xbc0dff71	-0.008666859
143	0x3bec4461	0.0072103
144	0xbe6e0082	-0.23242381
145	0xbddfc848	-0.109268725
146	0xbcd19a58	-0.025586292
147	0xbbd2ffdf	-0.0064391936
148	0x3cf5b7c2	0.02999485
149	0xbda45a08	-0.080249846
150	0x3ca8bfa0	0.020599186
151	0xbe0d9a9c	-0.1382851
152	0x3d488d30	0.048962772
153	0x3be7c633	0.0070731877
154	0x3d83e973	0.06441011
155	0x3db613d8	0.08890504
156	0x3de63465	0.11240462
157	0x3d58bd32	0.052914806
158	0x3e32a2cf	0.17444919
159	0x3d68c370	0.05682701
160	0x3dafe46a	0.085884884
161	0xbcf4e97d	-0.029896492
162	0xbdd4bd3e	-0.103876576
163	0x3dbf9c6a	0.093560055
164	0x3d42d1a4	0.04756321
165	0xbdd1b01a	-0.10238667
166	0xbd8af171	-0.067843325
167	0x3c14a6d5	0.009072979
168	0x3df75608	0.12076956
169	0xbda9ddef	-0.082942836
170	0xbd202571	-0.039098207
171	0xbe0b6979	-0.13614453
172	0xbda66a82	-0.081257835
173	0xbe3ae3c9	-0.18250956
174	0xbdeec966	-0.116595075
175	0x3df5e0ed	0.12005792
176	0xbd9cd9f0	-0.07658756
177	0xbd4a7145	-0.04942443
178	0xbcc0d58b	-0.023539325
179	0xbdd89a62	-0.10576321
180	0xbcbd0408	-0.023073211
181	0x3de41278	0.11136335
182	0xbe8628da	-0.26203042
183	0xbe0d7cb2	-0.13817099
184	0xbd887270	-0.06662452
185	0xbd93b722	-0.07212664
186	0x3dc97012	0.09835829
187	0xbe348a51	-0.17630889
188	0xbd9af0e0	-0.075654745
189	0x3c8b227f	0.016984222
190	0xbd0f7bfc	-0.03503035
191	0x3c411f4b	0.011787246
192	0xbeab4e74	-0.33458292
193	0xbd973a34	-0.07384148
194	0xbea1c8d0	-0.3159852
195	0xbd276b98	-0.040874094
196	0xbe28a0b9	-0.16467561
197	0xbe75ec8f	-0.24016021
198	0xbdcfca1e	-0.10145973
199	0xbd23c45c	-0.039982185
200	0x3d698290	0.05700928
201	0xbdb59a66	-0.0886734
202	0x3e1b4f2d	0.15166922
203	0xbeb26d25	-0.34848896
204	0xbdfe60bc	-0.12420794
205	0x3dde5b66	0.108572766
206	0x3cfc2ca4	0.030783005
207	0xbda6855c	-0.08130905
208	0xbe1febdf	-0.15617321
209	0xbe45391f	-0.19260071
210	0x3dcd9cf6	0.100397035
211	0x3cfdf700	0.031001568
212	0xbde83a1f	-0.11339211
213	0xbd596ca4	-0.053082123
214	0xbb7ff405	-0.003905536
215	0xbc9b6707	-0.018970026
216	0x3db0b002	0.08627321
217	0x3b351cf2	0.002763566
218	0x3da37e9c	0.07983133
219	0xbdbc24bc	-0.09186694
220	0xbd417b3c	-0.047236666
221	0x3c285fad	0.010276717
222	0x3d4b46b0	0.04962796
223	0xbd459814	-0.048240736
224	0x3d8e153c	0.06937644
225	0xbe690050	-0.22754025
226	0xbea47001	-0.32116702
227	0xbc6de2d0	-0.014519408
228	0x3cef63ee	0.029222455
229	0xbe9531e1	-0.29139617
230	0xbe71424b	-0.23560445
231	0x3caa89ea	0.020817716
232	0xbdda3316	-0.10654275
233	0xbd7c8a36	-0.061655246
234	0x3c191700	0.0093438625
235	0xbce4b45d	-0.027918035
236	0xbd9c9bd0	-0.076469064
237	0xbd0c9190	-0.034318507
238	0x3cb67df0	0.022276849
239	0xbd4eabd8	-0.05045685
240	0xbda82609	-0.0821038
241	0xbca59951	-0.020214709
242	0xb9f79195	-0.00047219978
243	0xbd0a93a0	-0.033832192
244	0x3dccecd8	0.10006112
245	0x3df08700	0.11744499
246	0xbe8c2ed7	-0.27379486
247	0xbe01758b	-0.12642495
248	0xbc3a7fd0	-0.011383012
249	0xbd289cf2	-0.0411653
250	0xbcc6a840	-0.02425015
251	0xbe68adab	-0.22722499
252	0xbcad3bd8	-0.0211467
253	0xbddbf032	-0.10739173
254	0x3d7043cc	0.058658406
255	0xbea3270d	-0.3186573

0.scale_net.network.2.bias f4 [64]
0	0xbda36a39	-0.07979245
1	0xbb8ed90f	-0.0043593715
2	0xbc5e3d8e	-0.0135644805
3	0xbe1ba2d7	-0.15198837
4	0xbe41be98	-0.18920362
5	0xbd261cd8	-0.04055485
6	0xbe4502c6	-0.19239339
7	0xbde06f4e	-0.1095873
8	0xbdb28c7a	-0.087182
9	0xbca13d44	-0.019682534
10	0xbccf156b	-0.025278768
11	0xbdba1728	-0.09086448
12	0xbe29a860	-0.16568136
13	0xbdf9866d	-0.12183843
14	0xbe318fec	-0.17340058
15	0xbe991a8c	-0.29903066
16	0xbd011338	-0.03151247
17	0x3c25316f	0.010082587
18	0xbdd74bea	-0.10512526
19	0xbde32871	-0.11091698
20	0xbcdf35aa	-0.027247269
21	0xbc24d02e	-0.0100593995
22	0x3bd39d83	0.006457986
23	0x3e8bb687	0.27287695
24	0xbd97c561	-0.07410694
25	0xbe0b213b	-0.13586895
26	0xbe2b3511	-0.16719462
27	0xbe2d88d8	-0.16946733
28	0xbda5b07a	-0.08090301
29	0xbd1beeee	-0.038069658
30	0xbd78095a	-0.060555793
31	0xbcd9d32e	-0.026589956
32	0xbde8b5c5	-0.11362795
33	0xbdc64140	-0.09680414
34	0xbdab82bd	-0.08374546
35	0xbd286a02	-0.041116722
36	0x3d1accac	0.037792847
37	0xbd637c4c	-0.05553846
38	0xbd8e5f05	-0.06951717
39	0xbdca7283	-0.098851226
40	0xbc9898af	-0.018627493
41	0xbe0154e5	-0.12630041
42	0xbe064345	-0.13111599
43	0xbe0cd521	-0.13753177
44	0xbdb9fb76	-0.090811655
45	0xbe8e6deb	-0.27818236
46	0xbe3248ac	-0.17410535
47	0xbd36abbe	-0.04459738
48	0xbd52a213	-0.051424097
49	0xbc8cb973	-0.017178273
50	0xbe26fd39	-0.16307534
51	0xbe1917f1	-0.14950539
52	0x3e293bca	0.16526714
53	0xbc2a9b77	-0.010413042
54	0xbd786904	-0.060647026
55	0xbd9b8221	-0.075931795
56	0xbe2a4983	-0.16629605
57	0xbcdeda11	-0.027203592
58	0xbdb5c6a7	-0.088757806
59	0xbd933c54	-0.07189241
60	0xbde3eec2	-0.11129524
61	0x3dd4e32d	0.10394893
62	0xbd6f7bdf	-0.058467742
63	0xbd5cab60	-0.053874373

0.scale_net.network.4.weight f4 [64, 64]
0	0xbca29b5f	-0.019849477
1	0x3d83e408	0.06439978
2	0xbda87240	-0.082249165
3	0xbe740612	-0.2383044
4	0x3d9f7742	0.077864185
5	0x3e0f2b81	0.13981439
6	0x3dd1190f	0.10209858
7	0xbe1d456d	-0.15358515
8	0xbda81cc7	-0.08208614
9	0x3d455afc	0.048182473
10	0xbe0d3509	-0.13789763
11	0x3d71f464	0.05907096
12	0xbde3bcb2	-0.11119975
13	0xbc86cbbe	-0.016454574
14	0x3d34c4c4	0.044132963
15	0x3d693c7c	0.056942448
16	0x3dc0ba5e	0.09410547
17	0xbe1e8e72	-0.15484026
18	0xbda3508e	-0.07974349
19	0x3d444bf5	0.047924
20	0xbe061826	-0.1309515
21	0xbd7c0f65	-0.06153812
22	0x3b9c2a17	0.0047657597
23	0x3c4afe10	0.012389675
24	0x3d8c04c9	0.0683685
25	0xbe914feb	-0.28381285
26	0xbe52cb88	-0.20585454
27	0x3cecf85c	0.02892702
28	0x3d32f204	0.043687835
29	0xbe008d90	-0.12554002
30	0xbdd4e6ab	-0.10395559
31	0x3d4a5117	0.04939374
32	0x3d6e715a	0.05821357
33	0xbd338f7c	-0.04383801
34	0xbdcb31f7	-0.099216394
35	0x3d585d60	0.052823424
36	0x3dc53a1b	0.09630223
37	0xbd10a7c7	-0.035316255
38	0xbe31af04	-0.1735192
39	0x3cd47f38	0.025939569
40	0xbd9fae29	-0.0779689
41	0x3dd551a1	0.1041596
42	0x3d150a9d	0.036387075
43	0xbdb66aa9	-0.089070626
44	0x3b68db8f	0.0035531258
45	0xbd2b47d8	-0.041816562
46	0xbd1b3c38	-0.037899226
47	0xbd82e2bf	-0.06390905
48	0xbce65fbc	-0.028121822
49	0xbdc8c855	-0.09803835
50	0x3d19770c	0.037467048
51	0x3d10977d	0.03530072
52	0xbd45d9f9	-0.048303578
53	0x3ded4518	0.11585444
54	0xbd336105	-0.043793697
55	0xbd4e3929	-0.05034748
56	0xbcbb9208	-0.022896782
57	0xbc4ff223	-0.012692007
58	0xbde37512	-0.11106314
59	0x3d87587e	0.066086754
60	0x3dd70232	0.104984656
61	0xbe806add	-0.2508153
62	0xbca2a39a	-0.019853402
63	0xbb3e3580	-0.0029023588
64	0xbd970387	-0.0737372
65	0x3dc16afc	0.09444234
66	0xbe08465e	-0.13308093
67	0xbdc48e46	-0.09597449
68	0x3d247ce4	0.040158167
69	0xbbb7af4f	-0.005605615
70	0xbda74d6e	-0.081690654
71	0x3d38cf9c	0.045119867
72	0x3d98ffe4	0.07470682
73	0xbdb667ca	-0.08906515
74	0xbdea2765	-0.11433295
75	0x3dd79052	0.10525574
76	0x3d6f334c	0.05839853
77	0x3dcdc3a1	0.10047079
78	0x3cf1bc9e	0.029508885
79	0x3d998ef8	0.07497972
80	0xbdfe0062	-0.12402417
81	0xbc860661	-0.016360464
82	0x3c2a7890	0.010404721
83	0xbd58c071	-0.0529179
84	0xbdebb280	-0.115086555
85	0xbcdebeaf	-0.027190534
86	0xbdcace28	-0.099026024
87	0xbe2ca827	-0.1686102
88	0x3da9529f	0.08267712
89	0xbe309df1	-0.1724775
90	0xbe1ee033	-0.15515213
91	0xbe298d57	-0.16557823
92	0x3c6b9f80	0.0143812895
93	0xbe0790a9	-0.13238777
94	0xbdc37ba7	-0.09545069
95	0xbdcbe6a1	-0.09956098
96	0xbda50668	-0.080578625
97	0xbdf7ed32	-0.12105788
98	0xbd0956eb	-0.033530157
99	0x3d5b3bbd	0.053523768
100	0xbd96a290	-0.07355225
101	0x3d24f94c	0.04027681
102	0x3d3d6939	0.046242926
103	0x3d36881a	0.04456339
104	0x3d8c46de	0.06849454
105	0x3cc2c0c8	0.023773566
106	0xbdb1e002	-0.08685304
107	0xbc3dc26a	-0.011581996
108	0xbe2145b5	-0.15749247
109	0xbe8aeaec	-0.27132356
110	0x3dc053de	0.093909964
111	0xbe7654b9	-0.24055757
112	0xbdfa97cb	-0.122359835
113	0xbc744511	-0.014909045
114	0xbe225b8b	-0.15855233
115	0xbd8d8336	-0.06909792
116	0xbe6ab9c3	-0.22922425
117	0xbdd91268	-0.10599214
118	0xbdbc2124	-0.091860086
119	0xbd06041c	-0.032718763
120	0x3c62c292	0.0138403345
121	0x3d0070c5	0.031357545
122	0xbdc3e0a7	-0.095643334
123	0x3d851254	0.064976364
124	0xbd91e48c	-0.0712367
125	0xbdc1d5d6	-0.09464614
126	0xbdfc8da0	-0.123317
127	0x3dd26eb4	0.10275021
128	0xbc890cbc	-0.016729705
129	0xbcc50698	-0.024050996
130	0xbe22ba5c	-0.15891403
131	0xbbfade20	-0.007655874
132	0xbddd9bbe	-0.10820721
133	0xbe555aed	-0.20835467
134	0x3d97eae8	0.07417852
135	0xbe1a6a02	-0.15079501
136	0xbe223b2f	-0.15842889
137	0x3d67b7b7	0.05657169
138	0x3c392a47	0.011301584
139	0xbc6188e0	-0.013765544
140	0x3ddd8ac8	0.10817486
141	0x3d326e7a	0.04356239
142	0x3d1329d0	0.035928547
143	0xbd7a84c0	-0.061161757
144	0x3da02b44	0.07820752
145	0x3dd34f8d	0.103179075
146	0xbda20aa8	-0.07912189
147	0x3d8253fe	0.063636765
148	0xbe0ef1c8	-0.1395942
149	0xbe097270	-0.1342256
150	0x3d38285b	0.04496036
151	0xbd845226	-0.06460981
152	0xbe869c68	-0.26291203
153	0xbdd7dea1	-0.1054051
154	0x3d78d754	0.060752228
155	0xbce9779b	-0.028499415
156	0x3d17a6f4	0.037024453
157	0xbdcdece7	-0.10054951
158	0x3d96b1d5	0.073581375
159	0xbe219299	-0.15778579
160	0x3d6c8874	0.05774732
161	0xbdaee3da	-0.08539553
162	0xbd84e52b	-0.06489023
163	0x3c2ceaf6	0.010554066
164	0xbc7b169c	-0.015325215
165	0xbc726ee3	-0.014796945
166	0x3db74cd3	0.089502
167	0x3e277213	0.1635211
168	0xbe5eeab1	-0.21769215
169	0xbdd63eb8	-0.104611814
170	0x3d89f564	0.06736258
171	0xbe0009a4	-0.12503678
172	0x3ce5ac8c	0.028036378
173	0x3ddeedde	0.10885213
174	0x3d277408	0.04088214
175	0xbe35f288	-0.177683
176	0xbbc59363	-0.0060295328
177	0x3c95a447	0.01826681
178	0x3d2a68c0	0.041603804
179	0x3dd73eb0	0.105100036
180	0xbe181a2f	-0.14853738
181	0xbe6719a2	-0.22568372
182	0xbcb28fcf	-0.021797089
183	0x3d74ab8c	0.059733912
184	0xbd84b94b	-0.06480654
185	0xbe0c4841	-0.13699438
186	0xbde2bb2e	-0.11070858
187	0xbce95ea6	-0.028487515
188	0xbdf58ed6	-0.119901344
189	0xbdb96904	-0.09053233
190	0x3e0d1c10	0.13780236
191	0xbdf46780	-0.119338036
192	0xbdf59f3c	-0.11993262
193	0x3dfca7e6	0.123367116
194	0xbd05b2ac	-0.032641098
195	0xbdc95f82	-0.0983267
196	0xbdfd144c	-0.12357387
197	0xbe1b9bef	-0.15196203
198	0x3db0562a	0.086101845
199	0x3dd56300	0.104192734
200	0xbea5dcf7	-0.32395145
201	0x3d461a60	0.048364997
202	0xbc1605cb	-0.009156655
203	0x3d9e65c8	0.07734257
204	0x3d73c290	0.05951172
205	0x3d972472	0.07379998
206	0xbce873b8	-0.028375491
207	0x3ceb8790	0.028751165
208	0x3d373044	0.044723764
209	0xbdfb3254	-0.12265459
210	0xbe52e0c8	-0.2059356
211	0xbd62ed3c	-0.055402026
212	0xbe6f1d54	-0.23351032
213	0x3d7d716c	0.061875746
214	0xbdc4c930	-0.09608686
215	0xbdd6fa9e	-0.1049702
216	0xbd6b4f8d	-0.057448912
217	0xbe271fb8	-0.16320693
218	0xbdb51c86	-0.08843331
219	0x3cad73e0	0.021173418
220	0xbd7c2de4	-0.061567202
221	0x3ce54538	0.027987108
222	0xbd93b7e0	-0.07212806
223	0xbd8e30f6	-0.06942932
224	0xbd0ddc60	-0.034633994
225	0x3cce9770	0.025218695
226	0xbd9de58e	-0.077098
227	0xbd8a3b0a	-0.06749542
228	0xbd455330	-0.048175037
229	0x3c1f8720	0.009736806
230	0x3cf7e2d8	0.030259535
231	0xbdd295b6	-0.10282461
232	0xbe983773	-0.29729804
233	0x3d9a4440	0.07532549
234	0xbda60e96	-0.08108251
235	0xbd8442ee	-0.06458078
236	0xbcb0a820	-0.021564543
237	0xbd92ddb0	-0.0717119
238	0xbda642fa	-0.081182435
239	0xbe872006	-0.2639162
240	0xbd902d86	-0.07039933
241	0xbd28b06c	-0.041183874
242	0xbd7aa750	-0.061194718
243	0x3db6e708	0.089307845
244	0xbe4e45bb	-0.20143788
245	0xbeb46174	-0.352306
246	0xbe05cc6f	-0.13066266
247	0xbdc984c6	-0.09839778
248	0xbdad37b0	-0.08457887
249	0xbde0632b	-0.10956415
250	0xbdf77932	-0.12083663
251	0x3d81cf14	0.06338325
252	0xbd935852	-0.0719458
253	0xbe536a6b	-0.20646064
254	0xbdf06ca2	-0.1173947
255	0x3dbec858	0.09315556

0.scale_net.network.4.bias f4 [64]
0	0xbe31d901	-0.17367937
1	0xbda6f830	-0.08152807
2	0xbdae7d46	-0.08519988
3	0xbe78f64b	-0.24312703
4	0xbdf5e537	-0.1200661
5	0xbe88efc2	-0.2674542
6	0x3c336cd0	0.010951236
7	0xbe93f200	-0.2889557
8	0xbde77573	-0.113016985
9	0x3c4ad22a	0.012379209
10	0xbd3f2ab8	-0.0466716
11	0xbdf90bba	-0.1216044
12	0xbda5ef02	-0.08102228
13	0xbba63080	-0.0050716996
14	0xbe3cc0e8	-0.18432963
15	0xbd295550	-0.041341126
16	0x3d327d5f	0.043576594
17	0xbe3a4cef	-0.1819341
18	0x3e5474c2	0.20747665
19	0xbe81ddb2	-0.25364453
20	0xbda430e8	-0.080171406
21	0xbe6f75a9	-0.23384728
22	0x3e1d6bb6	0.1537312
23	0xbe61967c	-0.22030061
24	0xbd8737f8	-0.06602472
25	0xbda02e57	-0.078213386
26	0xbd07e52d	-0.033177543
27	0xbe3300a1	-0.17480709
28	0xbe5f136b	-0.21784751
29	0xbdcc57e5	-0.09977702
30	0xbe98ec8c	-0.2986797
31	0xbd56c0ae	-0.052429847
32	0xbd64c180	-0.0558486
33	0xbe2417f4	-0.16024762
34	0xbd8b476f	-0.06800734
35	0xbe39162f	-0.18074869
36	0x3e40fbc1	0.18846036
37	0xbdd37940	-0.10325861
38	0xbdedfadd	-0.11620114
39	0xbdf57f98	-0.11987227
40	0x3d707f24	0.058715
41	0x3e54c731	0.2077911
42	0xbdc349a4	-0.0953553
43	0x3bd63486	0.006537023
44	0xbe242fb7	-0.16033827
45	0xbda1abcf	-0.07894098
46	0xbcb8316b	-0.022484502
47	0x3d821245	0.06351141
48	0xbe0e6e64	-0.13909298
49	0xbdd3ed73	-0.10348024
50	0xbd842e53	-0.06454148
51	0xbe9d1703	-0.3068162
52	0xbde68826	-0.11256437
53	0xbdc92ba6	-0.098227784
54	0xbe0a14e8	-0.13484538
55	0x3e77a179	0.2418269
56	0xbc5b29d6	-0.013376674
57	0x3e805c27	0.25070307
58	0xbe399bde	-0.18125865
59	0xbd2b5941	-0.041833166
60	0xbd169325	-0.03676142
61	0x3da9fea6	0.083005235
62	0x3e4a6c36	0.19767842
63	0xbdee6a58	-0.11641377

0.scale_net.network.6.weight f4 [6, 64]
0	0x3d7b9255	0.06141885
1	0x3c90ca60	0.017674625
2	0x3dbb6651	0.09150375
3	0xbde9a90b	-0.114091955
4	0x3d2c60a4	0.04208435
5	0x3e993594	0.2992369
6	0xbbe9a9ce	-0.007130838
7	0xbe34c85a	-0.17654553
8	0x3cb6bee6	0.022307824
9	0x3ce615ce	0.02808657
10	0x3cbc00d0	0.022949606
11	0xbb611eee	-0.003435071
12	0xbd339303	-0.043841373
13	0x3dde67be	0.10859631
14	0xbdec2617	-0.115307026
15	0x3c030fd2	0.007999377
16	0xbf121af1	-0.5707236
17	0xbd721e2d	-0.05911081
18	0xbe20d98a	-0.15707985
19	0x3b34f79c	0.0027613407
20	0xbb9ba477	-0.0047498303
21	0x3dd11cbf	0.10210561
22	0x3e508407	0.20362864
23	0x3dcce521	0.1000464
24	0x3bc4b6d9	0.0060032425
25	0xbd55f364	-0.05223407
26	0xbd338d57	-0.043835964
27	0x3a33acd2	0.00068540603
28	0x3c5fcf07	0.013660199
29	0x3d042694	0.032263353
30	0xbe25df43	-0.16198449
31	0x3aab135f	0.0013052038
32	0xbdc31e8e	-0.09527312
33	0xbd5ef570	-0.054433286
34	0x3cec981f	0.02888113
35	0x3d989f61	0.07452274
36	0xbdc64d68	-0.09682733
37	0x00000000	0.0
38	0xb9b819fe	-0.0003511458
39	0xbcd34cd4	-0.02579347
40	0xbe39c300	-0.18140793
41	0xbe65674f	-0.2240269
42	0x00000000	0.0
43	0x3cdbc2cf	0.02682629
44	0x3bd36116	0.0064507825
45	0xbbfe6b77	-0.0077642757
46	0xbba8e148	-0.0051538087
47	0xbd8152d7	-0.063146286
48	0xbcc85d99	-0.024458693
49	0xbbcb73ff	-0.006208896
50	0x3d41d699	0.047323797
51	0xbe561f14	-0.20910293
52	0x00000000	0.0
53	0x00000000	0.0
54	0xbd01befc	-0.031676278
55	0xbd9fd659	-0.078045554
56	0xbd15b633	-0.03655071
57	0x3ce4651d	0.027880246
58	0x3d832575	0.06403629
59	0xbc838fc6	-0.016059767
60	0x3d238a3b	0.03992675
61	0x3bfc1dfa	0.007694003
62	0xbd311f57	-0.04324278
63	0xbca31921	-0.019909443
64	0x00000000	0.0
65	0x00000000	0.0
66	0x00000000	0.0
67	0x00000000	0.0
68	0x00000000	0.0
69	0x00000000	0.0
70	0x00000000	0.0
71	0x00000000	0.0
72	0x00000000	0.0
73	0x00000000	0.0
74	0x00000000	0.0
75	0x00000000	0.0
76	0x00000000	0.0
77	0x00000000	0.0
78	0x00000000	0.0
79	0x00000000	0.0
80	0x00000000	0.0
81	0x00000000	0.0
82	0x00000000	0.0
83	0x00000000	0.0
84	0x00000000	0.0
85	0x00000000	0.0
86	0x00000000	0.0
87	0x00000000	0.0
88	0x00000000	0.0
89	0x00000000	0.0
90	0x00000000	0.0
91	0x00000000	0.0
92	0x00000000	0.0
93	0x00000000	0.0
94	0x00000000	0.0
95	0x00000000	0.0
96	0x00000000	0.0
97	0x00000000	0.0
98	0x00000000	0.0
99	0x00000000	0.0
100	0x00000000	0.0
101	0x00000000	0.0
102	0x00000000	0.0
103	0x00000000	0.0
104	0x00000000	0.0
105	0x00000000	0.0
106	0x00000000	0.0
107	0x00000000	0.0
108	0x00000000	0.0
109	0x00000000	0.0
110	0x00000000	0.0
111	0x00000000	0.0
112	0x00000000	0.0
113	0x00000000	0.0
114	0x00000000	0.0
115	0x00000000	0.0
116	0x00000000	0.0
117	0x00000000	0.0
118	0x00000000	0.0
119	0x00000000	0.0
120	0x00000000	0.0
121	0x00000000	0.0
122	0x00000000	0.0
123	0x00000000	0.0
124	0x00000000	0.0
125	0x00000000	0.0
126	0x00000000	0.0
127	0x00000000	0.0
128	0x3d072bb2	0.033000655
129	0x3d12b640	0.03581834
130	0xbc8e6463	-0.017381852
131	0x3bc84212	0.006111392
132	0x3d7fdfd3	0.062469315
133	0xbe1c0605	-0.15236671
134	0xbc043762	-0.008069845
135	0xbe848fae	-0.2589087
136	0x3cd0a17f	0.025467632
137	0xbd7ef069	-0.06224099
138	0xbb7f10e2	-0.0038919975
139	0x3ced43fa	0.028963078
140	0x3d33e876	0.043922864
141	0x3e637df2	0.22216013
142	0x3de601ef	0.112308376
143	0x3cd928e1	0.02650875
144	0xbaf60d6b	-0.0018772309
145	0x3dd98886	0.10621743
146	0xbd8f809e	-0.07006954
147	0xbe1c1ed8	-0.15246141
148	0x3d2acc5f	0.04169881
149	0x3dbd2b5d	0.092367865
150	0xbddc19ce	-0.10747109
151	0xbd8167e7	-0.06318646
152	0xbc19f171	-0.009395943
153	0x3db86b39	0.09004826
154	0xbd1ddb3c	-0.038539156
155	0x3d8fa292	0.0701343
156	0xbe12b279	-0.14325894
157	0x3d14588a	0.03621725
158	0xbe5c46b5	-0.21511348
159	0x3d212aec	0.039347574
160	0x3de5d35f	0.112219565
161	0x3db9cd4d	0.09072361
162	0xbbe32853	-0.0069322973
163	0x3df7c344	0.12097791
164	0xbd9bccbf	-0.076074116
165	0x00000000	0.0
166	0x3cf0b90c	0.029385112
167	0x3cc27e1c	0.023741774
168	0xbc10347b	-0.008801575
169	0xbdbce960	-0.092242
170	0x00000000	0.0
171	0xbd4236dc	-0.0474156
172	0x3d083f55	0.033263523
173	0x3c3e44c6	0.011613077
174	0x3d4ab40c	0.049488112
175	0x3cc46cec	0.02397772
176	0x3d88a33f	0.06671762
177	0xbd15f552	-0.03661091
178	0x3cc04554	0.023470558
179	0xbe7017b7	-0.23446546
180	0x00000000	0.0
181	0x00000000	0.0
182	0x3d884b32	0.06654967
183	0xbdadf916	-0.08494775
184	0xbc244eb8	-0.010028534
185	0xbdeadd79	-0.11468024
186	0x3cae8f84	0.021308668
187	0xbc4e4a6a	-0.012590984
188	0x3c0afda9	0.008483329
189	0xbcf3503a	-0.029701341
190	0xbd4aa3e3	-0.0494727
191	0xbd4b205d	-0.04959141
192	0x00000000	0.0
193	0x00000000	0.0
194	0x00000000	0.0
195	0x00000000	0.0
196	0x00000000	0.0
197	0x00000000	0.0
198	0x00000000	0.0
199	0x00000000	0.0
200	0x00000000	0.0
201	0x00000000	0.0
202	0x00000000	0.0
203	0x00000000	0.0
204	0x00000000	0.0
205	0x00000000	0.0
206	0x00000000	0.0
207	0x00000000	0.0
208	0x00000000	0.0
209	0x00000000	0.0
210	0x00000000	0.0
211	0x00000000	0.0
212	0x00000000	0.0
213	0x00000000	0.0
214	0x00000000	0.0
215	0x00000000	0.0
216	0x00000000	0.0
217	0x00000000	0.0
218	0x00000000	0.0
219	0x00000000	0.0
220	0x00000000	0.0
221	0x00000000	0.0
222	0x00000000	0.0
223	0x00000000	0.0
224	0x00000000	0.0
225	0x00000000	0.0
226	0x00000000	0.0
227	0x00000000	0.0
228	0x00000000	0.0
229	0x00000000	0.0
230	0x00000000	0.0
231	0x00000000	0.0
232	0x00000000	0.0
233	0x00000000	0.0
234	0x00000000	0.0
235	0x00000000	0.0
236	0x00000000	0.0
237	0x00000000	0.0
238	0x00000000	0.0
239	0x00000000	0.0
240	0x00000000	0.0
241	0x00000000	0.0
242	0x00000000	0.0
243	0x00000000	0.0
244	0x00000000	0.0
245	0x00000000	0.0
246	0x00000000	0.0
247	0x00000000	0.0
248	0x00000000	0.0
249	0x00000000	0.0
250	0x00000000	0.0
251	0x00000000	0.0
252	0x00000000	0.0
253	0x00000000	0.0
254	0x00000000	0.0
255	0x00000000	0.0

0.scale_net.network.6.bias f4 [6]
0	0xbe5afc0c	-0.21385211
1	0x00000000	0.0
2	0xbdb663c5	-0.08905748
3	0x00000000	0.0
4	0xbe33e489	-0.17567648
5	0x00000000	0.0

0.translate_net.network.0.weight f4 [64, 6]
0	0xbe0e5320	-0.13898897
1	0xbd4100d5	-0.047119934
2	0xbe43e202	-0.19129184
3	0xbf540120	-0.82814217
4	0x3e920172	0.28516728
5	0xbd4a8f8f	-0.049453314
6	0x3dfafc98	0.1225521
7	0x3ebfbca0	0.37448597
8	0x3e9ada74	0.30244792
9	0x3e72bb3d	0.23704238
10	0xbdc1f6e8	-0.09470922
11	0xbeaaedd1	-0.33384565
12	0xbe7dd268	-0.24787295
13	0xbea4ac4a	-0.32162696
14	0x3d9abfb4	0.07556096
15	0x3ea2d054	0.31799567
16	0x3e8f3470	0.27969694
17	0xbebe14be	-0.371252
18	0x3eba6f0a	0.3641284
19	0xbe8a4265	-0.2700378
20	0xbe9de1f8	-0.30836463
21	0xbe892f2c	-0.26793802
22	0xbdfb03dc	-0.122565955
23	0xbee9ea4b	-0.45686564
24	0x3dcf7150	0.101290345
25	0xbe5db096	-0.21649393
26	0xbec02ce5	-0.37534252
27	0x3ddfb678	0.10923475
28	0x3e4257ac	0.18978757
29	0x3e1eb8a0	0.15500116
30	0xbe6fe87b	-0.23428528
31	0x3e717c69	0.23582615
32	0x3e84ff66	0.25976104
33	0xbd00acd6	-0.03141483
34	0x3eca2102	0.39478308
35	0x3ed664a8	0.4187367
36	0x3e2c5cec	0.16832322
37	0xbd6f4dc8	-0.058423787
38	0xbe919119	-0.28431013
39	0xbcc29a50	-0.023755223
40	0x3ec87c36	0.39157265
41	0xbdbf3070	-0.093354106
42	0x3cb423a0	0.021989644
43	0xbee1783b	-0.4403704
44	0x3c737060	0.014858335
45	0xbe193d16	-0.14964709
46	0xbea413a9	-0.3204625
47	0x3df7fea2	0.12109114
48	0x3e5197f4	0.20468122
49	0x3e88fd8a	0.26755935
50	0xbc8d0440	-0.01721394
51	0x3d853a26	0.065052316
52	0xbd033a48	-0.032038003
53	0xbcf2a2f3	-0.029618716
54	0xbe37238b	-0.17884652
55	0x3e057b24	0.13035256
56	0xbeb0f79f	-0.3456392
57	0x3e674194	0.2258361
58	0x3e39d660	0.18148184
59	0xbe90c640	-0.28276253
60	0xbd9439c4	-0.072375804
61	0xbe988f41	-0.29796794
62	0xbed036d7	-0.4066684
63	0x3b4fa7e5	0.0031685766
64	0x3ec41a80	0.38301468
65	0x3e0900d1	0.13379218
66	0x3e017084	0.12640578
67	0xbe3e5599	-0.1858734
68	0xbe95f166	-0.29285735
69	0x3e3dc69c	0.18532795
70	0xbcecde20	-0.028914511
71	0x3e3987f8	0.18118274
72	0x3e17d554	0.14827472
73	0xbe9b5816	-0.30340642
74	0x3e28d820	0.16488695
75	0xbe897ad0	-0.2685151
76	0x3d133f80	0.03594923
77	0xbe772614	-0.2413562
78	0xbc0424e0	-0.008065432
79	0xbdc49c0c	-0.09600076
80	0x3df3fbc8	0.11913258
81	0x3e660638	0.2246331
82	0x3d5e9728	0.054343373
83	0x3d476760	0.04868257
84	0x3eb0146e	0.34390587
85	0x3e27126d	0.16315623
86	0xbdc906c4	-0.098157436
87	0x3e00b84a	0.125703
88	0x3d1a0ab0	0.03760785
89	0x3e8ff660	0.28117657
90	0x3dedfae8	0.11620122
91	0xbf1ed030	-0.6203642
92	0xbec5c367	-0.38625643
93	0xbf39bb75	-0.7255166
94	0x3e1b12e8	0.15143931
95	0xbeafa680	-0.34306717
96	0x3df777e0	0.12083411
97	0xbdbff6ab	-0.0937322
98	0x3dde2438	0.10846752
99	0x3ebf7077	0.3739049
100	0x3e63e590	0.2225554
101	0x3e713ff9	0.2355956
102	0xbeae7bf4	-0.34078944
103	0xbe7b543a	-0.24543849
104	0x3dcf75d0	0.10129893
105	0xbe925e7d	-0.28587714
106	0x3ea19e2e	0.31565994
107	0xbd0f6e19	-0.035017107
108	0xbe90efe4	-0.28308022
109	0xbe353cb4	-0.17698938
110	0xbecc1e9f	-0.39867112
111	0xbe1de871	-0.154207
112	0x3dd17c10	0.10228741
113	0x3c98085f	0.01855868
114	0xbe1e16f2	-0.1543844
115	0xbd21218b	-0.03933863
116	0xbe9f99f0	-0.31172132
117	0xbefc5750	-0.49285364
118	0x3d90ab98	0.07063979
119	0xbd832e7f	-0.06405353
120	0x3d8173f8	0.063209474
121	0xbe58260f	-0.21108268
122	0xbe9a0d4c	-0.3008827
123	0x3e89023a	0.2675951
124	0xbddc19ec	-0.10747132
125	0x3cfa4cd5	0.030554214
126	0x3e5d69d4	0.21622401
127	0x3e286a92	0.16446903
128	0x3ea8fc04	0.33004773
129	0x3e8a52b8	0.27016234
130	0xbd8097bc	-0.06278941
131	0xbcbfd8af	-0.023418752
132	0xbeb72779	-0.35772303
133	0x3e984115	0.29737154
134	0x3e151634	0.14559251
135	0x3ddbf48d	0.10740004
136	0xbdf80d38	-0.12111896
137	0xbeb42c82	-0.35190207
138	0x3db999c8	0.090625346
139	0xbe1f7955	-0.15573628
140	0x3e6bd294	0.23029548
141	0x3c707bee	0.014677985
142	0x3d1e0900	0.0385828
143	0x3e8723c4	0.26394475
144	0xbe91826e	-0.28419822
145	0x3ed9cac0	0.42537498
146	0xbeb9087d	-0.3613929
147	0x3e21710f	0.15765785
148	0xbec31e6e	-0.38109154
149	0xbe9d29cd	-0.30695954
150	0xbe440735	-0.19143374
151	0x3e9eda28	0.31025815
152	0xbe858bf2	-0.26083332
153	0x3e65e9bb	0.22452442
154	0xbe282892	-0.16421726
155	0xbd0b157c	-0.033956036
156	0x3e98dd0e	0.2985615
157	0x3e421066	0.18951568
158	0x3e97067a	0.2949713
159	0x3e2a2fbb	0.1661977
160	0xbe389720	-0.180264
161	0xbdeffcf8	-0.11718172
162	0x3de5bb70	0.112173915
163	0x3d937b84	0.07201293
164	0xbe8071c8	-0.25086808
165	0xbe494048	-0.19653428
166	0xbe0d59a6	-0.1380373
167	0xbed9ec57	-0.42563125
168	0x3ea29924	0.31757462
169	0x3e8e7b41	0.2782841
170	0x3e74548c	0.23860377
171	0xbde304f0	-0.11084926
172	0x3ec3663e	0.38163942
173	0x3e6b7a75	0.22995932
174	0x3e24efec	0.16107148
175	0xbe8861ad	-0.2663702
176	0xbd4d1f40	-0.05007863
177	0x3db584cc	0.088632196
178	0xbec4add3	-0.38413867
179	0x3daad437	0.08341258
180	0xbebc29ef	-0.36750743
181	0x3ddc1baf	0.10747468
182	0x3ea79010	0.32727098
183	0xbe366814	-0.1781314
184	0xbe78fa75	-0.24314292
185	0xbcb9cdbc	-0.02268111
186	0x3dbb1da8	0.09136516
187	0xbea234eb	-0.31680998
188	0x3e9fda08	0.31221032
189	0xbeacfa8d	-0.33784905
190	0x3e8fc0c8	0.28076768
191	0xbec915cf	-0.3927445
192	0xbe74cd4e	-0.23906443
193	0xbc7888fc	-0.015169378
194	0xbe090f7c	-0.13384813
195	0xbed6f1f4	-0.4198147
196	0xbea1adab	-0.3157781
197	0x3d15f195	0.036607344
198	0xbeb627d2	-0.35577255
199	0x3e907f64	0.2822219
200	0xbd0cd008	-0.03437808
201	0x3ebb6d0b	0.3660663
202	0x3e3577f4	0.1772154
203	0x3eb844cb	0.35989985
204	0x3e26e774	0.1629923
205	0x3d83920f	0.06424343
206	0xbe2f3caf	-0.17112993
207	0x3e9dc80d	0.3081669
208	0x3d0c49d0	0.03425008
209	0x3dbe8fe6	0.0930479
210	0xbe2efbbf	-0.17088221
211	0xbe8c27fc	-0.27374256
212	0xbe6a6ca7	-0.2289301
213	0x3e4d728d	0.20063229
214	0x3caa26b0	0.0207704
215	0xbe253558	-0.1613363
216	0x3e2dd8a8	0.16977179
217	0xbdc235f4	-0.09482947
218	0xbea49d94	-0.32151473
219	0x3eba822e	0.36427444
220	0x3c5f3580	0.013623595
221	0xbeb21217	-0.34779426
222	0x3dcad0d0	0.09903109
223	0xbdccfa94	-0.100087315
224	0xbec671b8	-0.38758636
225	0xbe2ac42c	-0.16676396
226	0x3e608948	0.21927369
227	0xbe868284	-0.2627145
228	0x3d593608	0.053030044
229	0xbd040e88	-0.03224042
230	0xbe941446	-0.28921717
231	0xbe0d49a0	-0.13797617
232	0x3bdf4680	0.006813824
233	0xbd93245c	-0.071846694
234	0xbe33e1a8	-0.1756655
235	0xbebcd11c	-0.36878288
236	0x3d9185fc	0.071056336
237	0xbe373abf	-0.17893504
238	0x3ec6fb64	0.3886367
239	0x3ea7fe0c	0.3281101
240	0xbddfc3f8	-0.1092605
241	0xbd351258	-0.044206947
242	0xbcb57730	-0.02215156
243	0x3dbfb2f0	0.093603015
244	0xbdb22834	-0.086990744
245	0x3d6b2460	0.057407737
246	0xbe934558	-0.28763843
247	0xb9a927e6	-0.0003226392
248	0xbe23b25b	-0.15986006
249	0xbea99163	-0.33118734
250	0x3c1e94a0	0.00967899
251	0xbec3685d	-0.3816556
252	0xbec3c254	-0.38234198
253	0x3e5e2b58	0.21696222
254	0x3d44a078	0.048004597
255	0x3d9046dc	0.07044765

0.translate_net.network.0.bias f4 [64]
0	0xbe902e03	-0.28160104
1	0x3e3454cf	0.17610477
2	0xbe53b358	-0.20673883
3	0x3e311ebc	0.1729688
4	0xbe79d67d	-0.24398227
5	0xbe5df0a7	-0.21673833
6	0xbe39f332	-0.18159178
7	0xbe1224d9	-0.14271869
8	0x3c80c362	0.015718166
9	0xbe0f8eb0	-0.14019275
10	0xbe11a0ef	-0.14221548
11	0xbea4c52f	-0.3218169
12	0xbec67acb	-0.3876556
13	0xbe30c071	-0.1726091
14	0xbe2f8167	-0.17139207
15	0x3e06b44d	0.13154717
16	0xbb471211	-0.0030375759
17	0xbec5d33a	-0.38637716
18	0xbaa46762	-0.0012543018
19	0xbe152d5c	-0.14568084
20	0xbe3f76de	-0.18697688
21	0xbdaf9f11	-0.085752614
22	0xbda3a372	-0.07990159
23	0xbebc01c6	-0.36720103
24	0xbda6f013	-0.08151259
25	0xbe7c25fa	-0.24623862
26	0x3da4f7c0	0.08055067
27	0xbe10aa67	-0.14127503
28	0x3e140061	0.1445327
29	0xbc657448	-0.014004774
30	0xbeda1b18	-0.42598796
31	0x3ec1cbb4	0.37850726
32	0xbe361980	-0.17783165
33	0x3d9cb70c	0.07652101
34	0x3e08dd8f	0.13365768
35	0xbe572d29	-0.21013321
36	0xbeb23dfa	-0.3481291
37	0xbe6b6ba1	-0.22990276
38	0xbece35a0	-0.40275288
39	0xbeb12157	-0.3459575
40	0xbe7914ca	-0.24324337
41	0xbe79c61b	-0.24391977
42	0xbdf6a7a4	-0.12043694
43	0xbed5cc48	-0.41757417
44	0x3ea8e9da	0.32990915
45	0xbeb29c86	-0.34885043
46	0xbde2dac8	-0.110768855
47	0xbc2f4c51	-0.010699348
48	0xbd94d78e	-0.07267676
49	0xbe76d9ee	-0.24106571
50	0x3a985d74	0.0011624531
51	0x3db9c5d5	0.090709366
52	0xbe18341f	-0.14863633
53	0xbe074f54	-0.13213855
54	0x3caaffea	0.020873982
55	0x3d2dede3	0.042463195
56	0x3e77832e	0.24171135
57	0xbe99ee5d	-0.3006467
58	0x3dbe6928	0.09297401
59	0x3e7eab3d	0.2487001
60	0xbe97123c	-0.295061
61	0xbd72700a	-0.05918888
62	0xbe555ae7	-0.20835458
63	0x3ebae098	0.36499476

0.translate_net.network.2.weight f4 [64, 64]
0	0x3e01113f	0.12604235
1	0xbdaa4ab6	-0.08315031
2	0x3dd99bce	0.106254205
3	0x3da65695	0.08121983
4	0xbdee9af2	-0.11650647
5	0xbda74ac8	-0.0816856
6	0x3ddd1e66	0.10796814
7	0x3d371333	0.044696044
8	0x3c477bb8	0.012175493
9	0x3d6ddaf8	0.058070153
10	0xbd904081	-0.07043553
11	0xbdca6c4c	-0.09883937
12	0x3d89afca	0.06722982
13	0x3bdd1180	0.006746471
14	0xbda7b643	-0.081890605
15	0xbc69849f	-0.014252811
16	0x3da88a74	0.08229533
17	0xbd506e4d	-0.05088644
18	0xbdec17d4	-0.11527982
19	0xbcc30c52	-0.023809586
20	0x3d676bfc	0.056499466
21	0xbe17c5e6	-0.14821586
22	0x3dbb5458	0.09146947
23	0x3c791afc	0.0152041875
24	0xbda67782	-0.08128263
25	0xbd08566a	-0.033285536
26	0xbd9c9d56	-0.07647197
27	0x3cd786b2	0.026309345
28	0xbb8dbd70	-0.004325561
29	0x3d20d2ca	0.039263524
30	0x3def16c3	0.11674263
31	0x3d463ab0	0.048395813
32	0xbe0c53aa	-0.1370379
33	0xbdc12a7d	-0.09431932
34	0xbdf69986	-0.12041001
35	0x3dc290a6	0.09500246
36	0xbb8de4c0	-0.0043302476
37	0xbd068618	-0.032842726
38	0x3c00b720	0.00785616
39	0x3ce0e800	0.027454376
40	0xbdba89f2	-0.09108342
41	0xbe2ba914	-0.16763717
42	0x3d96b38c	0.073584646
43	0x3d8557b8	0.06510872
44	0x3d8e68b2	0.06953563
45	0x3d4ece8c	0.050489947
46	0xbd80718c	-0.06271657
47	0xbdf350a5	-0.11880616
48	0xbb479763	-0.0030455224
49	0xbd3715cc	-0.04469852
50	0xbcfe0dca	-0.031012435
51	0xbe022245	-0.12708385
52	0xbe0ba02a	-0.13635316
53	0x3d89161a	0.06693669
54	0xbe0dfa20	-0.13864946
55	0x3db007c3	0.085952304
56	0xbdc2b711	-0.095075734
57	0xbd6576fc	-0.056021675
58	0x3da56462	0.08075787
59	0xbda0ef67	-0.078581624
60	0xbdcefe4e	-0.101070985
61	0x3cd321ad	0.025772894
62	0x3d93c652	0.07215561
63	0x3d9acf51	0.07559074
64	0xbdad4d64	-0.08462027
65	0x3a5fdf7a	0.00085400755
66	0xbdac9932	-0.08427657
67	0x3d94437d	0.07239435
68	0xbcebd8d0	-0.028789908
69	0x3d6e99b3	0.058252048
70	0x3de2c304	0.110723525
71	0xbb1ec040	-0.0024223477
72	0xbdcc3e62	-0.09972836
73	0x3cfdc430	0.030977339
74	0x3d10b194	0.0353256
75	0x3dc9869e	0.09840129
76	0x3cc8f8d8	0.02453272
77	0x3a0e6600	0.00054320693
78	0x3ce6e49e	0.028185185
79	0xbdf4840a	-0.11939247
80	0xbba4f047	-0.005033526
81	0xbc511030	-0.012760207
82	0xbe00085f	-0.12503193
83	0xbca18faf	-0.019721834
84	0x3d2be1ee	0.04196351
85	0x3d2c0f6e	0.042006902
86	0xbcfb16d0	-0.030650526
87	0xbdec9cc4	-0.11553338
88	0xbe17a6c1	-0.14809705
89	0x3cf94c3c	0.03043186
90	0xbe082f0d	-0.13299198
91	0x3de2b0be	0.11068867
92	0xbe326099	-0.17419662
93	0x3d790d5b	0.060803752
94	0xbd2cad04	-0.042157188
95	0xbded7c17	-0.11595934
96	0x3dcb0b76	0.099142954
97	0x3a016f0a	0.00049375056
98	0xbe07106f	-0.13189863
99	0xbc898780	-0.016788244
100	0x3c97b420	0.018518507
101	0x3d88f4ee	0.06687342
102	0x3d76a1d4	0.060212925
103	0xbc0a68a0	-0.008447796
104	0x3d4ec950	0.050484955
105	0x3b9820c0	0.004642576
106	0x3d9c7834	0.076401144
107	0xbe3677e9	-0.1781918
108	0x3d5d8a24	0.05408682
109	0xbb9ddec0	-0.0048178136
110	0x3d150e3c	0.036390528
111	0xbe3801e2	-0.17969468
112	0x3c1f5e46	0.009727066
113	0x3d5b2a0c	0.053506896
114	0xbddacb16	-0.10683267
115	0xbd99c444	-0.07508138
116	0x3d8d3c02	0.06896211
117	0xbd912f52	-0.07089104
118	0xbdb5c155	-0.08874766
119	0xbe35db27	-0.17759381
120	0xbb22da7f	-0.0024849472
121	0xbdf7c047	-0.12097221
122	0x3d14aff4	0.036300614
123	0x3d07312b	0.033005875
124	0x3d820398	0.06348342
125	0xbd632ad4	-0.055460766
126	0x3dddf466	0.10837631
127	0x3cf66afd	0.030080313
128	0x3e210238	0.15723503
129	0x3c6c2d39	0.014415079
130	0x3c3f5450	0.0116778165
131	0xbd94bdc0	-0.072627544
132	0xbd5977c0	-0.053092718
133	0x3a6d7681	0.0009058491
134	0xbdb9b5ce	-0.090678796
135	0x3cc3282e	0.02382287
136	0xbcf00e1e	-0.029303607
137	0x3cdd0c18	0.026983306
138	0xbd2520d9	-0.04031453
139	0x3ae7b300	0.0017677248
140	0xbc6e94f0	-0.014561877
141	0x3dc2c58c	0.09510335
142	0x3e1e5ee6	0.15465888
143	0x3ebe4af9	0.37166575
144	0xbd381b4b	-0.044947904
145	0x3ceba50f	0.02876523
146	0xbe8a0bd9	-0.26962164
147	0xbd2e7066	-0.04258766
148	0x3df17f72	0.117918864
149	0x3cda456f	0.026644437
150	0xbd35c630	-0.04437846
151	0xbd4e8d90	-0.050427973
152	0x3db52922	0.08845736
153	0x3e4e57ba	0.20150653
154	0xbe4fb1fa	-0.20282736
155	0xbb1a67a1	-0.0023560303
156	0xbe0a34a7	-0.13496648
157	0x3c08ad34	0.008342076
158	0xbd13a50b	-0.03604607
159	0xbe060783	-0.13088803
160	0x3de0317e	0.1094694
161	0xbab90c4e	-0.0014118047
162	0xbd27d954	-0.040978745
163	0x3cdfe7c8	0.027332202
164	0x3d7451d0	0.059648335
165	0x3cae78f0	0.021297902
166	0x3c3ab6d0	0.011396125
167	0xbd0d11c8	-0.034440786
168	0x3dd66906	0.104692504
169	0xbe152e42	-0.14568427
170	0x3de4eaf2	0.11177625
171	0x3e209ee8	0.15685618
172	0xbc884723	-0.016635483
173	0x3b067c80	0.0020520985
174	0x3c400a40	0.011721194
175	0x3ce54edc	0.027991705
176	0x3d382491	0.044956747
177	0xbdb03f92	-0.08605875
178	0x3da1ccfe	0.07900427
179	0xbe0af9bb	-0.13571827
180	0xbdb1483a	-0.08656354
181	0x3d574457	0.05255541
182	0x3c8be3dd	0.017076427
183	0xbd5da185	-0.054109115
184	0xbe5c57a2	-0.21517804
185	0x3e05a9e8	0.13053095
186	0xbe8b6479	-0.27225092
187	0x3d570907	0.052498844
188	0xbde84b72	-0.11342515
189	0x3e101dac	0.14073819
190	0xbd5bc388	-0.05365327
191	0xbdf72a4d	-0.12068615
192	0xbdf8dcfe	-0.12151526
193	0x3d83e592	0.064402714
194	0x3cac8730	0.021060556
195	0x3dc6c8f6	0.09706299
196	0xbc9d6c48	-0.019216672
197	0x3db8865e	0.090100035
198	0x3de44afa	0.11147113
199	0x3df1dbe2	0.118095174
200	0xbd2ffbe8	-0.042964846
201	0x398a9000	0.000264287
202	0xbdb0eeb4	-0.08639279
203	0x3d9318f2	0.07182492
204	0xbd478e3c	-0.04871963
205	0x3c2b1b10	0.010443464
206	0x3d40b2c4	0.047045484
207	0x3ce132b8	0.027490005
208	0x3d0357bc	0.032066092
209	0x3d1c45d0	0.038152516
210	0xbde4f86c	-0.11180195
211	0xbdcc2bd0	-0.09969294
212	0xbdbc3eba	-0.09191652
213	0xbc8b47d8	-0.017002031
214	0xbd450af4	-0.04810615
215	0xbd9e8f84	-0.07742217
216	0x3ca2dd60	0.01988095
217	0x3d23a0f0	0.039948404
218	0xbdebcc64	-0.11513594
219	0x3dafab34	0.08577576
220	0xbde056f2	-0.109540835
221	0xbdedd19c	-0.116122454
222	0xbdcbc9c4	-0.09950593
223	0xbdaf4a94	-0.085591465
224	0x3dd5b378	0.104346216
225	0xbdfe1e8a	-0.124081686
226	0x3d20716c	0.039170668
227	0xbd1afdd0	-0.03783971
228	0xbdd6fe9c	-0.10497782
229	0xbd6c5ba0	-0.057704568
230	0x3d465c38	0.04842779
231	0xbda774f8	-0.08176607
232	0xbdeee68c	-0.11665067
233	0xbdbd8ede	-0.092557654
234	0x3d7bdbec	0.06148903
235	0x3da13d52	0.07873024
236	0x3d98ac3c	0.07454726
237	0x3c5f9570	0.0136464685
238	0x3d086b9c	0.03330575
239	0x3da0b08c	0.07846174
240	0xbd5cb4d0	-0.053883374
241	0x3d9b609c	0.07586786
242	0xbd58dee0	-0.052946925
243	0xbdc471a0	-0.09591985
244	0xbd3aa7c4	-0.04557015
245	0x3da3509e	0.07974361
246	0x3de032a0	0.10947156
247	0xbdcd20ea	-0.100160435
248	0x3dd4f144	0.1039758
249	0x3d7dc648	0.061956674
250	0xbb783440	-0.003787294
251	0xbd687908	-0.05675605
252	0xbb968060	-0.00459294
253	0xbd992d6c	-0.07479367
254	0x3d3c3f3c	0.045958742
255	0xbd4131f0	-0.047166765

0.translate_net.network.2.bias f4 [64]
0	0xbd6dad9b	-0.05802689
1	0xbd9c4718	-0.076307476
2	0xbe2d22a0	-0.1690774
3	0xbd9b97c0	-0.075973034
4	0x3dbb8d88	0.09157854
5	0xbd514508	-0.051091224
6	0xbc98686f	-0.018604485
7	0x3d49cf64	0.04927005
8	0xbd03c286	-0.032167934
9	0xbe4312b7	-0.19050108
10	0x3e0893c9	0.13337626
11	0xbdb71838	-0.08940166
12	0xbe109965	-0.14121015
13	0x3b82e3fd	0.0039944635
14	0xbe87ffa6	-0.26562232
15	0xbd7bd71e	-0.06148445
16	0xbe4f36ac	-0.202357
17	0xbbfb0c7b	-0.0076614
18	0x3e546608	0.20742047
19	0xbe011c5b	-0.12608473
20	0x3e5819ff	0.21103667
21	0xbd86e500	-0.06586647
22	0x3c399b9c	0.011328604
23	0xbec33754	-0.3812815
24	0x3e16b5e2	0.1471782
25	0x3d86fdfd	0.06591413
26	0xbd1fdbf6	-0.03902813
27	0xbdbb2ee8	-0.09139806
28	0xbdea5b9c	-0.11443254
29	0xbd9ef4ef	-0.07761561
30	0xbd6c8a79	-0.057749245
31	0xbe3723b6	-0.17884716
32	0xbd5c937c	-0.05385159
33	0x3bbcaa04	0.005757572
34	0x3d4e2203	0.050325405
35	0xbdf7cfe9	-0.121002026
36	0xbd9719db	-0.073779784
37	0xbe6bbd49	-0.23021425
38	0x3c11d9ad	0.008901996
39	0x3dd0dfd4	0.10198942
40	0xbc34663c	-0.011010703
41	0xbe795728	-0.24349654
42	0xbdea40e2	-0.11438157
43	0xbdb46d61	-0.08809925
44	0xbd061bde	-0.03274142
45	0xbde3f41c	-0.111305445
46	0x3d3071c7	0.043077257
47	0x3d92348a	0.07138927
48	0x3dbf789a	0.09349175
49	0xbd517898	-0.051140398
50	0xbe03fde4	-0.1288982
51	0xbe170e5c	-0.14751571
52	0xbbbac2a6	-0.0056994734
53	0xbe8ab9f1	-0.27094987
54	0x3ce80fe3	0.028327888
55	0xbbe50fff	-0.0069904323
56	0xbe8337e5	-0.25628582
57	0xbd806e6f	-0.062710635
58	0xbea31e67	-0.31859133
59	0x3d7e139e	0.062030427
60	0xbd81f313	-0.06345191
61	0x3d8c7116	0.06857507
62	0xbdc6139a	-0.096717075
63	0xbe1e1227	-0.15436612
