SE3_DS/nn_models/models/PegInHole_models/best_model_002.pth (torch, 396402 bytes, 80 tensors)

0.scale_net.network.0.weight f4 [64, 6]
000000 10 40 78 3e ae 8d 85 be d8 40 02 bd 0f 44 5c 3e
       0.24243188 -0.26084656 -0.03180012 0.21510337
000010 8c 1a 83 3e 7f 96 24 3d 94 3f a0 3d 31 2c 1a 3e
       0.2560619 0.040182587 0.078246266 0.1505592
000020 00 8c 90 3e 47 56 8a be 48 2c ce 3e 89 09 0c 3e
       0.28231812 -0.2701895 0.4026816 0.13675512
000030 14 70 2b 3e 40 59 93 3d 0e 60 87 3e 40 24 95 bb
       0.16741973 0.071947575 0.2644047 -0.0045514405
000040 f0 ff 83 bc 78 7b ef bd 0a ba 8b 3e 8c dc 43 bd
       -0.016113251 -0.11693472 0.27290374 -0.04781775
000050 99 59 77 be e5 4d 41 bd 89 fd b4 be ef 29 ab 3e
       -0.24155273 -0.047193427 -0.35349682 0.3343043
000060 fa e8 98 be 5f fd 77 3e 32 80 02 be 62 2d 59 bf
       -0.29865247 0.24217747 -0.12744215 -0.84834874
000070 e0 af 13 be 52 3d 7e bd c0 cb bb bc 00 34 be 3e
       -0.1442256 -0.0620702 -0.022924304 0.37149048
000080 b0 02 61 be 95 e1 c6 be cc 38 d4 bd 4f 77 07 be
       -0.21973681 -0.3884398 -0.10362396 -0.13229106
000090 87 51 bb be 6e 4b bb 3d 16 5f 1a be 86 c5 cd be
       -0.36585638 0.091452464 -0.15075335 -0.4018976
0000a0 54 25 af bd 39 d7 c9 bd 2f 34 3a be fa b0 68 3e
       -0.08552042 -0.098555036 -0.18183969 0.22723761
0000b0 74 05 80 3d 1d 3c a3 be 60 a2 a4 be 57 bf 80 be
       0.0625104 -0.318818 -0.32155132 -0.2514598
0000c0 60 38 60 bc e0 5c 1b 3d fd ad ae be a7 3b c1 bc
       -0.013685316 0.03793037 -0.34117118 -0.023588015
0000d0 00 84 81 3b b3 73 1c 3d e3 9d cf be e0 35 c1 bd
       0.003952503 0.038196277 -0.40550146 -0.09434104
0000e0 b0 c8 c8 bc e5 eb 19 3d 32 37 9f 3e 39 e5 ab bd
       -0.024509758 0.037578482 0.31096798 -0.0839333
0000f0 7a c5 92 3e 00 32 91 3c 34 dc 6c be a0 57 00 bd
       0.28666288 0.017724037 -0.23130876 -0.031333566
000100 d0 02 da 3d 30 76 53 3e c0 0e d0 3e 7a 68 04 be
       0.10645068 0.20650554 0.40636253 -0.1293048
000110 d0 65 2e 3e ae 1c b4 be c1 14 6e be 8a 60 44 be
       0.17031026 -0.3517813 -0.23250104 -0.19177452
000120 a8 ad 0b bd 02 0a 9a 3e 8a 82 bf be a2 98 f3 3c
       -0.03410116 0.3008576 -0.3740428 0.029735867
000130 a0 b9 7e 3e 17 8b 8c 3c 50 74 72 be c7 1b 90 3e
       0.24875498 0.017156167 -0.23677182 0.28146192
000140 5e 99 54 be fd 42 fd 3e b2 4e 83 3e c0 9c 81 be
       -0.2076163 0.4946517 0.25645977 -0.25314903
000150 78 c6 9a bd 93 7f 16 bc 00 4c a6 bd 2d c3 68 be
       -0.07557386 -0.0091856895 -0.081199646 -0.22730704
000160 09 02 62 be ac 0c 05 bf d0 5d 5c 3e 5c 7d ab be
       -0.22071089 -0.5197246 0.21520162 -0.3349408
000170 20 4c cd bc 27 d2 a9 bd 4c 15 85 3e 2a 10 95 3e
       -0.025060713 -0.082920365 0.2599281 0.29113895
000180 26 fd 2f be 9d ab b7 3d 64 8c 8f 3d d2 c9 f0 bd
       -0.17186412 0.089682795 0.07009199 -0.11757244
000190 a0 c9 fb 3c 7e 1e 9b 3d c9 62 3a be 04 76 f4 bd
       0.03073579 0.07574175 -0.18201746 -0.11936572
0001a0 a0 65 13 bd a4 5a 72 3e cc 11 b1 3e 41 6f 92 be
       -0.03598559 0.23667389 0.3458389 -0.28600505
0001b0 20 a9 14 bd f4 9f 83 3e ea 70 ac 3e d7 2c 70 bd
       -0.036294103 0.25707972 0.33679897 -0.058636513
0001c0 1c 57 c3 3e 01 55 e5 3e 48 9b 52 3e 6c 5e b2 bd
       0.38152397 0.44791415 0.20567048 -0.08709416
0001d0 22 9e b1 3e 6e 9e b4 3e 35 d8 a6 be 29 f1 bb be
       0.34690958 0.35277122 -0.32586828 -0.36707428
0001e0 f6 10 bb 3e 29 a9 74 3e 60 4d 8d be 30 15 4b be
       0.36536378 0.23892654 -0.27598095 -0.19832301
0001f0 c6 e2 c7 3e 54 1c 1e 3d ee 78 a9 3e b6 6f ca 3e
       0.39040202 0.038601235 0.33100075 0.39538354
000200 c0 2d 7e 3e 20 27 c8 bb ec ae 2b 3e a8 e7 a7 bd
       0.2482214 -0.0061081797 0.16765946 -0.08198482
000210 60 c6 30 bc 6b 43 90 3e 72 dd 87 3e 7d 9a 30 3e
       -0.010789484 0.28176436 0.26536137 0.17246433
000220 c3 9c 30 be b3 6b 86 be 1a 2f 80 3e f9 95 12 c0
       -0.172473 -0.26254043 0.25035936 -2.2904036
000230 d7 8d 7b be 4f 36 f8 be b8 39 49 3e d1 7b a3 be
       -0.24565826 -0.48478934 0.19650924 -0.31930402
000240 12 9b 9b 3e 6a b1 81 be d8 70 1b be f6 2c 82 3e
       0.30391747 -0.2533067 -0.15179765 0.25424927
000250 5c 4b bb be 2d be b7 be 4c 48 83 3d 31 38 62 be
       -0.36580932 -0.3588728 0.06410274 -0.22091748
000260 d8 62 c5 be 4d 7e b7 3d 23 21 b0 be c1 5e 7c 3d
       -0.38551974 0.08959637 -0.3440028 0.061613802
000270 8c 43 77 3e 31 b8 05 40 48 0e f1 3d e8 eb 59 3d
       0.24146861 2.0893672 0.11770302 0.053203493
000280 b8 a4 b7 be 41 9c 9f be eb 62 9f be 0b 18 aa be
       -0.35867858 -0.311739 -0.31130156 -0.33221468
000290 d1 4e a7 be fe ef be 3d 50 d5 a5 bc d8 de 43 3e
       -0.3267732 0.093231186 -0.020243317 0.19127977
0002a0 82 62 a2 3e db d3 03 c0 d2 9f 9f be 5b f1 2c 3f
       0.3171578 -2.0598056 -0.3117662 0.6755578
0002b0 80 ba a5 3b 13 a3 17 bf 00 80 6d b9 99 e1 c7 3b
       0.005057633 -0.59233207 -0.00022649765 0.0060998914
0002c0 64 0d 18 3e 2e c8 b4 be 7c 32 95 3e b0 63 16 bf
       0.14848858 -0.35308975 0.2914008 -0.5874586
0002d0 56 81 ad 3e 38 66 d6 bd c4 06 ab bd 39 92 9b be
       0.33887738 -0.104687154 -0.083509 -0.30384997
0002e0 72 a1 99 3e 4f ec f7 3d 60 97 8d bd 8f ac 80 be
       0.30005985 0.12105619 -0.06913638 -0.25131652
0002f0 f4 85 b0 bd 58 ec e8 bd 74 74 65 3e 4c a9 60 bd
       -0.086192995 -0.11373204 0.22407705 -0.054848954
000300 00 98 37 3a 92 12 aa be 31 2c 90 be 4c cb f8 bd
       0.0007003546 -0.33217293 -0.28158715 -0.12148151
000310 68 56 25 bd 82 f2 66 be cc 75 79 be 3d 88 d0 be
       -0.040365607 -0.22553447 -0.24361342 -0.40728942
000320 3e 04 10 be 6e ac ae be 00 33 35 bc 24 4a 18 be
       -0.14064118 -0.34115928 -0.011059523 -0.14872032
000330 8d f6 3d be 36 be d0 be d0 19 24 3d bc 6f d8 3e
       -0.18551083 -0.4077012 0.04006368 0.42272747
000340 68 2d 2c 3e 6f 5e a7 3d 44 ef 8e be f9 f4 b3 3d
       0.16814196 0.08172309 -0.2791692 0.08786959
000350 c6 2f 9d be 3e 12 8c 3f ac cb 00 3e e1 47 69 be
       -0.3070051 1.0943067 0.12577695 -0.22781326
000360 38 f2 90 bd f8 9f 43 3d 20 7b fe 3c 12 54 97 3e
       -0.070774496 0.04775998 0.03106457 0.29556328
000370 cc 8a 97 3d c3 24 cb be a4 18 7b 3e 43 21 87 3c
       0.0739952 -0.39676484 0.24521118 0.016495353
000380 bc 5f dd bd df 3a 1c be 30 99 80 3e 08 04 ae 3e
       -0.108092755 -0.15256833 0.25116873 0.3398745
000390 00 b0 bd be 9b ad a3 3e c0 51 fc 3d 11 da f4 bd
       -0.3704834 0.31968388 0.1232028 -0.11955655
0003a0 a5 dd 3e be a2 23 6d be 74 d0 a3 be 5c 31 a7 3e
       -0.18639238 -0.23158124 -0.31994975 0.32654846
0003b0 78 fa 3e 3e fa 7c 58 be 80 a0 9a be 86 6a 7c be
       0.18650234 -0.21141425 -0.30200577 -0.2465001
0003c0 40 63 c7 3b 43 01 94 be d8 ed cd bd 08 9f 8c be
       0.0060848296 -0.28907213 -0.10055131 -0.2746508
0003d0 74 a9 1e be 2d c4 ed be ee 4d cd 3e 1e e0 a4 be
       -0.15494329 -0.46438733 0.40098518 -0.32202238
0003e0 66 10 8d be 2f ba 69 be 18 5d 97 bd a2 a8 e3 3d
       -0.27551574 -0.2282493 -0.07390803 0.111161485
0003f0 b8 d4 6d 3e 6e dc 02 3e 34 a7 9a 3e 3a 99 c0 3c
       0.23225677 0.127794 0.3020569 0.023510564

0.scale_net.network.0.bias f4 [64]
000000 b0 b1 28 be be ac 04 bf fc bf 8f be 2a b9 87 be
       -0.16474032 -0.51826084 -0.2807616 -0.26508456
000010 8a 13 16 3e ed a7 36 3c 36 fc 5c 3e ec 2d 48 bd
       0.14655891 0.011148435 0.21580586 -0.04887192
000020 40 cd d9 bd 46 92 de bc ae ba ba be 25 d7 bc be
       -0.106348515 -0.027169358 -0.3647055 -0.36882892
000030 88 a1 06 be a2 eb 91 be ac aa 86 3e 33 a2 40 bd
       -0.13147557 -0.28500086 0.26302087 -0.047029685
000040 9a a0 87 3c f9 b6 5a be 4e 1a f7 3d 11 81 a8 be
       0.016556073 -0.21358861 0.12065564 -0.3291097
000050 64 80 42 be 16 ff 08 3d ba 78 2e be 95 ff 2c 3e
       -0.1899429 0.033446394 -0.17038241 0.16894372
000060 81 46 68 3e 22 cf 90 bd 27 fa 95 3c 02 c3 4b be
       0.22683145 -0.070707574 0.018307758 -0.19898608
000070 a0 a6 a4 be 2b 64 a4 3e 6c e9 71 be a7 b6 0a bc
       -0.32158375 0.32107672 -0.236242 -0.008466399
000080 0b 5a a2 be 75 76 ba be b2 3c b5 bd a5 56 3e be
       -0.31709322 -0.364185 -0.08849467 -0.1858774
000090 0a c6 56 be 19 81 3f bd d9 19 7e 3d 28 87 d5 3d
       -0.20973983 -0.046753976 0.06203637 0.1042617
0000a0 92 d6 83 bc e5 df c3 3d c2 dd da bd 1e db 90 be
       -0.016093526 0.09564189 -0.10686828 -0.28292173
0000b0 3b fb ef be 1b 2c f1 bd b7 0f 40 be d1 0e 92 3e
       -0.4687136 -0.117759906 -0.18755995 0.2852693
0000c0 ee 90 40 3e fc 91 c6 bd f8 81 e8 3d 98 7f 51 be
       0.18805286 -0.09695813 0.113529146 -0.2045883
0000d0 a1 5a e8 3d a4 e3 b9 bc fb 8c ea be 6e d4 9d be
       0.11345411 -0.022691555 -0.45810685 -0.30826133
0000e0 56 1e ea ba 3c b8 cd bd 9f a2 c5 3d 8c 8b 4b 3e
       -0.0017861824 -0.100449055 0.09650158 0.19877452
0000f0 0d b4 0b be 2e 87 db 3d 08 0a 56 bc 69 8b af 3e
       -0.13642903 0.10719143 -0.013063915 0.3428605

0.scale_net.network.2.weight f4 [64, 64]
000000 3b 16 f2 3d 91 ea 4b bc dc 24 6f bd db 06 f3 bd
       0.118206464 -0.012446062 -0.05838476 -0.11866542
000010 12 21 95 bd 7e e7 44 3d af 60 e3 bd 8a 48 7c bd
       -0.07281698 0.04807233 -0.11102425 -0.061592616
000020 b9 48 11 bd d7 c3 4d 3d 50 be 51 bc ce 9a d0 3d
       -0.035469744 0.050235596 -0.012801722 0.10185777
000030 88 bc 0b be 20 f8 60 3d 1a 7f 10 be ab bd 9b bd
       -0.13646138 0.05492413 -0.14110985 -0.07604536
000040 2f 12 7b 3d 54 9c 59 3d 9b 1f ea 3d 90 2b d4 3d
       0.061296638 0.0531276 0.114318095 0.103598714
000050 32 3a c6 bd 27 24 04 be 72 9c 8e bd 7f 30 2e 3f
       -0.096790686 -0.12904416 -0.06963433 0.6804275
000060 4e c7 0d 3e 1b 27 5b bd ca 3b 95 bf 3d 11 99 3d
       0.1384556 -0.05350409 -1.1658871 0.07473991
000070 54 71 4b 3f db 9d 8b be 2c 10 54 be e7 02 49 bd
       0.794698 -0.27268872 -0.20709294 -0.049075034
000080 b8 a4 ad bc 14 35 82 bd 07 95 1e 3e 9a 0e e8 bd
       -0.021196708 -0.0635778 0.15486537 -0.1133091
000090 90 82 06 3d d8 5a c9 3d bd 20 5b 3d da 9c 01 be
       0.032839358 0.0983178 0.05349802 -0.1265749
0000a0 7b 40 82 be ff 51 fa 3d 36 4d 14 3d bd 5a 31 be
       -0.2543982 0.12222671 0.036206447 -0.1731977
0000b0 57 bc 88 3d 40 e6 29 be bd 19 65 3c 9b b5 ab bd
       0.06676548 -0.1659174 0.013983187 -0.08384248
0000c0 9c 12 89 3d f0 f5 48 bd 93 df 2f be e3 2e d9 bc
       0.066930026 -0.04906267 -0.1717513 -0.026511615
0000d0 b0 2c 03 bd af 97 9f bd 2a bc 2a bd b4 e4 b1 3d
       -0.03202504 -0.07792603 -0.041683353 0.086862
0000e0 21 70 3f 3e c0 0a 3f 3c a4 19 2f 3d 1c 0d 60 3c
       0.18695118 0.011660278 0.042749062 0.0136750005
0000f0 31 b3 72 bc 07 a5 43 bd 00 9c 93 bd 38 c4 29 be
       -0.01481323 -0.047764804 -0.07207489 -0.16578758
000100 e5 fc fb bd 1e b0 54 bd c0 7b 60 3d 9b 22 ba bb
       -0.12304095 -0.05192577 0.054805517 -0.005680395
000110 c1 f3 cd bd 76 1e 5b bd 33 44 1e 3e 70 46 c7 bd
       -0.10056258 -0.053495847 0.15455703 -0.09730232
000120 d3 0e 97 3b fc 7c 9e 3c 78 e0 d3 bc 80 79 e1 3b
       0.0046099215 0.019346707 -0.025863871 0.006880939
000130 4b 67 84 3c 11 e2 07 3f ca e6 a6 3e 54 9f 00 bd
       0.016162535 0.53079325 0.32597953 -0.031401947
000140 46 4f 9a bd 44 5a c7 bd f7 f3 b3 bd 8c 9a 3f 3d
       -0.075346515 -0.09734014 -0.08786767 0.046778247
000150 48 fc 2f 3c 95 65 12 3e 0f 17 87 3d fb 5b e3 3e
       0.010741301 0.14296563 0.06596195 0.44406113
000160 20 1e 2a 3e ef 8e b6 3d 3c 2a ae bb 3f f5 a7 3c
       0.16613054 0.08913981 -0.0053150933 0.020502685
000170 6c 1a 8c 3e 53 f3 97 3e a9 be 16 bc 7f 1b 61 bd
       0.27363908 0.2967783 -0.00920073 -0.054957863
000180 ec 6d f8 3d 50 66 83 bd 96 c9 a2 3d 72 2b d8 3d
       0.12130341 -0.06415999 0.07948606 0.105551615
000190 b4 a5 aa 3d 11 ee b9 bc de 4e 90 3c e5 2a 42 bd
       0.083323866 -0.022696527 0.017615732 -0.04740419
0001a0 af da 13 3e c6 68 6d bd 72 94 8a 3d 7c 3b 6b 3d
       0.1443889 -0.057961248 0.06766595 0.057429776
0001b0 5d ca a0 bd 78 ba fc 3d 78 63 03 bf 80 20 81 3e
       -0.07851098 0.123402536 -0.5132365 0.25220108
0001c0 b2 0b 02 3e 9d 5e 1a be a2 c7 ef 3d f2 b3 f4 bc
       0.12699774 -0.15075155 0.11707999 -0.02987096
0001d0 d2 67 b5 3c 5a 31 2e bd 1a 97 9b bd c0 c1 ff 3b
       0.022144232 -0.042527534 -0.0759718 0.007805079
0001e0 a9 b2 1e bd 94 5b ba 3d 54 56 b5 3d 56 5a fa 3d
       -0.038744602 0.090994984 0.088543564 0.122242615
0001f0 55 a6 a5 bc 2f 11 2a 3e e5 56 26 be a2 dd a9 3e
       -0.020220915 0.16608118 -0.16244085 0.33176905
000200 9a e9 ca bd 1b f0 3f 3d 68 e6 39 bd 0e a9 b0 bd
       -0.09907837 0.04685984 -0.04538575 -0.086259946
000210 9c f1 9f 3d a5 74 84 3d 47 bd 11 be fb 75 97 3d
       0.07809755 0.06467561 -0.1423236 0.0739555
000220 ee 3d ea bd c7 f3 b2 3d 38 70 7f bd dc 6d 26 3d
       -0.114375934 0.08737903 -0.06236288 0.040632114
000230 6f 1c af 3d b4 a8 8c 3d 01 b5 c8 3c 5f 75 de bd
       0.08550345 0.06868115 0.024500372 -0.108622305
000240 c3 5e e3 bd 36 c2 c9 bd 58 ab a4 3d 7c 02 5c 3d
       -0.11102059 -0.09851496 0.08040494 0.053713307
000250 ad ee 13 3d 22 91 b2 bd fc 3c 11 be a0 bb e2 3d
       0.03611629 -0.08719088 -0.1418342 0.11070943
000260 79 c8 ef bd 3e 52 15 bc 6b 0a 86 be 9a e2 cb bd
       -0.11708159 -0.009113846 -0.26179823 -0.0995533
000270 8d fe 25 bd 21 4c 0b 3d 76 70 12 be 65 3b a0 3d
       -0.04052596 0.03400815 -0.14300713 0.078238286
000280 e4 60 7f bd 40 8f 94 3c 52 b6 76 bd 8a 36 bc bd
       -0.06234826 0.018134713 -0.060232468 -0.0919009
000290 5a 11 80 3d cd 6b 8e bb 34 d6 f5 bd c0 b9 db bd
       0.062533095 -0.004346347 -0.12003747 -0.107287884
0002a0 c0 36 26 3b 2c 51 ac bd ac 56 9f bd b0 58 d7 bc
       0.0025362223 -0.0841392 -0.07780203 -0.026287407
0002b0 ce c6 b8 3d 55 12 1e be da 00 0e be 2a 57 2f bb
       0.09022294 -0.1543668 -0.13867512 -0.0026754835
0002c0 74 4f d2 bd 1b 40 ea 3d 18 b0 97 bd 07 a2 87 3d
       -0.10269061 0.114380084 -0.07406634 0.06622701
0002d0 50 62 01 3d 75 dc bd 3d a8 1e 05 bd f0 d1 87 3d
       0.0315879 0.092705645 -0.03249994 0.06631839
0002e0 e5 1f fb bd 1c 5d 2f bd 8e ee 2a bd cb bb 9b bd
       -0.12261943 -0.042813405 -0.04173141 -0.07604178
0002f0 18 bb 63 bc 61 01 a1 bd 1c 42 9b 3d eb cd 93 bd
       -0.013899587 -0.07861591 0.07580969 -0.0721701
000300 2e 8d 36 be ca 4a d8 bc a4 4a 52 bd b3 1d b5 3b
       -0.17827293 -0.02640285 -0.051340714 0.005527222
000310 21 5f 4b bf 84 88 82 be b6 59 43 3e 16 df 16 be
       -0.7944203 -0.25494778 0.19077191 -0.14733538
000320 8f ff 46 3e 7d d8 8f 3c 86 30 d0 bd 78 db fd 3d
       0.19433425 0.017559284 -0.10165505 0.12395376
000330 ed 97 3d 3d da 5c cc bd 43 8a 16 3e 98 5a 64 3c
       0.046287466 -0.099786475 0.1470118 0.013937615
000340 3d fb 9e 3c 58 48 ad bd 4e ba 83 bc 8c 30 62 3d
       0.01940691 -0.08461064 -0.016080048 0.05522208
000350 47 df df 3d 1b df e3 3d f0 4c d3 bb d6 c5 83 3e
       0.10931259 0.11126538 -0.0064483806 0.25736874
000360 17 99 36 bd 9d d4 28 be 81 2c ac 3e e8 09 ec bd
       -0.04457959 -0.16487356 0.33627704 -0.11525327
000370 d7 13 84 bf d2 39 09 3e 67 c2 08 3d 8d 3f 60 3d
       -1.0318555 0.13400963 0.03338852 0.054748107
000380 20 88 dc bd 60 88 e7 bc 7a ec 4c be e7 24 fe bf
       -0.10768151 -0.02826327 -0.20012084 -1.9855012
000390 f0 3d f7 3d 35 f1 f1 3d a3 14 ec 3d 81 a7 87 3d
       0.120723605 0.11813585 0.11527374 0.06623746
0003a0 bc 7e 82 bb e3 61 fb 3d e7 16 a3 bc 1a 71 e8 bd
       -0.003982393 0.1227453 -0.019908382 -0.113496974
0003b0 00 4e 33 3c 9e 9a a1 bf 49 0b e3 be 2a c3 9b bc
       0.01094389 -1.262531 -0.44344547 -0.01901396
0003c0 2e af 0f 3e 2b 26 0c bd ca da 6a 3d 4d a1 26 bd
       0.1403167 -0.034216087 0.05733756 -0.040681172
0003d0 6e 55 00 bc e4 30 00 bd 48 30 ba 3c 92 2f a5 bd
       -0.007832868 -0.031296626 0.0227281 -0.08065714
0003e0 a1 15 99 bd 20 97 b7 3c b1 59 58 be cb 4a 33 bd
       -0.074748285 0.02241093 -0.21127965 -0.0437725
0003f0 f2 6b 61 bb 1a b4 b1 3b 16 2a 29 3e 85 08 8e 3d
       -0.0034396616 0.005423081 0.16519961 0.06935219

0.scale_net.network.2.bias f4 [64]
000000 af 0c c5 3d 07 31 27 3e b8 5b 59 bd 3a 85 4b 3d
       0.0962156 0.16327296 -0.053065985 0.0496876
000010 e9 ba 34 39 92 f7 08 be 48 9d ea bc 8f 0d e6 bd
       0.00017235767 -0.1337569 -0.02863945 -0.11233055
000020 76 45 8b 3c 92 73 8f bd 13 ad dd 3d 62 df f0 bd
       0.017000895 -0.07004465 0.10824027 -0.11761357
000030 b7 61 67 3d d2 42 8c be f2 c8 46 3c 60 c9 0f be
       0.056489673 -0.2739473 0.01213287 -0.14041662
000040 7b 80 f0 3c 8d 32 0e be 32 07 5a be cd 60 63 3c
       0.02935814 -0.13886471 -0.21291807 0.01387806
000050 1d 72 47 be 01 dc 83 3c 6e 5e 9c bd ee 66 8e bd
       -0.19477125 0.016096117 -0.076351985 -0.06953226
000060 4a 44 91 bd 98 f8 98 bd 74 2c 62 bd 1c 72 36 be
       -0.07093103 -0.074692905 -0.055218175 -0.17816967
000070 cb 33 6c bd 5c 4b f0 3d a3 85 22 3d e5 42 83 bd
       -0.05766658 0.11733124 0.039678227 -0.064092435
000080 08 fa 91 bd cd fd 11 bd 86 d4 98 bd ed 65 fc bd
       -0.07127768 -0.035642434 -0.07462411 -0.12324128
000090 92 69 b5 bc a5 50 97 bc 13 d9 1f be 4d 48 aa bd
       -0.022145066 -0.018471071 -0.15610151 -0.083145715
0000a0 ce da 33 3d 66 0b 95 bd f9 f6 dc bc 5a 8c f9 bd
       0.04390984 -0.07277565 -0.026973234 -0.12184973
0000b0 ad 00 63 3c e6 39 21 bd ce 33 ca bd 7c fe b3 3c
       0.013855142 -0.039361857 -0.09873162 0.021971934
0000c0 45 b4 bb bb 8d 2d f7 bb ed f5 1b be 77 be 4b bd
       -0.005728277 -0.007543272 -0.15230532 -0.04974219
0000d0 0a 61 e5 bd 75 22 7f ba c5 2b 3d 3c fb 23 f4 bc
       -0.11200149 -0.00097326125 0.01154608 -0.029802313
0000e0 92 70 f7 bd ae 77 d5 bc 64 7e 6a be 26 d9 51 be
       -0.12082018 -0.026058044 -0.22899777 -0.20492992
0000f0 c6 45 f4 bd c8 be b7 3d 3b 5e 9b 3d b6 fc 4c bd
       -0.11927371 0.089719355 0.075863324 -0.05004569

0.scale_net.network.4.weight f4 [64, 64]
000000 33 fc 47 be 59 8f 0d bd ae 2c 98 3c 1c 38 b4 bd
       -0.195298 -0.034560535 0.018575992 -0.087997645
000010 08 a6 91 3d 41 c6 2c bd 3e 0d a5 3d d4 fd e6 bd
       0.07111746 -0.042181257 0.08059166 -0.112788826
000020 3c 00 10 be 69 16 0d 3d 84 2f 29 bd a0 36 f3 3b
       -0.1406259 0.0344452 -0.04130508 0.0074222833
000030 7c 6e dd bd ec f1 23 3d 67 c3 43 be 96 b5 15 be
       -0.10812089 0.040025637 -0.19117509 -0.14620051
000040 4b bf bf bd ed b8 e2 bd 26 03 83 bd f8 b4 32 3e
       -0.09362658 -0.11070428 -0.06397085 0.17451847
000050 a2 3d f2 bd e5 33 11 3d 5c 46 cb bd 3f 09 a4 bd
       -0.11828162 0.03544988 -0.09925529 -0.08009576
000060 70 f6 7b 3c c7 1a eb bb 9c a7 1f bd a0 98 7f 3d
       0.0153785795 -0.007174823 -0.038978204 0.062401414
000070 49 74 73 3d 23 c7 90 3d 39 8f 41 3d b3 ce 96 bd
       0.05943707 0.07069232 0.04725573 -0.073636435
000080 be 54 2b 3c 4d a4 bb bb 4e 07 ce 3d 0d 32 98 bc
       0.010457216 -0.0057263733 0.10059987 -0.018578554
000090 b7 9c 9f bd 97 9c 96 bc 62 21 28 be 6f 64 0e 3b
       -0.07793563 -0.018385215 -0.16418985 0.0021727344
0000a0 65 1f 35 be 94 ef 36 bd df 6e 93 bc d8 60 18 3d
       -0.17687757 -0.044662073 -0.017997203 0.037201732
0000b0 55 da 90 39 be ad f7 bb b6 b8 d2 bd 00 8b 97 3d
       0.0002762849 -0.0075585535 -0.10289137 0.07399559
0000c0 ea 2b 05 3d fa a2 37 be 0a 2a 9a 3d 9b 74 09 be
       0.032512583 -0.17933264 0.075275496 -0.13423388
0000d0 04 0d 37 3d cc 9e 32 be 06 bd 49 bd 12 39 99 bd
       0.044690147 -0.17443389 -0.049252532 -0.074815884
0000e0 b4 54 9c bd 9b 85 ef 36 af 4a fd bd 98 15 89 3c
       -0.07633343 7.138309e-06 -0.123677604 0.01673393
0000f0 84 52 fb 3d 29 54 3e bd b3 e3 b8 bc 5e 4d 83 3d
       0.12271598 -0.04646698 -0.022569513 0.06411241
000100 0c 4d 61 3d 05 55 9c bc 00 70 94 bd 9f a8 25 bd
       0.05500512 -0.01908351 -0.07247925 -0.040444013
000110 53 17 d3 3b 86 3a 9d 3d 15 3e cd 3d 00 7c 46 39
       0.0064419894 0.07677178 0.10021607 0.00018928945
000120 27 3d 68 bd ce d9 05 bd c4 72 5c bd 04 da a9 bd
       -0.056698944 -0.032678418 -0.053820387 -0.08293536
000130 e6 d0 8d bd 70 85 be bc 08 7a c9 bd c0 68 4c 3c
       -0.0692461 -0.023256987 -0.09837729 0.012476146
000140 f0 36 2f 3d ea 70 92 3d 20 2d 9b 3d 82 06 c0 bd
       0.042777 0.07150443 0.07576966 -0.09376241
000150 0e 52 42 bd 56 75 f8 3d 86 e6 cb 3d df 2f ad bd
       -0.047441535 0.12131755 0.09956078 -0.08456396
000160 ce e9 d2 3d 88 1d a6 3d 66 f2 a1 bd 58 9d aa bd
       0.10298501 0.081111014 -0.07907562 -0.08330792
000170 38 03 07 bd 12 69 ee 3d 88 e5 c5 bc ea e0 22 bd
       -0.032962054 0.11641134 -0.0241573 -0.039765276
000180 40 25 32 3b a2 f6 e5 bd de 23 a5 3d 94 3f 82 3e
       0.0027182847 -0.11228682 0.08063482 0.2543913
000190 98 5f 9c 3d 0a 25 8b 3d 88 61 ee 3c 3a 8c 88 bd
       0.076354206 0.06794174 0.02909924 -0.06667371
0001a0 5f 32 ab 3d e4 70 d4 3d df f8 20 bd da 76 94 bd
       0.08359217 0.10373095 -0.039299842 -0.07249232
0001b0 04 c2 63 3d ec c6 0b bd c8 bf 64 bd e1 e1 bf 3d
       0.05560495 -0.034125254 -0.05584696 0.09369255
0001c0 3a ba da bd 1d b2 0e bd a8 f3 ac 3d 8d 7c ae bd
       -0.10680051 -0.03483783 0.08444911 -0.0851985
0001d0 78 0b b4 bc 40 8e 61 bd 93 a3 d4 bd f4 5e 48 bc
       -0.021978125 -0.0550673 -0.10382762 -0.01222967
0001e0 2c 84 d4 bd 40 33 66 3c c1 b1 3e bc d0 2b cc bd
       -0.10376772 0.014050305 -0.0116390595 -0.09969294
0001f0 9c 02 5f bd 9d 10 1e bd 1a 9c de 3d 30 af 81 3d
       -0.054445848 -0.038590062 0.10869618 0.063322425
000200 a0 c1 e5 bb 08 d2 6c 3d e2 7a e9 bd f6 10 e3 bd
       -0.0070116073 0.05781749 -0.11400391 -0.110872194
000210 8e 40 84 3d c0 fe c4 3c 70 38 1e bd 80 c2 a2 ba
       0.06457625 0.024047256 -0.03862804 -0.0012417585
000220 38 cf d8 bd e8 29 d5 bd 58 f7 d4 3c 94 3b c0 bd
       -0.10586399 -0.104083836 0.025996849 -0.093863636
000230 5e 70 96 3d 94 fe fd 3d 00 c7 70 3a 60 ad 06 3c
       0.07345651 0.124020725 0.0009184927 0.008220047
000240 98 01 03 3d a0 f8 d5 3c 80 7c 65 3b 40 b1 26 bd
       0.03198394 0.02611953 0.0035016835 -0.040696383
000250 20 9b ab 3b 10 7f ea bc e4 73 bf 3d 24 02 ef 3d
       0.005236998 -0.028625041 0.09348276 0.1167033
000260 ea eb cc bd 68 6a ff bd 82 5e b8 bd 04 35 c4 bd
       -0.100059345 -0.12471467 -0.09002401 -0.095804244
000270 2c 35 3a bd 74 b6 97 bd 66 ec db bd aa 7a 9f bd
       -0.045460865 -0.07407847 -0.10738449 -0.07787068
000280 ac c8 15 3d b4 02 5f 3d 8a 3d cf 3d 6c 6f e3 3d
       0.03656833 0.054445937 0.101191595 0.111052364
000290 e6 62 e1 bd 24 7f 95 bd 88 00 dd bc 4e 58 97 bd
       -0.110051915 -0.07299641 -0.026977792 -0.0738989
0002a0 0e e4 f9 bd 5c f6 15 bd 00 06 41 3a 2c ec c8 bd
       -0.12201701 -0.0366119 0.000736326 -0.09810671
0002b0 fc 0c 8e bd 8e 44 a4 3d fe f8 f3 bd d0 f9 26 3d
       -0.0693607 0.08020888 -0.11912726 0.040765584
0002c0 70 37 b0 3d 1a c6 a0 bd dc af 82 3d 20 bc 03 bd
       0.08604324 -0.07850285 0.06381199 -0.03216183
0002d0 74 05 ee 3d 1a d8 b5 bd 1e 4a b3 bd 18 06 8e 3c
       0.11622134 -0.08879109 -0.08754371 0.01733689
0002e0 52 d0 80 bd b4 6d 3c 3d 08 b7 cc 3d e8 ac bd 3d
       -0.06289734 0.04600306 0.09995848 0.09261495
0002f0 d0 ed 4d bd 7a 17 a3 bd 26 cf a2 3d fe 8c c0 bd
       -0.050275624 -0.07963462 0.07949667 -0.09401892
000300 62 56 8a bd 0f af 8f bd 16 3c c6 3d 33 89 42 bd
       -0.067547575 -0.07015812 0.09679429 -0.047494125
000310 25 e2 ac bc 7a 59 ab 3d 48 81 d6 bd bc 92 0c be
       -0.021103928 0.08366676 -0.10473877 -0.1372785
000320 23 e0 0a be 96 c2 44 be a5 f1 d1 3c 1c b2 c0 3d
       -0.13562064 -0.19214854 0.02562792 0.09408972
000330 fd ca 25 bd 1a 7b c4 bd fb b1 06 be 5a d5 82 3c
       -0.040476788 -0.09593792 -0.13153832 0.015970875
000340 4c 11 c8 bd 05 f2 fa ba b8 72 7f bd fd 5a 18 be
       -0.09768924 -0.0019145614 -0.062365264 -0.1487846
000350 d0 20 e0 3d f9 9f 1a be 40 16 73 bc c2 2e 18 bd
       0.109437585 -0.15100087 -0.014836848 -0.037153967
000360 68 b9 6f bd 2d bb 0a bd 9c fd d5 3d 20 a6 ff bc
       -0.058526427 -0.03386991 0.10448763 -0.031207144
000370 65 7e 30 3e 01 52 f8 bd 4b b3 00 3d 2d 60 36 bd
       0.17235716 -0.12125016 0.031420987 -0.044525314
000380 d8 1b e8 bc 72 33 35 be 70 d4 27 bd 68 bd 22 be
       -0.02833359 -0.17695406 -0.04097408 -0.15892565
000390 fe da 74 3d 25 fd 46 bc d3 ae 88 3d 8c 44 9c 3d
       0.05977916 -0.012145315 0.0667397 0.07630262
0003a0 a4 59 47 be 62 3a 19 3c 94 37 1b bc 30 6c 4a 3c
       -0.19467789 0.009352298 -0.0094737 0.0123548955
0003b0 67 e2 ca 3d 54 dc c7 3d 81 a4 23 be dd e0 e6 3c
       0.09906464 0.09758821 -0.15980722 0.028183395
0003c0 5e 2c a9 bd 02 fb 4e bc dc da 2c 3d 1c 0e 0e 3d
       -0.082604155 -0.012633087 0.042200908 0.034681424
0003d0 04 a6 38 3d f9 47 21 be e9 fb 26 be da 37 64 be
       0.0450802 -0.15750112 -0.16307034 -0.2228693
0003e0 28 bc f9 bd 4d 5f 31 bd 58 1d fa bd 88 f9 d2 bd
       -0.12194091 -0.043303777 -0.12212628 -0.103015006
0003f0 d8 6e 48 bd 04 b0 64 be ef c0 27 be e4 b9 8c 3d
       -0.048933834 -0.2233277 -0.16382192 0.06871393

0.scale_net.network.4.bias f4 [64]
000000 2f f9 27 3c 7a f7 c8 bd 5c d8 fd bd ad f5 ee bd
       0.010252281 -0.098128274 -0.12394783 -0.11667953
000010 5e ea 30 be d2 3a 08 be 24 ac b3 bd b0 02 a0 bd
       -0.17276904 -0.13303688 -0.087730676 -0.078130126
000020 a2 3a 3d be 60 25 32 be b3 25 90 bd be e7 22 3d
       -0.18479398 -0.1739707 -0.070384406 0.039771788
000030 69 26 dc bd e8 61 ff bd c4 b3 93 3c 50 5c 8c bd
       -0.10749514 -0.12469846 0.018030055 -0.06853545
000040 fd 0b d7 bd 12 6c d0 bd c7 7d c4 bd 5f bd 61 3d
       -0.105003335 -0.10176863 -0.095943026 0.05511224
000050 db e7 1a bd b2 78 33 be 38 e3 68 bd 17 ff d4 bd
       -0.03781877 -0.1752651 -0.056857318 -0.10400217
000060 d1 0c 03 be e1 26 81 3c 3c 0c 6c bd 8f 52 f6 bd
       -0.12797858 0.01576561 -0.057628855 -0.120274656
000070 53 90 1e be 73 c6 37 be ab e7 43 be 4b 1c 99 bd
       -0.15484743 -0.17946796 -0.19131343 -0.074760996
000080 59 6b 06 3d 41 9b 82 bd 59 87 19 bc 4d 05 a4 bd
       0.03281722 -0.063772686 -0.009370648 -0.080088235
000090 40 54 cc bc f1 2a 23 3d ce 5d 30 3d 3d 6b c9 3b
       -0.024942517 0.039835874 0.04305821 0.006146817
0000a0 f3 1e e9 bc 41 1b 12 3a 6c 4f 54 bd 1d ff d1 3b
       -0.02845714 0.0005573519 -0.051833555 0.0064085857
0000b0 12 d2 58 3c 76 3b 30 bd 37 cc 64 bd b7 a7 b1 bd
       0.013233678 -0.043025456 -0.055858817 -0.08674567
0000c0 a9 24 a2 bd 5e 51 8b bc f4 6e c6 bd 99 eb d3 bb
       -0.079171486 -0.017006572 -0.096891314 -0.0064672944
0000d0 05 62 ea bc 8e b7 d6 3b dd f9 44 bd 36 02 17 be
       -0.028611192 0.006552643 -0.04808985 -0.14746937
0000e0 75 c3 70 be 7e 9f 36 bd 80 88 31 be 20 f1 f8 bc
       -0.23512061 -0.044585697 -0.17337227 -0.030388415
0000f0 15 9c 32 bd c4 78 75 bc 1d b6 05 3d 3c 5a 35 bc
       -0.043605883 -0.014982406 0.03264438 -0.011068877

0.scale_net.network.6.weight f4 [6, 64]
000000 c7 e9 68 3d 0f 8a 26 bd 00 00 00 00 4f 46 49 3b
       0.056863572 -0.040659007 0.0 0.0030712073
000010 78 e7 93 bd db a5 9d bc 00 00 00 00 00 00 00 00
       -0.072218835 -0.019244125 0.0 0.0
000020 f3 92 2a 3c ba 96 5c bc 8b 7f 5a bd 92 d2 3a 3e
       0.010411012 -0.01346367 -0.05334429 0.18244389
000030 00 cb b5 39 b8 a4 af bc 5d 12 13 3e 30 83 a5 3d
       0.00034674257 -0.021440849 0.14362474 0.08081663
000040 a0 18 2b 3d 00 00 00 00 d3 67 6d 3d 3a f6 a3 3e
       0.04177153 0.0 0.057960343 0.32023793
000050 3c 72 b3 3d e4 5a 9d bc a1 1d 2d be 00 55 4a 3d
       0.08762023 -0.01920838 -0.16905834 0.04939747
000060 4d df 90 3b 19 2f fc 3d 38 c1 f2 bb 44 da c4 bc
       0.004421151 0.12313671 -0.0074082874 -0.024029858
000070 3b 5c c0 bc dd a5 6b 3c 86 2a 97 bd fc 25 d6 3b
       -0.023481479 0.014382807 -0.073811576 0.00653529
000080 6b 41 9c 3e 1c 9c f4 3c f5 7d cf bc fd 29 99 3b
       0.3051866 0.029859595 -0.025328616 0.004674195
000090 4f b4 f2 3c c7 9b 2c 3c a0 c2 80 3e c2 d9 83 3d
       0.029626993 0.010535187 0.25148487 0.064380184
0000a0 f8 c2 85 3d 77 1a df 3c 2c 4b f3 3c 3c 0f 8e 3e
       0.06531328 0.0272343 0.02969893 0.27745998
0000b0 12 a1 2e 3d eb 47 73 3e 61 92 10 bd 4d ca 3c bd
       0.042634077 0.23757903 -0.035295848 -0.046091367
0000c0 df a4 4f 3d 2f 24 a2 3d 00 00 00 00 0d c7 8d 3e
       0.050694343 0.07917058 0.0 0.27690926
0000d0 1e 3a 47 bc e8 0a 65 bc 43 c9 2f bc 45 86 49 bd
       -0.012159852 -0.013979651 -0.010729137 -0.049200315
0000e0 8b 63 18 bd 46 ab ae 3d 21 6f 01 be 00 00 00 00
       -0.037204307 0.085287616 -0.12640049 0.0
0000f0 3a d0 d6 bc 66 b6 d0 bc 28 0d 8d bb 32 8c 86 3d
       -0.026222337 -0.0254776 -0.004304547 0.06569709
000100 00 00 00 00 00 00 00 00 00 00 00 00 00 00 00 00
       0.0 0.0 0.0 0.0
000110 00 00 00 00 00 00 00 00 00 00 00 00 00 00 00 00
       0.0 0.0 0.0 0.0
000120 00 00 00 00 00 00 00 00 00 00 00 00 00 00 00 00
       0.0 0.0 0.0 0.0
000130 00 00 00 00 00 00 00 00 00 00 00 00 00 00 00 00
       0.0 0.0 0.0 0.0
000140 00 00 00 00 00 00 00 00 00 00 00 00 00 00 00 00
       0.0 0.0 0.0 0.0
000150 00 00 00 00 00 00 00 00 00 00 00 00 00 00 00 00
       0.0 0.0 0.0 0.0
000160 00 00 00 00 00 00 00 00 00 00 00 00 00 00 00 00
       0.0 0.0 0.0 0.0
000170 00 00 00 00 00 00 00 00 00 00 00 00 00 00 00 00
       0.0 0.0 0.0 0.0
000180 00 00 00 00 00 00 00 00 00 00 00 00 00 00 00 00
       0.0 0.0 0.0 0.0
000190 00 00 00 00 00 00 00 00 00 00 00 00 00 00 00 00
       0.0 0.0 0.0 0.0
0001a0 00 00 00 00 00 00 00 00 00 00 00 00 00 00 00 00
       0.0 0.0 0.0 0.0
0001b0 00 00 00 00 00 00 00 00 00 00 00 00 00 00 00 00
       0.0 0.0 0.0 0.0
0001c0 00 00 00 00 00 00 00 00 00 00 00 00 00 00 00 00
       0.0 0.0 0.0 0.0
0001d0 00 00 00 00 00 00 00 00 00 00 00 00 00 00 00 00
       0.0 0.0 0.0 0.0
0001e0 00 00 00 00 00 00 00 00 00 00 00 00 00 00 00 00
       0.0 0.0 0.0 0.0
0001f0 00 00 00 00 00 00 00 00 00 00 00 00 00 00 00 00
       0.0 0.0 0.0 0.0
000200 a7 98 03 bb 42 14 cd 3b 00 00 00 00 3b 9d 88 3c
       -0.0020080002 0.0062585184 0.0 0.016676536
000210 3b 1f 10 3d 5b 57 1a 3c 00 00 00 00 00 00 00 00
       0.035186034 0.009420241 0.0 0.0
000220 ad 77 22 bc b7 8b 44 3c 2b fa 63 3d 51 c2 a0 3d
       -0.009916228 0.011996201 0.0556585 0.07849563
000230 48 86 c7 3c cb d0 06 3c e5 1e b7 3d 13 c6 49 bd
       0.024356022 0.008228491 0.089414395 -0.049261164
000240 b2 9b a0 3d 00 00 00 00 6d 3a c0 3d 77 e5 0f 3d
       0.078421965 0.0 0.09386144 0.035130944
000250 9d 84 7c bc 36 a5 e6 bb 63 28 14 bd 1d ea c3 bc
       -0.015412477 -0.0070387376 -0.03617133 -0.023915345
000260 cd cf 32 3d e4 e2 b4 bc 5e 7d 57 bd a2 82 1d bd
       0.043655206 -0.022080846 -0.052609794 -0.03845466
000270 db f4 f8 bc 59 7a 18 3d 69 ff 07 bd 5d f7 b0 bb
       -0.030390194 0.037226055 -0.033202562 -0.0054005818
000280 62 d3 6a 3d 62 ca 89 3d 66 c1 dd bc b0 51 07 3d
       0.057330497 0.067280546 -0.027069759 0.033036888
000290 26 33 fa 3a 93 86 ca bc 48 a5 c4 3c de ba 0b bc
       0.001908873 -0.024722373 0.024004593 -0.008528439
0002a0 b2 a9 1d bc c2 54 b8 bb ce 40 3d 3d 85 0f 8a 3d
       -0.009622978 -0.0056253383 0.04620438 0.06741241
0002b0 9b dc b5 bc 42 94 e0 3d bb 26 bb bc a8 a0 5e bd
       -0.02219992 0.10965778 -0.022845617 -0.054352432
0002c0 18 94 98 3d db ec bb 3b 00 00 00 00 70 2a 92 ba
       0.07450122 0.0057350225 0.0 -0.0011151563
0002d0 17 03 da bc 54 7e 1c bd 67 aa 75 bc d4 02 60 3c
       -0.026612801 -0.038206413 -0.01499424 0.013672549
0002e0 d6 43 08 3d f8 0b c6 3c 2b d8 42 3e 00 00 00 00
       0.03326782 0.024175629 0.19027774 0.0
0002f0 8d 86 a8 bc 85 a8 8c bc 7b a2 2d bc 47 b9 fe bc
       -0.020571971 -0.0171702 -0.01059782 -0.031094206
000300 00 00 00 00 00 00 00 00 00 00 00 00 00 00 00 00
       0.0 0.0 0.0 0.0
000310 00 00 00 00 00 00 00 00 00 00 00 00 00 00 00 00
       0.0 0.0 0.0 0.0
000320 00 00 00 00 00 00 00 00 00 00 00 00 00 00 00 00
       0.0 0.0 0.0 0.0
000330 00 00 00 00 00 00 00 00 00 00 00 00 00 00 00 00
       0.0 0.0 0.0 0.0
000340 00 00 00 00 00 00 00 00 00 00 00 00 00 00 00 00
       0.0 0.0 0.0 0.0
000350 00 00 00 00 00 00 00 00 00 00 00 00 00 00 00 00
       0.0 0.0 0.0 0.0
000360 00 00 00 00 00 00 00 00 00 00 00 00 00 00 00 00
       0.0 0.0 0.0 0.0
000370 00 00 00 00 00 00 00 00 00 00 00 00 00 00 00 00
       0.0 0.0 0.0 0.0
000380 00 00 00 00 00 00 00 00 00 00 00 00 00 00 00 00
       0.0 0.0 0.0 0.0
000390 00 00 00 00 00 00 00 00 00 00 00 00 00 00 00 00
       0.0 0.0 0.0 0.0
0003a0 00 00 00 00 00 00 00 00 00 00 00 00 00 00 00 00
       0.0 0.0 0.0 0.0
0003b0 00 00 00 00 00 00 00 00 00 00 00 00 00 00 00 00
       0.0 0.0 0.0 0.0
0003c0 00 00 00 00 00 00 00 00 00 00 00 00 00 00 00 00
       0.0 0.0 0.0 0.0
0003d0 00 00 00 00 00 00 00 00 00 00 00 00 00 00 00 00
       0.0 0.0 0.0 0.0
0003e0 00 00 00 00 00 00 00 00 00 00 00 00 00 00 00 00
       0.0 0.0 0.0 0.0
0003f0 00 00 00 00 00 00 00 00 00 00 00 00 00 00 00 00
       0.0 0.0 0.0 0.0

0.scale_net.network.6.bias f4 [6]
000000 e7 e7 72 be 00 00 00 00 02 da 49 bc 00 00 00 00
       -0.23721276 0.0 -0.0123200435 0.0
000010 7e 59 81 bd 00 00 00 00
       -0.063158974 0.0

0.translate_net.network.0.weight f4 [64, 6]
000000 80 63 4c 3c b0 cc 26 be b8 e7 87 bd 4c e1 31 3e
       0.0124748945 -0.1628902 -0.06635994 0.173711
000010 e2 28 81 be 3e 52 87 3e 57 1a 88 be 04 da e9 be
       -0.25226504 0.26429933 -0.26582596 -0.45674145
000020 78 36 2b 3e 16 4a 88 be db 39 40 be ba 7f 02 3e
       0.16719997 -0.26619023 -0.1877207 0.12744036
000030 30 9c c7 3e e2 c0 79 be 70 58 a0 3c a0 14 a6 be
       0.3898635 -0.24389985 0.01957342 -0.3243761
000040 24 93 0d 3e 04 0e 6a 3d 48 58 cf 3d e9 c1 95 be
       0.13825661 0.057142273 0.1012426 -0.29249504
000050 74 a6 bb 3d bc 97 97 3d 08 14 86 bd 88 8e 7c 3d
       0.09162608 0.07401988 -0.065467894 0.061659366
000060 56 bc 90 be f6 23 37 bd 3c 54 c7 bd 98 2b 29 3d
       -0.2826869 -0.04471203 -0.09732863 0.04130134
000070 e0 81 30 3e dc d8 8b 3d 10 a8 a5 be 17 58 fa bc
       0.17237043 0.06828472 -0.32354784 -0.030559583
000080 4e 33 c1 3e bc 88 40 be ae f4 ba be 51 32 04 be
       0.37734455 -0.1880216 -0.365148 -0.12909819
000090 58 58 0e be f3 04 b1 3e 06 da 99 3e 50 d7 db 3d
       -0.13900888 0.34574088 0.3004915 0.10734427
0000a0 5f c9 9c be 64 44 9e 3e f8 f0 bd be 34 22 b4 3d
       -0.30622384 0.30911553 -0.37097907 0.08795586
0000b0 77 6f a6 be 71 2f 4a be b8 f4 62 3d 33 58 79 bd
       -0.32506916 -0.1974466 0.055409163 -0.06087513
0000c0 20 24 91 3d b4 68 a6 be b3 66 b2 be 3a 4f 2d be
       0.070869684 -0.32501757 -0.34843978 -0.16924754
0000d0 80 26 e0 bb 35 15 31 be d8 ca b8 3d 94 77 73 bf
       -0.006840527 -0.17293246 0.090230644 -0.95104337
0000e0 b0 6c f0 bd 3a e4 cc 3e e8 e4 23 3d 3d ab d9 be
       -0.117394805 0.40017873 0.040013224 -0.42513457
0000f0 84 af b2 3e 52 cf 18 3e 80 ca bc 3e ef 10 80 3e
       0.34899533 0.14922836 0.36873245 0.2501292
000100 a0 bb 21 be a9 01 b7 be 7e f3 b9 3e 3f 82 c5 3e
       -0.1579423 -0.35743454 0.36318582 0.38575932
000110 80 83 25 bb 1a eb 0e 3f 40 88 f2 3c be f2 7d be
       -0.0025255382 0.55827487 0.029605985 -0.2479963
000120 30 28 a8 be 2f ac e0 bd 40 09 c8 3d 57 77 4b 3e
       -0.3284316 -0.109703414 0.09767389 0.19869743
000130 cf 11 33 be 35 9d 69 be 5c 86 a5 bd ee f0 70 3e
       -0.17487262 -0.22813876 -0.08082268 0.23529407
000140 fc 97 b1 3d cf d9 9d 3d c8 01 3a 3e e4 98 c1 3e
       0.08671567 0.07707559 0.18164742 0.3781196
000150 f0 5c 93 3e 60 78 35 3d 2a 50 b1 3e e0 bb 6e be
       0.28781843 0.04430425 0.34631473 -0.23313856
000160 78 35 ec 3d a1 3e 7c bc 24 85 ae 3e 55 34 35 be
       0.11533636 -0.015395791 0.34085953 -0.17695744
000170 d4 14 ba 3e 78 72 66 be b6 da ab be 29 19 f7 be
       0.36344016 -0.22504604 -0.335653 -0.48261383
000180 08 b5 a8 3e e1 27 b1 be 2a 42 bc be ab 8f b8 3b
       0.32950616 -0.34600738 -0.3676923 0.005632361
000190 c0 e5 5c bd 36 0d 8f 3d a3 5e 94 be 18 c7 12 bf
       -0.053930044 0.06984942 -0.28978452 -0.5733504
0001a0 25 bf 7d be b4 ed 5e be 24 7c 3e 3e 7a ec d7 be
       -0.24779947 -0.21770364 0.18602043 -0.42172605
0001b0 a0 0f 27 3d 6d 8c fc bc b6 9b 91 3e 7f 16 02 be
       0.040786386 -0.030828679 0.2843911 -0.12703894
0001c0 7c bc 87 be d0 8d 1a 3d 90 ee e3 3d c6 c2 af be
       -0.2651099 0.0377329 0.111294866 -0.34328288
0001d0 98 b3 7e be 48 79 0d 3e 64 2a 8c 3e b4 36 85 3e
       -0.24873197 0.13815796 0.2737609 0.26018298
0001e0 58 01 85 be 97 b4 20 be 5a 1c 79 be a7 9c 94 be
       -0.25977588 -0.1569389 -0.24327222 -0.29025766
0001f0 15 df a4 be 4a 07 b9 bd e0 d3 81 bc 28 38 86 be
       -0.32201448 -0.090345934 -0.0158481 -0.2621472
000200 9c 7a 88 be d6 1f c9 bd d0 de 97 be e3 8d c0 3c
       -0.26656044 -0.09820525 -0.2966218 0.023505157
000210 5b 68 91 be 50 27 2b be f4 fe 81 be 3c ee 10 3e
       -0.2839993 -0.16714215 -0.25389826 0.14153379
000220 60 4e b8 bd 64 cb 98 be 90 aa 6b 3d e5 53 44 be
       -0.08999324 -0.29842675 0.057535708 -0.19172628
000230 88 ef 67 3d a2 a2 8d 3c 40 a4 7b 3e 24 aa 8b 3e
       0.05662492 0.017289463 0.24574375 0.27278244
000240 74 11 70 3e 21 e4 31 be 74 72 2c 3e 9b 97 24 3e
       0.23444158 -0.1737218 0.16840535 0.16073458
000250 e4 98 9c bd b1 da 9e 3d 60 72 b0 3d 19 d3 08 3e
       -0.07646349 0.07756556 0.08615565 0.13361777
000260 2e 99 61 be 46 c1 0b bd da 2d d0 be f5 8e 55 3e
       -0.2203109 -0.034119867 -0.40659982 0.20855315
000270 0b 50 8d be fc dd ef bd 1e 1c 87 be b0 ca d9 bd
       -0.2760013 -0.11712262 -0.2638864 -0.10634363
000280 f0 e1 67 3e b2 b8 0b be 11 96 b8 be f1 86 9b 3e
       0.22644782 -0.13644674 -0.36051992 0.3037639
000290 97 88 85 be 09 62 97 be 70 0a c8 3c 7c a9 d3 bc
       -0.26080772 -0.29566982 0.02441904 -0.025837652
0002a0 a4 83 c4 bd 9e f5 54 3e 98 d2 43 3d 9f f9 f5 3e
       -0.09595421 0.2079682 0.04780826 0.48042008
0002b0 dc cb bb 3e 5a 38 04 3e 08 f2 63 be 75 b9 a8 3d
       0.3667897 0.12912121 -0.22260296 0.08238498
0002c0 f4 f9 80 bd 88 02 ad be 8b aa 83 be d2 8b 14 3e
       -0.06297675 -0.33790994 -0.2571605 0.14506462
0002d0 20 4c ee 3c fc 21 88 3e 10 48 ec bd 56 72 2f 3d
       0.029089034 0.26588428 -0.11537182 0.04283365
0002e0 48 84 98 3d b9 b7 87 3e 10 fa 00 be f0 81 8b 3e
       0.07447106 0.26507357 -0.12595391 0.27247572
0002f0 10 8a d3 3d f8 d6 17 3e 74 58 96 be 28 b9 f3 bd
       0.10329068 0.14828098 -0.2936436 -0.1190055
000300 20 06 29 be 07 58 a8 3e 4f b0 a1 be 65 fc 68 bc
       -0.16506243 0.3287966 -0.31579825 -0.014220332
000310 60 c7 94 3e 10 ff df be b8 a8 c4 3d 01 c5 ee 3b
       0.2905836 -0.43749285 0.09602493 0.0072866683
000320 95 33 31 be 26 be 1d 3e 28 ef 69 bd c3 a2 c0 bd
       -0.17304833 0.15404567 -0.057112843 -0.09406044
000330 6c 90 aa 3e e6 36 8e be e8 63 9f 3e 88 14 83 be
       0.3331331 -0.2777626 0.3113091 -0.25601602
000340 a0 80 a2 3e 9d 82 3d 3e 20 91 bf 3e 3d 9f 9a be
       0.31738758 0.18506856 0.3741541 -0.30199614
000350 94 54 8e be c8 0a 9a bd 74 cc cc be 8a 43 39 3d
       -0.27798903 -0.075215876 -0.39999735 0.045230426
000360 80 92 cf be c5 9e f5 3c 40 73 c3 bd 51 97 90 bd
       -0.40541458 0.029982934 -0.095434666 -0.07060111
000370 90 6f b0 3c 10 1f b2 3e 74 68 dd bd 5a 64 85 be
       0.021537572 0.34789324 -0.108109385 -0.26053125
000380 5c 9a 7b 3e c5 a4 cd be b8 87 dc 3d 4c 68 71 be
       0.24570602 -0.40164772 0.10768074 -0.23574942
000390 53 a5 77 be 0f e0 7f 3e 54 57 39 3e 31 a7 04 be
       -0.2418416 0.24987815 0.1809972 -0.12954403
0003a0 7c 02 ab bd 2a 38 cc 3c c6 d4 9f 3e fb e7 dd 3c
       -0.08350083 0.024929125 0.3121702 0.027088156
0003b0 e0 6b 9a 3d 49 1e ce bd a4 d6 9f be c4 6e 67 be
       0.07540107 -0.1006437 -0.31218445 -0.22600847
0003c0 e0 c9 69 3c 7f 59 75 3d 62 0e 02 be fa 54 6c bb
       0.014269322 0.059899803 -0.12700799 -0.0036061392
0003d0 ea ad b6 be d4 2e b4 3d a2 97 92 3e 90 31 81 3e
       -0.3567956 0.08797994 0.28631312 0.25233126
0003e0 48 c1 63 3e c2 06 20 be 66 aa c0 3e f0 03 20 bd
       0.222417 -0.15627578 0.37630004 -0.039066255
0003f0 30 fe 90 3e 27 a0 86 be a4 85 b9 3e 3a 43 70 3e
       0.2831893 -0.26294062 0.36234772 0.23463145

0.translate_net.network.0.bias f4 [64]
000000 e3 c3 0d 3d 38 67 5d 3e d9 2b 78 be 82 3b 7e be
       0.03461064 0.21621406 -0.24235477 -0.24827388
000010 2b 5b 18 bb 7e 32 72 be 1d 30 b1 be 9b 50 a6 bd
       -0.00232477 -0.23652074 -0.3460702 -0.08120843
000020 7d ba a6 be a0 67 93 3e 1f d0 51 3e 30 1b 31 3e
       -0.32564154 0.28789997 0.20489548 0.17295527
000030 c6 25 3a be 30 bf 80 3d a4 f9 73 bd 6b 2e c9 3e
       -0.18178472 0.06286466 -0.059564248 0.39293227
000040 0b 8e 87 3e 17 0d 04 3e b1 a6 0b bc d8 67 ac be
       0.26475558 0.12895618 -0.008523629 -0.33672976
000050 a0 cd 12 3e 6c 22 47 3e c8 14 1b be 19 fa c3 3a
       0.14336252 0.19446725 -0.15144646 0.0014951854
000060 98 3b 25 3e 7d 93 6c be 11 15 3b 3d f2 e8 ce bd
       0.16136014 -0.23103137 0.045674387 -0.101030245
000070 53 81 0e bc bd 0a a0 be c0 c3 95 be 80 82 b1 be
       -0.0086978255 -0.31258193 -0.29250908 -0.34669876
000080 bc 3e 43 be af 68 7f 3d ed d4 7f 3b df 77 2f 3e
       -0.190669 0.062355693 0.0039036826 0.17135571
000090 ef 59 9d be 38 04 eb bd 76 35 8b 3d 36 94 2e 3e
       -0.30732676 -0.11475414 0.06797306 0.17048725
0000a0 c5 ad 8e bd 31 be a2 3d b1 b6 51 be d0 4c 62 3e
       -0.06966738 0.079464324 -0.20479847 0.22099614
0000b0 67 dc 43 bb 7e 39 5d 3e 62 67 a1 3a 83 ac 9a be
       -0.0029886009 0.21603963 0.0012314136 -0.3020974
0000c0 55 17 01 3e 3b e6 9f be 9d 02 b0 be ec ea 76 be
       0.12606557 -0.3123034 -0.34376994 -0.24113053
0000d0 4b c5 c3 3b 7b 00 bf be 47 86 f8 bc 17 f9 12 be
       0.005974447 -0.37305054 -0.030337466 -0.14352833
0000e0 0b a6 bf be b7 33 98 3e 0e 75 e4 3e 66 a4 46 bd
       -0.37431368 0.29726955 0.44620556 -0.048496626
0000f0 92 40 0e 3e 55 78 ad 3c 70 ec 23 3e 9a 94 ce be
       0.13891819 0.021175543 0.16008162 -0.4034775

0.translate_net.network.2.weight f4 [64, 64]
000000 d3 b5 aa 3d cf 4d e1 bc 5e a9 b3 3d f0 47 4b 3c
       0.083354615 -0.027502922 0.087725386 0.012407288
000010 1f 41 26 3e 2e e1 72 3d a8 23 ee 3c 78 81 5a bc
       0.16235779 0.05929678 0.029069737 -0.013336532
000020 28 79 83 3c b6 25 6f be f4 17 3c be 86 34 3b be
       0.016048983 -0.2335423 -0.18368512 -0.18281755
000030 0b 06 b7 3d 0e 0e 3d bd dd 4f 54 3e 4b bc 2d bc
       0.089366995 -0.04615598 0.2073359 -0.010603975
000040 5b 79 1e bd 5d af 1e be 81 7e a7 3d 20 1f 87 3c
       -0.038689952 -0.15496583 0.081784256 0.016494334
000050 a3 bc 52 3d 34 da b2 3d e2 3d bd 3d f9 4e 1d 3e
       0.05144943 0.08733025 0.09240319 0.15362157
000060 06 cf 42 be 2a 12 fc bc 6c 4e 92 3d 4e e5 12 3e
       -0.19024286 -0.03077038 0.07143864 0.14345285
000070 9a 0d 0d 3b c3 58 1e 3d 5b 13 b9 3d d0 6e 27 bc
       0.0021523 0.03865887 0.09036895 -0.010219291
000080 8e ba b7 3d 7c 41 1a be a0 ae 23 3e 20 06 ab 3b
       0.08971129 -0.15064043 0.15984583 0.005219236
000090 67 78 43 bc 0a 17 c6 bd 15 65 ff 3d d3 0d f2 3c
       -0.011930562 -0.09672363 0.12470452 0.029547608
0000a0 aa bf 20 3d a3 a5 49 3d 47 27 1f 3d 18 da 06 be
       0.039245285 0.04923023 0.038855817 -0.13169134
0000b0 97 95 b4 3d cd 3c 9d 3d ad 1d d7 bd fb c3 d4 bd
       0.088175945 0.076776125 -0.10503707 -0.10388943
0000c0 2e e6 a3 3d e1 c3 19 bb 20 c3 26 bb 0a e3 72 bd
       0.08002888 -0.00234627 -0.0025445893 -0.059298553
0000d0 df 69 9e bb 74 fa 09 bd 8e 13 a4 3c 18 bf 81 3e
       -0.004834398 -0.033686116 0.020028856 0.25341105
0000e0 9d 60 f3 3d c3 02 0a be 4e 9b a4 bd d3 10 52 3e
       0.11883662 -0.13477616 -0.080374345 0.2051423
0000f0 73 6e b2 bd 96 22 f0 bd 3b d1 07 bd e4 ee 82 3e
       -0.08712473 -0.11725347 -0.033158522 0.25572884
000100 0c 4c 71 3d 00 31 42 bd 90 19 0e bd ec a0 c1 bd
       0.058910415 -0.04741001 -0.034692347 -0.094545215
000110 1d d4 be 3c 6c d2 cc 3d 76 d1 b6 bc fb 41 3a 3d
       0.023294503 0.10001072 -0.022316676 0.04547308
000120 34 f4 f2 bd 87 59 01 bd 22 9a 6d 3c 3f d6 3c be
       -0.11862984 -0.03157952 0.01450208 -0.18441103
000130 a9 ea f3 3c a1 76 93 bb 12 80 92 bd 6a d9 c3 bd
       0.02977498 -0.0045002257 -0.07153334 -0.09562953
000140 0b e5 2e 3d 9f 89 e7 3d 65 30 f5 bc 7e 54 a2 bd
       0.0426989 0.11305546 -0.029930303 -0.07926272
000150 2b 95 91 bd 22 c7 03 bd 60 1a b3 bc 02 05 f7 3d
       -0.0710853 -0.03217233 -0.021863163 0.12061502
000160 18 47 5f 3d 2f 9b dc bd c8 d4 9e bd ff 9b f6 3d
       0.05451116 -0.107717864 -0.077554286 0.12041473
000170 72 5d b8 3c 07 56 45 bd f2 f8 58 bd 00 d2 dc bb
       0.022505496 -0.048177745 -0.052971788 -0.006738901
000180 ae 48 ac bd f4 3b 95 bd 2d a7 2a bc 8c ec a4 bd
       -0.084123 -0.07286826 -0.010415834 -0.0805293
000190 b7 e4 6c 3d 6a d4 73 bd 94 13 ed 3d fb 26 3f 3d
       0.057835307 -0.059528746 0.11576 0.046668034
0001a0 50 c2 6b bd 4b 95 dc 3d a9 94 04 3b 82 3b 9a 3d
       -0.057558358 0.10770663 0.002023021 0.075308815
0001b0 72 a6 8b bd 01 fd ea 3d ba bd 27 3d fe 31 b0 3d
       -0.06818856 0.11474038 0.04095242 0.08603285
0001c0 12 ac 11 be fe cf 28 bd 6c 95 6b 3d de 33 17 be
       -0.14225796 -0.04121398 0.057515547 -0.1476588
0001d0 d3 3a d9 3d 40 f6 80 bb 95 0c 9d bd 34 62 e8 3c
       0.10606923 -0.0039356053 -0.076684155 0.02836714
0001e0 d2 88 bc bd ee b2 8f 3c 29 d6 32 be 30 57 0d 3e
       -0.09205784 0.017541375 -0.17464508 0.1380279
0001f0 69 e1 e3 bd ff 54 eb bd fc b3 93 bd b9 35 7e bd
       -0.11126978 -0.11490821 -0.07212064 -0.062062953
000200 65 7e 62 bd a6 92 04 3e 9e 05 2e 3e f8 3f 34 bd
       -0.05529632 0.12946567 0.1699433 -0.044006318
000210 ce cd 97 3c db 19 b3 3d 5d f8 77 3c 42 aa 7d b9
       0.018530753 0.08745166 0.015134898 -0.00024191386
000220 10 38 b6 bc 6a 01 ab 3e 7b 03 c7 3c 89 3f 84 3d
       -0.02224353 0.33399516 0.024293652 0.06457431
000230 8f 0f 26 bd 23 00 a1 bd b5 c0 ac 3c 57 91 26 3e
       -0.04054218 -0.07861354 0.021087984 0.1626638
000240 5c 10 e2 3d 52 2e d3 be 59 f8 7a bd ec 8f bd bd
       0.110382766 -0.41246277 -0.061272 -0.092559665
000250 22 bf aa bd ae f3 50 3d 00 65 f4 3a 3e 0a 92 3d
       -0.08337237 0.05101364 0.0018645823 0.0713086
000260 82 60 ae 3b 3a 20 a5 bc f0 40 88 3d ad 30 9f bd
       0.005321563 -0.020156968 0.06653011 -0.07772956
000270 b3 1d 9e 3d c5 77 20 bd 2a 3f ac bc 36 1b bb 3d
       0.077205084 -0.03917672 -0.021026213 0.091360494
000280 32 51 e0 3c c7 52 5d 3d 84 00 d5 3d ea 49 d5 3c
       0.027382467 0.05403402 0.10400489 0.026036222
000290 5a 1f ae bd 7c 83 9c 3d 1f a5 b6 bd 76 2e 1f 3e
       -0.085020736 0.07642266 -0.08918213 0.15545067
0002a0 cd 7b 3e be 91 8e 8d 3c eb f5 18 be 31 fe 7b 3e
       -0.18601914 0.017279895 -0.1493756 0.24608685
0002b0 cb e4 03 3e 38 e7 bc 3c 10 1c d8 bb 8b 1e 27 bd
       0.12880246 0.023059472 -0.006595142 -0.040800612
0002c0 e5 7a 0d 3d c2 0a 63 bc 69 af 10 3e d5 73 6c bb
       0.03454103 -0.013857545 0.14129414 -0.0036079783
0002d0 a0 9a 83 3c ce 21 86 bd 30 45 3f be b3 4f 32 be
       0.016064942 -0.065494165 -0.18678737 -0.17413215
0002e0 34 bc 97 bd 20 86 9b 3c 93 bf 2f 3e 0b d1 fc bc
       -0.07408944 0.018984854 0.17162924 -0.030861398
0002f0 b8 24 b8 3d 33 39 03 bd 45 71 2c be a8 ce d6 3d
       0.089913785 -0.03203697 -0.16840084 0.10488635
000300 c9 e2 ac bd e3 50 bd b9 88 5c 8f bd 34 75 97 bd
       -0.08441693 -0.00036109154 -0.07000071 -0.073954016
000310 f8 f3 23 be b0 56 bb 3c 37 41 a5 bd 57 04 d2 bd
       -0.16011035 0.022868484 -0.08069079 -0.10254734
000320 ea df a9 bd f4 f1 40 bd d3 78 b6 bc 1a 5a 4e 3b
       -0.08294661 -0.047105744 -0.02227441 0.003148681
000330 72 8c 1a 3e cd a1 f5 bd e8 2d bf 3c 6f cb 3b be
       0.15092638 -0.11993752 0.02333732 -0.18339323
000340 df 7c fc 3c 5a 31 8b 3d 10 c0 e8 bb 68 1d ba 3d
       0.030821262 0.067965224 -0.0071029738 0.0908764
000350 01 52 3d be f1 90 0a 3c b4 8c 76 3d 2e ce 2a be
       -0.18488313 0.008457408 0.06019278 -0.16680214
000360 d3 bc 91 bc e5 02 b3 bd a3 79 fd 3c 3a 8b 92 3d
       -0.017790234 -0.087407865 0.03094179 0.071554616
000370 8e cf fc 3d 3c af dc bc 35 3c e8 bd c0 df 10 3b
       0.123442754 -0.026939027 -0.113396086 0.0022106022
000380 00 b1 b1 bd d9 0e e7 bd bd 82 b7 3b c6 a5 c8 bb
       -0.08676338 -0.11282129 0.005600302 -0.0061232774
000390 c6 a3 0a be 0a 6d 64 bd ac a2 0a 3d 50 0d 28 3d
       -0.13539037 -0.05576805 0.033846542 0.04102832
0003a0 48 1e 5a 3d 59 e7 b3 bd 10 d2 92 bd cd e2 14 be
       0.053251535 -0.087843604 -0.071689725 -0.14539643
0003b0 2f ff 17 be 12 37 13 be 6e c8 0f 3d 3f 0f d1 bd
       -0.14843439 -0.14376476 0.035103254 -0.10207986
0003c0 1a 3b c4 ba 00 6e 2c 3b 58 68 be bd 15 b6 1e be
       -0.0014971227 0.0026310682 -0.09297246 -0.15499146
0003d0 7f 7c c3 bd 98 05 e7 bc c3 9c 8b bd a8 2a 36 bd
       -0.0954523 -0.02820091 -0.06817009 -0.044474274
0003e0 2a bc 9e 3d e2 22 dd bd 6c 7e a9 bd ef a1 1f 3c
       0.07750733 -0.10797669 -0.08276066 0.009743198
0003f0 0c 68 ba 3a c8 73 5b bd ae 31 e8 bd 22 94 4a bd
       0.0014221682 -0.053577214 -0.11337601 -0.049457677

0.translate_net.network.2.bias f4 [64]
000000 bf 30 5a be 29 58 a5 bd c8 e1 21 3d 74 60 26 3a
       -0.21307658 -0.08073456 0.039521962 0.000634677
000010 14 f1 7e bd 9b cb 55 3d bd 91 16 be 7a ba 64 be
       -0.06224163 0.052196126 -0.14704032 -0.2233676
000020 22 16 ef bd bc 29 a3 3d 7c 03 d4 3d 84 b8 04 be
       -0.116741434 0.079669446 0.10352227 -0.12961012
000030 df db b5 3d 15 9c 40 bd b7 09 e1 bd dd 11 49 be
       0.08879828 -0.04702385 -0.10988181 -0.1963572
000040 a2 7d 88 bd 17 13 57 bd bc da 0b bd 4a fd e2 bd
       -0.066645876 -0.05250844 -0.03414415 -0.11083467
000050 b1 56 44 bd 8b 45 71 bd 58 f4 4c 38 14 02 2d be
       -0.047934238 -0.058904212 4.8864953e-05 -0.16895324
000060 93 08 fb bd c0 bd 8b bc 12 5b 9e bd 3d 11 c0 3c
       -0.12257495 -0.017058253 -0.07732214 0.02344572
000070 a2 d4 92 bc 81 76 90 be b2 b3 d4 bd e5 ef 59 3e
       -0.017923657 -0.2821541 -0.10385837 0.21282919
000080 25 8e 21 3e 24 06 44 3d b9 0a 96 bd 84 70 bf bd
       0.1577688 0.04785742 -0.07326264 -0.093476325
000090 fc 56 c8 bd ac 3a 98 3d 32 7e 5c be 86 3e ae bd
       -0.09782216 0.07433066 -0.21532515 -0.08508019
0000a0 3d d8 b3 3c 7b 94 ac 3d ec 75 8d bd ab 9e ba bd
       0.021953696 0.08426758 -0.069072574 -0.09112295
0000b0 a7 49 6d 3c 89 12 86 bd 59 31 41 bc 72 b4 1e be
       0.014482892 -0.06546504 -0.011791551 -0.15498522
0000c0 2e 91 29 bd 77 c3 82 bd da 2c b0 3c 7e c6 fc bd
       -0.04139822 -0.06384938 0.021505762 -0.12342547
0000d0 f9 92 84 bd 0f 2d 10 bd 80 f5 78 3d 4d ba dc 3d
       -0.06473345 -0.03519922 0.060781002 0.107777216
0000e0 fe 7d 5b 3b 11 cd 9f bd 7a 00 4f bd 9f 6d ae bd
       0.0033491845 -0.07802785 -0.050537564 -0.08517002
0000f0 bc d0 d3 3d 62 68 19 3d 1c 56 10 3a da 63 08 3d
       0.10342547 0.037453063 0.00055059954 0.03329835
