SE3_DS/nn_models/models/PegInHole_models/best_model_000.pth (torch, 396402 bytes, 80 tensors)

0.scale_net.network.0.weight f4 [64, 6]
00000000: 06ae cd3e ccb8 a2be e884 333d c9f3 9abe
00000010: 210d 9dbe 4e5a 59bd 1acf c4be 293e 94be
00000020: 7d8e c3be 9eb1 d53e e626 abbe 1803 4a3e
00000030: aa0e 97be 03f5 31bf 2c62 15be 7668 b63d
00000040: ac8e c5bd 7462 d6be 106b 28bd 5692 5dbe
00000050: f45b afbd e0f0 483e 8cad a13d fbb0 a23e
00000060: d883 e13d 1f01 92bf a065 a73c 56af 743b
00000070: e0d8 94bd f304 8fbf 90a9 ed3d fcd2 a23e
00000080: 9a72 b5be 98c0 e33d a3cc 4cbe 88b3 82be
00000090: 0431 1f3e 790c 88be 2634 22be 6e74 83be
000000a0: 6b20 99be 05e9 86be d0c2 353e f429 95be
000000b0: cbcc a9be caf0 3c3e 72f9 0fbe 1eb8 993d
000000c0: 1085 af3e 2e8a 0d3e 6040 1fbe b505 afbe
000000d0: ce48 9f3e e2b3 c3be 30ad c63d d0fd 8e3d
000000e0: d091 823d 4aeb 6f3e 20fe 63be f489 43be
000000f0: dc1d 583e 571e 65be 18e9 18bd e7e8 923e
00000100: db8c a8be 7dbb 123e ec4e 3b3e 0e9b 14be
00000110: 7027 163d 39cc 293e 57e8 41be 3db7 8b3e
00000120: e859 4f3e f0a7 b23d 1034 7bbe c823 3dbc
00000130: 125f bf3e 7ee8 c93d 90a8 6e3e a311 093d
00000140: 1875 87bd b9ae b83d e8c8 a7bd 6b2b 19bd
00000150: 3cd3 9abe da37 583e 1ab0 47be e23e e2be
00000160: 74e0 86be 3fa4 99be c87b 92bd e7bf 85be
00000170: 54e5 84bd 52cc e33c c6ab c8be 56a5 563e
00000180: 9c67 9b3e 302a b6bc c4af a53e d024 6dbd
00000190: 24ce 28be c08b c5bb 78d6 3c3d e6fb 4cbe
000001a0: f803 11bd 2d8d 56be 100b 02bd d47b 84be
000001b0: 6c4b 0d3e ea8a 37bf d0b7 33be 1364 b4bc
000001c0: efc4 c3be 57aa 97bf 64b7 cf3e 323b 9cbd
000001d0: 209a b03c c76d 84be a274 a4be b738 123e
000001e0: 1640 cd3e 5d45 1e3d 18aa 993e f413 76be
000001f0: 0f99 50be 7e77 91be d2ab 2ebe 8115 043e
00000200: 609c ac3c 46fb c63e 007d 353e 2ed5 74be
00000210: 62f5 c83e 55da 293e 6e47 b9be bce8 423f
00000220: 489e 11bd c2d3 0dbd 948d 543e c4ef c4be
00000230: b045 a53e 7464 8fbe 783f 673e 1c59 adbd
00000240: 2024 2bbd 6917 cebe 907e e1bd 848b 06be
00000250: 34d2 a2be e462 b2be c051 e2bb de4b 4dbf
00000260: 0053 893e 7c22 0fbe 18a0 543e 2672 95be
00000270: 607f 43be ed78 973e bff3 9cbe 8b61 593f
00000280: 6afd cbbe f646 7e3d 6cbe 0a3e cdf6 8e3e
00000290: a83f a83e 4b14 b2be 1b5f 25be d65d b9be
000002a0: 87f1 8ebe 490a f8bf 9c43 813e 5281 06bf
000002b0: 88eb ea3d 92cb f3bf a1ff 9abe 5470 ecbe
000002c0: 5ca1 bcbe 2ce6 c4be 4015 063e 56e9 55bf
000002d0: 68c7 343e e799 bd3d b851 833d 1896 69be
000002e0: 4040 df3b cbde 29bd aa8d 9fbe 38be 843d
000002f0: 907f 3cbd 026e 68bd 65e8 99be d21e adbe
00000300: 2244 01be af5e 223d 309c e2bc 545a 0abf
00000310: e0a1 c5bd 0a50 27be 940a b23e a372 ce3d
00000320: 9f34 38be bcfb 8ebd 96fd 17be 2158 64be
00000330: 9897 cf3d f27f 53be b86e 62be c0ad 5bbd
00000340: 8646 aa3e 58b9 e93d 5385 99be 74a8 163f
00000350: 924a b8be 09a4 703e 0275 89be 3f5c c73e
00000360: 4ab1 c0be 7a69 97bf d834 133d e64c 14bb
00000370: c011 2ebc 56cf 91bf 309e fd3d 23e5 92be
00000380: 004a 7e3c e65e af3e dc31 623e 2c20 0d3e
00000390: 2c61 b13e 3850 923c f8dc 293e ba54 533e
000003a0: 745b 1b3e 931f 33be 5830 b73e bb29 f83d
000003b0: 6028 12be ae64 213f 9250 c7be 7ee6 26be
000003c0: 00f7 093e bc62 18be d046 943c 05a9 9abe
000003d0: 2551 97be 23f8 713e 585d 363e 7343 adbe
000003e0: 14b1 a03e e50c 783e 62ef c93e 1708 6ebe
000003f0: 88b4 993e bce4 a83d 1bd1 a0be d4d2 733e
0.40171832 -0.31781614 0.04382792 -0.30264118 -0.3067408 -0.053064637 -0.38439256 -0.28953674
-0.38194647 0.41737074 -0.33428115 0.19727743 -0.29503375 -0.69514483 -0.14588231 0.08906643
-0.09646353 -0.4187199 -0.041117728 -0.21637854 -0.085624605 0.19623137 0.078944296 0.3177565
0.11011475 -1.1406592 0.0204342 0.0037335954 -0.07267928 -1.1173385 0.11604607 0.31801593
-0.35438997 0.11120719 -0.19999938 -0.25527596 0.15546042 -0.26572016 -0.15840206 -0.25674766
-0.29907545 -0.26349655 0.17750096 -0.2913357 -0.33164057 0.18451229 -0.1406 0.07505821
0.34281206 0.13822243 -0.15551901 -0.34184042 0.31110233 -0.38223177 0.09701002 0.06982005
0.06375468 0.234296 -0.2226491 -0.19095594 0.2110514 -0.22374855 -0.03733167 0.28693315
-0.32919964 0.14329334 0.18291825 -0.14512274 0.036658704 0.16581811 -0.18936287 0.27288237
0.2024914 0.08723438 -0.24531579 -0.011544175 0.3737722 0.098587975 0.23306489 0.033464085
-0.06614131 0.09017701 -0.08192617 -0.037394922 -0.30239284 0.21115056 -0.19500771 -0.441886
-0.2634312 -0.30008122 -0.07152516 -0.26122972 -0.06489053 0.027807388 -0.39193553 0.20961508
0.30352485 -0.022236913 0.3236066 -0.057896435 -0.16484886 -0.0060286224 0.04610297 -0.20017967
-0.035404176 -0.20952292 -0.03174883 -0.25875723 0.13798302 -0.7169634 -0.17550588 -0.022020375
-0.38236186 -1.1848859 0.40569603 -0.07628478 0.021557868 -0.25865003 -0.32120234 0.14279447
0.40087956 0.03864037 0.30012584 -0.24031049 -0.20370887 -0.28411478 -0.17057732 0.12898828
0.02107066 0.3886358 0.17723465 -0.23909447 0.39249712 0.16587193 -0.3618731 0.76136374
-0.03555134 -0.034625776 0.20757133 -0.38464177 0.3227973 -0.28006327 0.22582805 -0.08464262
-0.0417825 -0.40252236 -0.11010468 -0.13139158 -0.31800997 -0.34841073 -0.006906718 -0.8019389
0.26821136 -0.13977998 0.20764196 -0.2918865 -0.19091558 0.29584447 -0.30654714 0.84914464
-0.39841777 0.062079392 0.13549203 0.2792267 0.32861066 -0.34781107 -0.16149561 -0.36204404
-0.27918646 -1.9378139 0.25246894 -0.5254108 0.11470705 -1.90465 -0.30273154 -0.4617945
-0.36841857 -0.38456857 0.13094044 -0.8355917 0.17654192 0.0925787 0.06412071 -0.22811162
0.006813079 -0.041472238 -0.3116277 0.06481594 -0.04602009 -0.056745537 -0.30060115 -0.33812577
-0.12623647 0.03964108 -0.027662367 -0.5404408 -0.09650016 -0.16339126 0.34773695 0.10080459
-0.17988823 -0.06981608 -0.14842829 -0.22299244 0.10136336 -0.20654276 -0.22112548 -0.053632498
0.3325693 0.11412305 -0.2998453 0.5885079 -0.35994393 0.23500074 -0.26847082 0.38937566
-0.3763526 -1.1829064 0.035939068 -0.0022628843 -0.010624349 -1.1391399 0.123836875 -0.28690442
0.015520573 0.3425209 0.22089332 0.13781804 0.3464445 0.017860517 0.16588199 0.2063779
0.15171605 -0.17492513 0.3577907 0.121173345 -0.14273214 0.6304425 -0.38928658 -0.16298863
0.1347313 -0.14881414 0.018100172 -0.30207077 -0.29554096 0.23629813 0.17809045 -0.33840522
0.313851 0.24223669 0.39440447 -0.23245274 0.30020547 0.082467526 -0.31409535 0.23810893

0.scale_net.network.0.bias f4 [64]
00000000: f0e9 96be 487a 983e 5b90 5e3e 5e04 67be
00000010: 8486 76bc 726b 8bbe 4998 16be 9a62 863e
00000020: ef05 8bbe 49b7 383e 8f98 543e 404b 5fbe
00000030: c161 fc3a b84e 323d 6e4f f53c 3e70 d5bb
00000040: 46ca 84be d580 90be 601b 50bc 4add 293d
00000050: 1ed4 53be 996c 923e 0a7f b83e 937e 7ebe
00000060: f261 23be 3963 55bd b370 26be c318 bc3c
00000070: 8b72 ae3d f4a6 35be 5467 e43c 94da b0bc
00000080: 9789 a43c d527 39bd b448 01be dd06 b03c
00000090: 8f43 a33d f964 a4be 19d8 9b3e 4834 b53e
000000a0: 5731 763d a1a7 e2bd 9a45 81be 5071 073e
000000b0: 912a e8bd 8549 1b3e 8332 c13d 74ca 443e
000000c0: 9adf 9fbe bfd3 dfbb 548e a5bd 43c0 a73d
000000d0: b0a2 c43d 8aea f3bd 81e2 babe 271b a4bd
000000e0: ec41 a6be ccee e93c 28fe 4ebe d80d b3be
000000f0: 4879 86be 2eef 41be e8bb e2be 9805 3dbe
-0.29475355 0.29780793 0.21734755 -0.2256026 -0.015046719 -0.27230412 -0.1470653 0.26247102
-0.27152964 0.18038668 0.20761321 -0.2180605 0.0019255207 0.043532103 0.029945102 -0.0065136245
-0.25935572 -0.2822329 -0.012701839 0.041470803 -0.20686385 0.28598478 0.36034423 -0.24852972
-0.15955332 -0.05209658 -0.16253929 0.022961026 0.08517941 -0.17739469 0.027881302 -0.021588601
0.02008514 -0.045204002 -0.1262539 0.021487648 0.0797187 -0.32108286 0.30438307 0.3539145
0.060105648 -0.11067129 -0.25248414 0.13226819 -0.11336244 0.15164764 0.094334625 0.19217855
-0.31225282 -0.006830662 -0.080837876 0.08190968 0.09601343 -0.11909969 -0.36500934 -0.080129914
-0.3247217 0.02855625 -0.2021414 -0.349715 -0.26264405 -0.18938896 -0.44283986 -0.18459165

0.scale_net.network.2.weight f4 [64, 64]
00000000: cfb4 623d f341 efbd 153a f2bd b405 343a
00000010: 4285 103f 8a0f a4bd 4eea 003e 58c9 5e3e
00000020: d7e7 cfbc 3684 df3d 4f9d d23d a8a6 fbbd
00000030: d8e6 e03d 30cd 9e3d f54e 213e 032f 193d
00000040: d087 a0bc db63 2dbe 4b6b b33e e987 023e
00000050: 1272 b4bd f7af 68bd dc15 4cbe 16e2 a8bd
00000060: 23b2 e5ba cd84 d43d 1322 6b3e 6ae0 093e
00000070: 88c0 883e 0591 033d dc33 223e a222 083e
00000080: 7e69 da3d 4bb6 903c 98f2 563d 2eb1 a23d
00000090: 39b0 723e 2057 3a3c 2de4 0e3e e999 aabd
000000a0: 6bc0 cd3d 46d9 d4bd 8ccc 293d 583a 1d3e
000000b0: 15b5 c63d b2cc 2cbe 570c dc3d e193 f83d
000000c0: b835 af3c a867 c73d e19e dbbd 3727 da3e
000000d0: c09f 213e f28d 103d 00a0 543e 402c ff3e
000000e0: accd 6bbd f08e 35bc f46e 68bd 382d a03c
000000f0: fa55 803d 0838 af3c cc4a b73e 84e6 01bd
00000100: c05b 8fbb da17 89bd a0cd e63c c0b7 75bb
00000110: 980c b03c 402e 80bb de94 b8bd f8a0 793d
00000120: 5c68 47bd bc0b 73bd 408d f13d 0022 20bb
00000130: 808c a6bc 0843 403d 3441 b83d 709b 593d
00000140: 6076 823b 3815 65bd 5007 7b3d 1029 38bd
00000150: 0c74 633d 00ce 72bd 7897 993c 6638 ffbd
00000160: fe0e b53d 10ce 2b3c bc56 88bd 44cc e8bd
00000170: 809b c63d 845f 5f3d 78c2 713d fa57 80bd
00000180: 00a4 2fbb 50a1 58bd 00d8 763c 783a 0cbd
00000190: cad4 813d 70e7 01bc b6cc a5bd a62d b13d
000001a0: 4c26 1dbd 52d5 9c3d 96e4 9b3d 4031 b0bc
000001b0: b8f3 6dbd 708b c7bd ae96 cfbd 90a8 fa3c
000001c0: 801f b6ba a044 aebd ea2b fdbd 267f e2bd
000001d0: c886 673d ac0a 2f3d b058 2ebd 3a70 f03d
000001e0: 70e4 ce3d 109f d8bc d869 e3bd fa78 98bd
000001f0: 6076 f4bd de67 dbbd 3657 f53d d82e 533d
00000200: 6ff4 363c 4914 e1bb 0afb 1abe f90e 0abe
00000210: b189 093c 8406 3dbd 0d18 f1bd 52c0 a4bd
00000220: 66ec c73d dce6 70bd cb98 94bd 4999 efbd
00000230: bc89 b7bd 308a e3bc 95d0 8d3d cbfa d63c
00000240: acfb 9a3d 1a48 aa3c b908 28be 69d9 cabd
00000250: 621f 133d d5f4 c3bd 4cbc 46bd 14ed f8bc
00000260: c6b0 b0bd abe8 a23d 0c3f 98bd 3583 02be
00000270: 41e9 e7bd f5c1 993d 0c7c fd3b 81ad 85bd
00000280: b340 4d3d 0648 eebd 3a95 cabd d3c3 12bc
00000290: f34e 7dbe 08c0 d7bd 0ee2 9a3d 61df 8c3d
000002a0: 09a5 023d 6663 b6bd 209b f33c a935 37bd
000002b0: b3dd c0bd e855 ebbd 12d4 03be 37de 15be
000002c0: 4ccc afbd e271 14bd 5e93 11bd 6262 73be
000002d0: af03 183d 1575 4bbb a6c4 a8bd 3f36 30be
000002e0: 3899 d13c 7561 1fbe 54b6 673d ee1e bdbd
000002f0: 208a 863d cc1e e53d 0481 60be 6404 b1bd
00000300: 7cd0 ecbd e3b2 31be f5fc cbbd 64b5 9b3d
00000310: a057 063c a87d a43d 0c38 6bbd e7a6 e9bd
00000320: 3508 3abb ead1 603d 02cf 32be 5e8c d7bd
00000330: 2e39 e0bd b45c 833d b394 51bb 5acc c73c
00000340: 7875 efbd e41e 463d 7ec5 ee3c 045c 1ebe
00000350: 2010 153d 652a 50bd 7ae8 2fbe 8b2b 7b3d
00000360: 14b5 b33c df9b 2ebe c249 f03d 3d85 e7bd
00000370: be70 c0bd 7c31 e2bb a122 62bd 1a8f 17be
00000380: a45e 743d d3f6 dabd 50af 503d 96b1 943d
00000390: c82f dabd c089 9bbb afba ee3c 1706 1fbe
000003a0: cf56 203d b0bc bfbd 341a e0bd 1986 883c
000003b0: 04fa 8abd 5196 99bd 546e a6bd 48b1 c1bd
000003c0: f8d4 ab3d 5182 66bc 848c 993d 4b94 a7bd
000003d0: fed8 aebd f06a 3d3d c04d a93c 70f1 86bd
000003e0: 7209 a83d 45ca 00be 7a17 96bd 6050 923b
000003f0: faa4 93bd e4a6 d13d 8a9e e1bd eafa fc3d
0.055348214 -0.11682501 -0.118274845 0.0006867305 0.56453335 -0.08010776 0.1258938 0.21756494
-0.025379105 0.10913889 0.102839105 -0.122876465 0.1098153 0.0775398 0.15752776 0.03739835
-0.01959601 -0.16932623 0.35042796 0.12747158 -0.0881082 -0.05680844 -0.19930214 -0.082462475
-0.0017524402 0.10376892 0.22962217 0.13464513 0.2670939 0.032120723 0.15840095 0.13294461
0.10664652 0.017665049 0.05247745 0.079439506 0.23700036 0.011373311 0.1395423 -0.08330137
0.100464664 -0.10393004 0.041454837 0.15354288 0.097025074 -0.1687496 0.10744541 0.12137581
0.02138792 0.09736568 -0.10723663 0.42608044 0.15783596 0.03529162 0.2076416 0.49838448
-0.05756919 -0.011081442 -0.05674644 0.019552812 0.06266399 0.021389022 0.35799253 -0.031713977
-0.004374951 -0.066940024 0.028174222 -0.0037493557 0.02149038 -0.0039117634 -0.09012769 0.060944527
-0.04868351 -0.059337363 0.117945194 -0.0024434328 -0.020330667 0.046938926 0.089968115 0.053126752
0.0039813966 -0.05592844 0.06128627 -0.044961035 0.055530593 -0.05927849 0.018748984 -0.12461929
0.0884075 0.010486141 -0.06657168 -0.113670856 0.09697628 0.05453445 0.05902335 -0.0626678
-0.0026800632 -0.052888215 0.015066147 -0.034235448 0.063394144 -0.007928714 -0.08095686 0.08651285
-0.0383666 0.07657875 0.07611959 -0.02150786 -0.058093756 -0.097433925 -0.10136162 0.030597955
-0.0013894886 -0.08509183 -0.123618916 -0.11059408 0.05652502 0.042734787 -0.042565048 0.117401555
0.10102165 -0.026443034 -0.111041725 -0.074449494 -0.11936641 -0.107131705 0.11979525 0.051558346
0.011166676 -0.0068688733 -0.15134826 -0.13482274 0.008394645 -0.046148792 -0.117721654 -0.08044495
0.09761886 -0.058813915 -0.072557054 -0.11699159 -0.089618176 -0.027775854 0.069245495 0.026242634
0.07567534 0.020786334 -0.16409577 -0.09904749 0.0359186 -0.095681824 -0.048519418 -0.030386485
-0.08627467 0.07954534 -0.074339 -0.12745364 -0.113237865 0.075076975 0.007735735 -0.06527234
0.05011053 -0.11634831 -0.09891744 -0.008957821 -0.24737148 -0.10534674 0.07562648 0.06878544
0.03189567 -0.089056775 0.029737055 -0.04472891 -0.09417286 -0.11490995 -0.12873867 -0.1463555
-0.085838884 -0.03624142 -0.03554093 -0.23767999 0.037112888 -0.0031045128 -0.08240633 -0.17208193
0.025585756 -0.1556452 0.056570366 -0.09234415 0.06569314 0.11187515 -0.21924216 -0.086434156
-0.11563203 -0.17353396 -0.09960357 0.07602957 0.008199602 0.080317795 -0.057426497 -0.11408787
-0.002838624 0.05488769 -0.1746178 -0.1052482 -0.10948406 0.06414166 -0.00319795 0.024389435
-0.11692327 0.048369303 0.029146906 -0.15464789 0.03639233 -0.05082168 -0.17178527 0.061320823
0.02193693 -0.17051648 0.11732818 -0.1130471 -0.09396504 -0.0069028717 -0.055208806 -0.14800683
0.05966057 -0.10691609 0.05094844 0.07260434 -0.10653645 -0.0047466457 0.029141752 -0.15529667
0.039145287 -0.09362161 -0.10942498 0.016665505 -0.06785968 -0.07499374 -0.08126512 -0.09457642
0.0839023 -0.014069156 0.07497504 -0.081825815 -0.08537482 0.04624456 0.020666957 -0.06589019
0.082049266 -0.1257716 -0.073286965 0.004465148 -0.07209201 0.1023691 -0.11016567 0.123525456

0.scale_net.network.2.bias f4 [64]
00000000: 2fc2 b2bd a030 a4bd 2f2a 473d b96b b13b
00000010: 1b3e 99bd 711d abbd 0072 b93c e053 9cbd
00000020: 90a3 10bc a418 e7bd bd56 b83d fc80 3e3b
00000030: bc30 7e3c 970c 8b3b 5f31 d7bd 0db7 e93b
00000040: c3f7 7ebc f368 d83c 5aee 2a3e 873d 7bbb
00000050: 0bf2 903c 9a67 f6bd 4834 c0bd 1f3c 05be
00000060: 8637 bf3c dcba 07be e497 20bd 35b8 103e
00000070: 31ea 1e3c 8247 acbd adab a33c 2238 e3bd
00000080: 7be5 b5bd a3ae 85bd 1f3d 4c3e 585c b8bd
00000090: 7386 fbbc 83fe 2abe 3575 efbd 70b4 dbbc
000000a0: bac6 bebd d07b 89bd f280 22be 56ad df3b
000000b0: b943 80be 4d37 96bd 63c2 383d 276a 59bd
000000c0: 03c1 16bd 0c21 cebd f6b0 96bd f868 d8bd
000000d0: 08ca f5bb ab41 473c 975e 95bc bf89 d23b
000000e0: 1f31 653b 7037 a63c b64c 11bd 0878 88bd
000000f0: 22c3 f1bd 5803 67bd 8beb 30bd 2951 d3bd
-0.08728444 -0.08017087 0.048624214 0.005414453 -0.07482549 -0.08355225 0.022637367 -0.076331854
-0.008828059 -0.11283997 0.09000919 0.002906858 0.015514549 0.004243444 -0.10507464 0.007132417
-0.015562001 0.026417231 0.16692486 -0.0038336234 0.01769354 -0.12031479 -0.09384972 -0.13011216
0.023341905 -0.13254875 -0.039207354 0.1413277 0.00969939 -0.084120765 0.019979322 -0.11094691
-0.088816606 -0.0652745 0.19945191 -0.09001988 -0.030703759 -0.16698651 -0.11692277 -0.026819438
-0.09315248 -0.067130685 -0.15869501 0.006826083 -0.25051668 -0.073347665 0.045107257 -0.05307975
-0.036805164 -0.10064897 -0.07357971 -0.10566896 -0.0075008906 0.012161653 -0.01823358 0.006425112
0.0034971905 0.020290107 -0.035473548 -0.06663519 -0.11804797 -0.056399673 -0.04319338 -0.103182144

0.scale_net.network.4.weight f4 [64, 64]
00000000: cf7e 0c3d dc60 47bd 6508 31be 0701 76bd
00000010: 4389 2f3e 7bec 0e3e 233a 943d f3fe bf3d
00000020: 18f9 833d a4ee c9bd bb40 223e 3dd3 053e
00000030: 33ae 5b3d 1061 1b3d 50b4 1fbc d6e1 88bc
00000040: 49d8 d53c 6588 0ebc 55d7 12be 5e9d 0b3e
00000050: 308a 7dbd e3d8 0c3e 008d 2bbb 1a2e a9bd
00000060: 6508 0a3e 9435 423d 7fe7 1fbd d8aa f9bd
00000070: 8a88 e43c c7c9 2cbc 45de 06be 20e9 b7bb
00000080: 743a 613d ecf5 243e c892 b9bd 1fc4 bfbd
00000090: 9f75 df3d 6ad1 6a3d 5808 8abd 2616 d93d
000000a0: 60e0 b9bd 4981 9abc 7750 c7bc b7a9 57bd
000000b0: 11a0 963d afce 083d 0e02 a3bc 9a35 973d
000000c0: cdd1 bb3d ea16 cc3d fae3 97bc c0dd c93d
000000d0: cf1d 843d b450 60be c30a c6bc 2425 3b3d
000000e0: 177a 0bbd f4a0 40bd 31e1 c2bc 98b0 883d
000000f0: 7834 0cbd 9847 a23c fa01 b43d 089c 143e
00000100: ebd2 153e ec8a 123d 889f eebd f90e 17bd
00000110: 4ded 3f3e 0f36 aa3d 83c4 bebc 536a 8c3d
00000120: 5c40 5d3d c0e3 273d 3ca1 d43d 9ac7 543c
00000130: ff5a a0bd 634a b3bc c43d 673d 0da5 0d3e
00000140: 8459 133e ec87 bcbc b16e e63d 5ad4 8fbd
00000150: 02e4 49bd 090c 883d 1090 2b3c beea ff3d
00000160: 6718 8d3d 7371 823d 0ae2 8f3d a180 e43d
00000170: 81c4 b13d 39d8 7dbd bb79 dcbd f8d2 b73c
00000180: 7c80 88bd cea6 203e d9c6 10be e578 bf3c
00000190: f42c bb3c 5557 573d 66a3 513e 90e0 643c
000001a0: c0a4 573d 4cfe f6bd 8fce eebc 0f19 cb3d
000001b0: 0e5d aabd 22d9 84bd 9faa 703d 87ad 223d
000001c0: 2515 f839 2a1f e4bd cc96 1239 7d4a 0abd
000001d0: aef9 813d 7763 23be cacd 173e 9747 5d3d
000001e0: de55 d13c d016 a1bd a09a 963d 88bd 083e
000001f0: c811 dfbc 8cc8 acbd 13d0 d43d ab55 31bd
00000200: 9382 32be f040 84bd cba3 db3c 9207 ddbd
00000210: 2eca 303e 8a6e b8bd 46bf 7fbc 992a 953c
00000220: 0c59 243d 8eed cf3d 197d 05bc 72ac e13d
00000230: 54c8 873d 9665 78bd d0a7 cabd 9f62 0e3e
00000240: 6e76 28bd 3df8 c83c 2689 f43d 4c30 f83d
00000250: be63 253e cb17 413d 006b 8b3d 174a 8c3d
00000260: bc3d ec3c b269 39be 829d 453b d542 2c3d
00000270: c657 663d 19b9 023d 1150 d7bd 2c55 b3bd
00000280: e0fa a0bc 60ab bd3d 575e bfbd 142f c3bc
00000290: 669e 063d f837 b83c b786 193e a0db 77bc
000002a0: 0ce4 5ebd 80a8 d3bd 4802 f83d 93e4 9dbd
000002b0: b65a d93c 41c4 ea3c 0a77 943d 698c 983c
000002c0: 9fca 013d 708d 8d3d 6cd8 58be 3a01 04be
000002d0: b3a3 8a3d 188e 09be 24c5 183d 7684 fdbd
000002e0: e82a dd3d 6857 92bd 7d1b e1bd 7d87 233e
000002f0: f002 2b3c 8058 d1ba b2d7 96bc 9857 bc3c
00000300: b0de c5bd 2461 753d 4229 c03d f073 c93c
00000310: 3b0f ef3c d0d7 81bc c0bc d8bd 526d cf3d
00000320: 0008 14bd c681 a63d fd23 953c 0a5f c4bd
00000330: eadb 05be a234 74bd 00f1 543a 001c 213b
00000340: 78cd c6bc 4c1a 18bd cad5 82bd 662d 9abd
00000350: a069 0cbc fc2d 753d c07b 6fbd 5a8b d7bd
00000360: 90c6 aebc d827 113b e04a d93c 110b a93d
00000370: 3d60 35be 346d 263d 7159 2ebe 58fc 833d
00000380: 209b 623c a81d a03c cb0d 573a 58d1 2f3d
00000390: d535 b0bc 860c e1bd f551 79bd fe34 e8bd
000003a0: bc12 173d 7ab4 903d 629a 93bd d695 fcbd
000003b0: 2e67 a2bd f785 6dbd 853e 06be 057e 14bd
000003c0: 91fe 38bb 4039 c23c 943c d2bd c0af cfbb
000003d0: 8ece adbc d089 d1bd 7adb 8e3d b079 82bc
000003e0: 185b a63d e0fe 483c 7c95 f23c 3571 4e3c
000003f0: c401 0bbd 2e94 e23d db80 773d 30e1 d2bc
0.03430062 -0.048676357 -0.17288359 -0.060059574 0.17142205 0.13957398 0.07237651 0.093747996
0.06443995 -0.0985997 0.15845005 0.13068862 0.053632926 0.037934363 -0.00974758 -0.01670925
0.02610411 -0.008699511 -0.14339955 0.1363425 -0.061899364 0.1375461 -0.0026176572 -0.08260746
0.13479765 0.047414377 -0.03903913 -0.12190789 0.027897138 -0.010546154 -0.13170727 -0.0056125075
0.054987386 0.16109437 -0.090611994 -0.09363579 0.10911106 0.05732862 -0.06739873 0.105999276
-0.09075999 -0.018860476 -0.02433036 -0.052652087 0.07354749 0.033400234 -0.01989844 0.073832706
0.09170876 0.09965308 -0.018541325 0.098567486 0.06450998 -0.21905786 -0.024175053 0.045689717
-0.03405198 -0.047028497 -0.02378902 0.066743076 -0.034229726 0.01980953 0.087894395 0.14512646
0.1463124 0.035777017 -0.11651522 -0.036879513 0.18742867 0.08311092 -0.023287063 0.06856217
0.054016456 0.040988684 0.103823155 0.012987042 -0.07829856 -0.021886056 0.05645539 0.13832493
0.14389616 -0.023014031 0.112515815 -0.07022925 -0.04928971 0.066429205 0.010471359 0.124959454
0.0688942 0.06369295 0.070255354 0.111573465 0.08680058 -0.061973784 -0.10765406 0.022439465
-0.066651314 0.15688631 -0.14138354 0.023373077 0.022848584 0.05257352 0.20472488 0.0139695555
0.052647352 -0.12060222 -0.02915123 0.09916889 -0.0831853 -0.06486727 0.058756467 0.03971627
0.00047318 -0.111387566 0.00013979821 -0.033762444 0.06346451 -0.15955912 0.14824596 0.05402335
0.02555364 -0.07865679 0.07353711 0.1335355 -0.027230158 -0.08436689 0.103912495 -0.04329459
-0.17432623 -0.06457698 0.026811501 -0.107924595 0.17264625 -0.09005459 -0.015609568 0.018208789
0.040123984 0.10152732 -0.008147501 0.110192195 0.066300064 -0.060643755 -0.09895289 0.13904808
-0.04112857 0.024532432 0.119402215 0.12118587 0.1615133 0.04714183 0.06807518 0.06850069
0.028838031 -0.18106726 0.0030153696 0.042055923 0.05623605 0.031914804 -0.10513318 -0.087564796
-0.019650877 0.09261203 -0.09344166 -0.02382616 0.032865904 0.022487625 0.14992796 -0.015128046
-0.0544167 -0.10334873 0.1210981 -0.07709613 0.026532512 0.028658034 0.072492674 0.01862164
0.031687375 0.06911743 -0.21176308 -0.12891093 0.067695044 -0.1343311 0.037297383 -0.123787805
0.10799199 -0.07145578 -0.10991571 0.15969653 0.010437712 -0.001597181 -0.018413398 0.022990987
-0.09661615 0.059907094 0.09382869 0.024591416 0.029182067 -0.015849978 -0.10582876 0.10128273
-0.036140442 0.08130221 0.018205637 -0.0958844 -0.13072172 -0.059620507 0.000812307 0.002458334
-0.024267897 -0.037134454 -0.06388433 -0.0752819 -0.008570105 0.059858307 -0.058467627 -0.10524626
-0.021334916 0.0022148993 0.026524961 0.08254064 -0.17712493 0.040631488 -0.17026307 0.06444615
0.01383093 0.019545391 0.00082036544 0.042924255 -0.021510044 -0.10988717 -0.060869176 -0.113382325
0.0368831 0.07065673 -0.072071806 -0.123332664 -0.07929836 -0.057989087 -0.13109787 -0.036252994
-0.0028227905 0.02370894 -0.102654606 -0.0063380897 -0.021216657 -0.10231364 0.069754556 -0.015927166
0.081228435 0.012267798 0.029612295 0.012600233 -0.03393723 0.11063419 0.06042562 -0.025742143

0.scale_net.network.4.bias f4 [64]
00000000: 2c99 953c 32c8 b8bd f8d3 3e3c 113d 26be
00000010: 6ae8 a03d d8bd 863d 9a21 23bc e43f 79bd
00000020: e080 333e 888a c9bd 51a9 eabd 8057 e5ba
00000030: 0d8d 5e3e cac4 cf3d 2001 57bd 2c8d eebd
00000040: c94e b5bc fcd2 3cbd f029 b8bd 59b6 c03c
00000050: 862e d83c f663 d5bd a5a8 883d dd65 a4bc
00000060: 4575 393e d66e 30bc d483 7dbd 042a 9abe
00000070: 023f 4b3e ae7d f7bd 04f6 7abc 5644 1f3e
00000080: d4f1 83bd eb39 ecbd c748 663a 24f2 85bd
00000090: f2c7 fc3d 52f6 dbbd fd1d 6ebe d048 8cbd
000000a0: b051 8d3c 9786 803d 152b d43d 087f 583e
000000b0: 8490 43be f456 e0bd b07e 143e d9af cfbd
000000c0: 306b fbbd 084b 1abc 0160 313e 937e 14be
000000d0: 9f7a 4c3e d4d4 eebd 1bf5 2dbd d8ac e8bc
000000e0: 8ff7 96bd de0f db3c de5d 813d a631 253d
000000f0: 69ae 1b3e ae2e 20be cca7 04bd a800 d6bd
0.018261515 -0.09022559 0.011647217 -0.16234232 0.078568295 0.065791786 -0.009956742 -0.060851946
0.1752963 -0.09840876 -0.11458076 -0.001749739 0.21733494 0.101449564 -0.052491307 -0.1164802
-0.022132294 -0.046099648 -0.08992374 0.02352445 0.026389372 -0.10419457 0.066727914 -0.020068103
0.18111141 -0.010768613 -0.0618933 -0.3011018 0.19848254 -0.120845184 -0.015317444 0.15553412
-0.064426094 -0.115344845 0.00087846484 -0.06540325 0.12342824 -0.10740341 -0.23253627 -0.068498254
0.017250866 0.06275671 0.1035978 0.21142209 -0.19098097 -0.10954085 0.14501452 -0.10140962
-0.12276304 -0.009417303 0.17321779 -0.14501409 0.19968651 -0.116616875 -0.04247008 -0.02840273
-0.07371437 0.026740965 0.06316732 0.04033055 0.15203251 -0.15642807 -0.032386586 -0.10449344

0.scale_net.network.6.weight f4 [6, 64]
00000000: 2388 d13a 74b6 f63d b222 8b3d 338f 883d
00000010: 9303 273e 9acc 463e 185d f8ba 0000 0000
00000020: 49cb 55be 0000 0000 ada8 253e 7e6d adbc
00000030: 882a 84be fcb5 96bd cda2 d63c bff2 d7bc
00000040: c2c8 b9bc dbaf 0e3d 740e 553c aa20 1c3e
00000050: 21b5 4dbc 7071 8fbd 851c 48bc 09fd 033d
00000060: a2c2 a2bd 48d5 0b3e 3e6d 4bbc 3a91 8abe
00000070: 4b46 fd3c ec26 313d 8933 c33c 5530 35be
00000080: 0000 0000 f4bd cd3b bf84 2abd 0000 0000
00000090: e9c9 06be 0000 0000 4ea0 5c3e 39db 833c
000000a0: 9854 413d 8be4 f53d 4107 68be 53de 1bbe
000000b0: c21c fd3d 0000 0000 dc17 23be 5a3e 863d
000000c0: cdc6 573d ab45 d6bb 6b41 fcbd 38de 513d
000000d0: 9472 08be 0000 0000 c95e 983d 92cc 603c
000000e0: 527d 1f3d 10d9 833d 5d0c cb3d acb3 61bc
000000f0: 135f 77be f4ec 7b3d f159 a6be 0000 0000
00000100: 0000 0000 0000 0000 0000 0000 0000 0000
00000110: 0000 0000 0000 0000 0000 0000 0000 0000
00000120: 0000 0000 0000 0000 0000 0000 0000 0000
00000130: 0000 0000 0000 0000 0000 0000 0000 0000
00000140: 0000 0000 0000 0000 0000 0000 0000 0000
00000150: 0000 0000 0000 0000 0000 0000 0000 0000
00000160: 0000 0000 0000 0000 0000 0000 0000 0000
00000170: 0000 0000 0000 0000 0000 0000 0000 0000
00000180: 0000 0000 0000 0000 0000 0000 0000 0000
00000190: 0000 0000 0000 0000 0000 0000 0000 0000
000001a0: 0000 0000 0000 0000 0000 0000 0000 0000
000001b0: 0000 0000 0000 0000 0000 0000 0000 0000
000001c0: 0000 0000 0000 0000 0000 0000 0000 0000
000001d0: 0000 0000 0000 0000 0000 0000 0000 0000
000001e0: 0000 0000 0000 0000 0000 0000 0000 0000
000001f0: 0000 0000 0000 0000 0000 0000 0000 0000
00000200: 3b99 0b3d 7d6c 0fbc 004e c03c 1c90 0e3d
00000210: 5773 353d 661b 7e3a 57ea d3bb 0000 0000
00000220: 5b38 4fbd 0000 0000 6946 943d 050a 203c
00000230: 7c50 d7bd 12f0 85bd c2d4 4e3c 7095 a2bc
00000240: 936e 343c 5e9b 7a3c ecc6 4f3d b1d4 21bd
00000250: 48cc 13bd c04e 04bd 9dfd c4bc a88b fd3c
00000260: f1c7 debd 7d18 b7bc c1e5 bd3a ce08 923d
00000270: 53a2 a7be c6c8 593d 5a20 dd3d 825c bbbd
00000280: 0000 0000 8c03 473d a3de a53b 0000 0000
00000290: 2c8b 09bd 0000 0000 a211 aa3b 5017 903d
000002a0: ea83 053c 6cca e83b 7da9 033e d95f c7bd
000002b0: d42a 833d 0000 0000 38cc 933d e374 72bb
000002c0: be37 b2bb 25eb c5bc cc05 f8bd 54ec 513d
000002d0: 1dff d0bd 0000 0000 42aa 223d 2548 e9bc
000002e0: 763a c23c 1608 d7bb fb1f 8fbc 7da9 81bc
000002f0: a8b1 2fbd 9d34 42bc 4cc3 68bb 0000 0000
00000300: 0000 0000 0000 0000 0000 0000 0000 0000
00000310: 0000 0000 0000 0000 0000 0000 0000 0000
00000320: 0000 0000 0000 0000 0000 0000 0000 0000
00000330: 0000 0000 0000 0000 0000 0000 0000 0000
00000340: 0000 0000 0000 0000 0000 0000 0000 0000
00000350: 0000 0000 0000 0000 0000 0000 0000 0000
00000360: 0000 0000 0000 0000 0000 0000 0000 0000
00000370: 0000 0000 0000 0000 0000 0000 0000 0000
00000380: 0000 0000 0000 0000 0000 0000 0000 0000
00000390: 0000 0000 0000 0000 0000 0000 0000 0000
000003a0: 0000 0000 0000 0000 0000 0000 0000 0000
000003b0: 0000 0000 0000 0000 0000 0000 0000 0000
000003c0: 0000 0000 0000 0000 0000 0000 0000 0000
000003d0: 0000 0000 0000 0000 0000 0000 0000 0000
000003e0: 0000 0000 0000 0000 0000 0000 0000 0000
000003f0: 0000 0000 0000 0000 0000 0000 0000 0000
0.0015986006 0.12046519 0.06793727 0.06667938 0.16309957 0.19413987 -0.0018948643 0.0
-0.20878328 0.0 0.16177626 -0.021170374 -0.258137 -0.073589295 0.026200676 -0.026360868
-0.022678737 0.034835678 0.013003934 0.15246835 -0.0125553915 -0.07004058 -0.012213831 0.032223735
-0.079472795 0.13655579 -0.012416182 -0.27063924 0.030917307 0.04325001 0.023828285 -0.17694218
0.0 0.0062787477 -0.041630503 0.0 -0.1316296 0.0 0.21545526 0.016095744
0.047199816 0.12006482 -0.22659017 -0.15221529 0.12359001 0.0 -0.1592707 0.06554861
0.052679826 -0.006539067 -0.12317165 0.051237315 -0.13324958 0.0 0.07439954 0.013720648
0.038937874 0.06437886 0.099144675 -0.013775747 -0.24157362 0.061505273 -0.32490495 0.0
0.0 0.0 0.0 0.0 0.0 0.0 0.0 0.0
0.0 0.0 0.0 0.0 0.0 0.0 0.0 0.0
0.0 0.0 0.0 0.0 0.0 0.0 0.0 0.0
0.0 0.0 0.0 0.0 0.0 0.0 0.0 0.0
0.0 0.0 0.0 0.0 0.0 0.0 0.0 0.0
0.0 0.0 0.0 0.0 0.0 0.0 0.0 0.0
0.0 0.0 0.0 0.0 0.0 0.0 0.0 0.0
0.0 0.0 0.0 0.0 0.0 0.0 0.0 0.0
0.03408168 -0.008753893 0.023474693 0.034805402 0.04429945 0.0009693414 -0.0064671445 0.0
-0.050590854 0.0 0.07239992 0.009768014 -0.10513398 -0.065399304 0.012623968 -0.019846648
0.011012691 0.0152958315 0.050726816 -0.03950948 -0.03608349 -0.032301664 -0.024046713 0.030950382
-0.108779795 -0.022350544 0.0014488028 0.071305856 -0.3274103 0.053169988 0.10797186 -0.09148504
0.0 0.048587367 0.0050619408 0.0 -0.03357999 0.0 0.0051900903 0.070356965
0.008149127 0.0071042087 0.12857623 -0.09735078 0.06404653 0.0 0.07216686 -0.003699594
-0.005438774 -0.024159977 -0.12110481 0.05125077 -0.10204909 0.0 0.03971315 -0.028476784
0.023709517 -0.006562243 -0.017471304 -0.015827889 -0.042894036 -0.011853364 -0.0035516797 0.0
0.0 0.0 0.0 0.0 0.0 0.0 0.0 0.0
0.0 0.0 0.0 0.0 0.0 0.0 0.0 0.0
0.0 0.0 0.0 0.0 0.0 0.0 0.0 0.0
0.0 0.0 0.0 0.0 0.0 0.0 0.0 0.0
0.0 0.0 0.0 0.0 0.0 0.0 0.0 0.0
0.0 0.0 0.0 0.0 0.0 0.0 0.0 0.0
0.0 0.0 0.0 0.0 0.0 0.0 0.0 0.0
0.0 0.0 0.0 0.0 0.0 0.0 0.0 0.0

0.scale_net.network.6.bias f4 [6]
00000000: 83f3 39be 0000 0000 fcb4 bbbd 0000 0000
00000010: c224 e7bc 0000 0000
-0.18159299 0.0 -0.091653794 0.0 -0.02821577 0.0

0.translate_net.network.0.weight f4 [64, 6]
00000000: acc6 c33e 2b30 77bd f8af efbd 0a17 a13e
00000010: f025 8abe ce2a 743e ccc1 1b3e c951 b73e
00000020: 62a3 8e3e a3f3 eb3e 60e2 d83c 375f 28be
00000030: 7781 2dbe 4f80 013e 9457 c83e 6efb dfbe
00000040: ea73 12be 740c ec3d e86f 99be 752f 0ebd
00000050: 30fd 9a3d 8e73 d7bd b752 a2be 39fb fbbc
00000060: 5885 823d 3823 7c3e ebf9 c9be 7dcf 503e
00000070: 2c66 543e 858c 1dbe 98f9 f43d 3bf7 a1be
00000080: 6062 703c f48f d2be 8464 b53e 76aa 39bd
00000090: 9053 92be 8ce7 2f3e d6f9 1abe 299e 7a3e
000000a0: 5c40 88bd e76d 3e3e 8e58 aabe 28cd d33d
000000b0: ca7f a9be 989a 0bbe 8031 73bc 99e1 31be
000000c0: 7cec 89be b9e0 463e dc6b 9b3d 81af 8dbc
000000d0: 8068 45bd 0f8e 5ebe 5042 b43e 43a3 9abe
000000e0: 685a 94be 30b1 b4bc a0bd a23e 9f51 85be
000000f0: 609e c53d 43bc ad3d e106 98be f3e6 8fbe
00000100: 0840 263e 0d6b d33d cb02 b5be 4328 9d3d
00000110: 0e6f a43e 99c7 6d3d 427d 07be 7355 a1bb
00000120: c873 c3bd 9f3d 8b3e 8e83 bd3e ec66 85be
00000130: 84e1 4abe 61ce 15be 8686 bdbe e864 9e3e
00000140: d635 37be 09a3 123d 5093 493d 4a39 88be
00000150: 8062 383e 1d6c 8e3e b87b 663d 1c24 bdbe
00000160: b8c1 053d 25c1 1bbe 4c9a b83e 07e1 05be
00000170: 88f6 38bd 6a04 2bbe d0a2 133d 61e4 2abe
00000180: 5562 bbbe 42f1 c03e 1eaf ab3e ec87 a4bb
00000190: 447c 343e 4453 ce3d 2406 1dbe f458 a63e
000001a0: 7834 3f3d 5d6c c0be 7482 833d 294f 543e
000001b0: d018 aa3e 9386 22be 00d9 43bb e311 bcbe
000001c0: 488f 623e fd8e 8bbe 7428 be3e 7d49 8bbd
000001d0: 20dc 1dbc 295b ce3e 5c63 923e d1dd 153f
000001e0: 20b2 4d3d 613c 3f3e c4a2 10be e319 843e
000001f0: 625e 91be 8309 16be 5448 963e 3f40 82be
00000200: bcb6 02be 520c c43e c0bc 6dbe 1fe3 c73d
00000210: b6c8 8ebe a8ba 023e 5024 953e 9ad9 d3be
00000220: a555 cfbe 71fc b43d 046f 81be 5f8d dfbe
00000230: 08cc 2d3e 85c1 233d 6083 da3d f681 443e
00000240: 7681 a33e bea1 1cbd 509b 033e d3c2 3fbb
00000250: d6b7 b7be 4b6b 83be 68bc c83e 27b2 ee3e
00000260: a0ef 67bc 1ecd a83f 78e6 5b3e 8208 8f3e
00000270: a892 3cbd 6db1 a83d 6eb8 93be 1ea5 cfbe
00000280: e80a 773e c926 323e f077 fbbd b426 423d
00000290: 6259 abbe 029b 833e 2037 b0be ada1 443d
000002a0: 287d 7abe e32f f2bf e88b 9a3e 3511 753e
000002b0: bdd6 56be 1e6a c2bf b05b 47bd 5ba2 413e
000002c0: e8ad c2be 24e4 cf3b 0fa5 29be dbe4 04be
000002d0: 8c35 81bd c797 34be c82a 393d 425e 98be
000002e0: f0dc 543d 3f28 ce3b 6010 14bc 74ae 883e
000002f0: b85a 303e 858c 9ebe 7384 2abe 08bf 8ebe
00000300: c43a fdbd cf14 763e b48f adbd 39d5 18bd
00000310: 8076 713b 135b 233e 3dbf 64be 09f4 2e3e
00000320: d4b6 2c3e 0e1d 093d f9d5 b4be 673c 49be
00000330: 0060 64b9 fe5b d9be d67a cb3e a5cf 1dbc
00000340: 046d 6f3e e951 29be 0006 383e 0cfc 9c3d
00000350: abe6 b6be 9d0d c8be f859 e3bd 1afb fcbe
00000360: f822 963d 60d6 d6bc 342c 343e a3e5 c4be
00000370: bfff 23be 302b a53e f05a 623e 89ab 68bc
00000380: 0e5c 9a3e 3075 563c f8da 5b3e a8b2 773c
00000390: 28d9 8bbd 4c96 16c0 28e4 f33d 04e9 e13d
000003a0: ccde e4bd 17cf 1ec0 0c1f 6e3e fe20 58be
000003b0: c099 0d3e 64d5 6cbc a8e9 b0bd f1d6 5fbe
000003c0: 4089 d1bd 3e84 97be ac25 453e a893 d5be
000003d0: 10e4 c23d bca0 7a3e cc21 fbbd f2ce 02be
000003e0: ac92 b23e bdfd 073e f803 d53d 73ee 3a3e
000003f0: a0dc 8d3e 8e21 433e 44f7 6f3e 829f 57bd
0.38237512 -0.06034867 -0.11703485 0.3146289 -0.2698207 0.23844454 0.15210646 0.35804585
0.27859026 0.46084318 0.026475132 -0.16442572 -0.16943918 0.12646602 0.39129317 -0.43746513
-0.1430203 0.11525813 -0.2996819 -0.034713227 0.07567823 -0.10520087 -0.3170373 -0.03075944
0.063730896 0.2462281 -0.39448485 0.2039165 0.207421 -0.15385635 0.11961669 -0.31633934
0.014671892 -0.41125453 0.3542825 -0.04532858 -0.28579378 0.17178172 -0.15134367 0.24474396
-0.066529006 0.18596612 -0.33270687 0.10341865 -0.33105308 -0.13633192 -0.014843345 -0.17371215
-0.26938236 0.19421662 0.07588932 -0.0172956 -0.048195362 -0.21733879 0.35206842 -0.30202684
-0.28975224 -0.022057146 0.31785297 -0.26038834 0.09649348 0.08483174 -0.29692748 -0.28105888
0.16235363 0.10323153 -0.35353693 0.07673695 0.32115978 0.05805168 -0.13231376 -0.0049235164
-0.09543568 0.2719545 0.3701443 -0.26055086 -0.1981259 -0.14629509 -0.37016696 0.3093636
-0.1789163 0.035800014 0.049212754 -0.26606208 0.18006325 0.2781686 0.05627033 -0.36941612
0.032655448 -0.15210398 0.3605522 -0.13074122 -0.045156986 -0.16700903 0.036043942 -0.16688682
-0.3659846 0.37684065 0.3353204 -0.005021086 0.17625529 0.100744754 -0.15334374 0.3248974
0.046680897 -0.37582675 0.06421366 0.20733322 0.33222055 -0.15871648 -0.002988398 -0.36732396
0.2212497 -0.2725753 0.37140238 -0.06801126 -0.009635001 0.40303925 0.2859143 0.5854159
0.0502187 0.18675376 -0.1412459 0.25801 -0.2839232 -0.14652066 0.29352057 -0.2543964
-0.1276502 0.3829065 -0.23216534 0.09760117 -0.27887505 0.12766516 0.29129267 -0.41376954
-0.4049503 0.08837212 -0.2528001 -0.43662545 0.16972363 0.039979476 0.10669589 0.19190201
0.31934708 -0.038240187 0.12852216 -0.0029260411 -0.35882443 -0.25667796 0.39206243 0.46620294
-0.014156252 1.3187597 0.21474636 0.27936178 -0.0460383 0.08236966 -0.28851646 -0.40555662
0.24125254 0.17397608 -0.12278736 0.04740019 -0.3346663 0.257042 -0.34417057 0.04800575
-0.24461806 -1.8920864 0.30184865 0.23932345 -0.20980354 -1.5188634 -0.048671424 0.1890959
-0.38023305 0.006344335 -0.16566871 -0.12977926 -0.063090414 -0.17636023 0.045206815 -0.29759413
0.051968515 0.006291419 -0.009037107 0.26695597 0.17222106 -0.30966583 -0.16652088 -0.2788012
-0.12364724 0.24031375 -0.08474675 -0.03731272 0.0036844313 0.15952711 -0.22338577 0.1708528
0.16866618 0.033474974 -0.35319498 -0.19651948 -0.00021779537 -0.42452997 0.39742154 -0.009632026
0.2338143 -0.16535152 0.17971039 0.076652616 -0.3572286 -0.39072886 -0.111011446 -0.49410325
0.073308885 -0.026225269 0.17594987 -0.3845645 -0.16015528 0.32259512 0.22105002 -0.014201053
0.30148357 0.013089463 0.21470249 0.015118279 -0.06828529 -2.3529234 0.11908752 0.11030772
-0.11175308 -2.4813898 0.23254031 -0.21106336 0.13828182 -0.014455173 -0.086383164 -0.21859337
-0.102312565 -0.2959308 0.19252652 -0.41714215 0.09516156 0.24475378 -0.122623056 -0.12774256
0.34877527 0.13280387 0.104011476 0.18255024 0.27707386 0.19055769 0.23434168 -0.052642353

0.translate_net.network.0.bias f4 [64]
00000000: 56bc 6e3e d1dc 873e 4c89 d4be e224 253d
00000010: 24e4 133e 6db9 053e d7e1 f13d d255 2d3d
00000020: dfd1 94bc 08b0 1abc a224 453c e905 99bd
00000030: e3ef fcbe 42f4 b3bd 918d 2abd 95bc 4bbe
00000040: ac5c 99ba e911 513c da3e a5be cc50 523e
00000050: 401d 51be 98b0 e53e 6349 15bd bb17 1cbc
00000060: 13c7 35bc 74f2 48bd 2107 b13d a346 523e
00000070: dffa 4ebd 8adf a73d d0f2 c3bb 8e9b bbbe
00000080: 1814 c4b9 7cbe 85bc b023 97bc f200 563e
00000090: 097d 22bd 654f a3bc 87a7 673a 45bd 3ebe
000000a0: 613b 57bd 52b3 5abe da92 bebe d837 a3be
000000b0: 1a01 c8bb d0b0 52bd 0581 7c3c d4fe 7bbb
000000c0: 71fe 093e 748f 223e a2c2 60be 7e92 87be
000000d0: 51bb 8d3e c20c debd f413 0e3b e00e 103e
000000e0: 7ae0 053e 789f 0fbd 085b af3d bc42 93be
000000f0: 055f 973e ba24 88be 32cb d6be 4b24 e939
0.23314032 0.26535657 -0.41511 0.040318377 0.14442497 0.13059016 0.11810654 0.042318173
-0.01816648 -0.009441383 0.01203266 -0.074718304 -0.4940177 -0.08786823 -0.041638914 -0.19896157
-0.0011700592 0.012760618 -0.32274514 0.20538634 -0.20421314 0.44861293 -0.03644694 -0.009527142
-0.011094826 -0.049059346 0.08643938 0.20534758 -0.050532218 0.081969336 -0.0059798732 -0.36642116
-0.00037399004 -0.016326182 -0.018449634 0.20898798 -0.039670024 -0.01993532 0.0008836914 -0.18626888
-0.052546863 -0.21357468 -0.37221414 -0.31878543 -0.006103647 -0.051438153 0.01541162 -0.003845145
0.13475968 0.15875036 -0.21949247 -0.26478952 0.27681974 -0.10842277 0.0021679373 0.14068174
0.13073912 -0.03506419 0.08562285 -0.28761852 0.29564682 -0.2659052 -0.419519 0.00044468264

0.translate_net.network.2.weight f4 [64, 64]
00000000: c8f0 c5bd d4a0 fc3c a416 61bd 61e0 cabd
00000010: 899a bfbd e443 b4bb 14fc 95bd 03c2 e03d
00000020: 5696 d2bd d4cb 3fba a609 88bd 9548 44be
00000030: 178d 963d b41a 7a3d fa16 b5bd 5357 bfbb
00000040: 09b7 4abe b1e9 12be e3e9 d73d f918 25be
00000050: b2e6 f13d eb7f d3bd 3ad0 58bd 899c e5bc
00000060: 0e54 2fbc 7491 193e 3044 b8bd 6ce1 c73c
00000070: e5f7 8b3e 7aa3 da3c 6a80 4f3e 00c4 0dbd
00000080: 8cd0 53be faf8 5a3d acf3 67bc 4b90 d2bc
00000090: a85c 47bd dc9d 8cbd be7c 423f 8b1e 33bd
000000a0: f2d4 82bd 55e5 223e e0f2 d03b 8035 523b
000000b0: 9c60 febe 77f9 843d f4da 893c d191 d63d
000000c0: 4516 cdbd 2ebb 21bc 004f f93b 6e65 89bd
000000d0: 17cb 10bd 9e03 f6bd b405 2bbd 77fd 633d
000000e0: db03 c9bc 3b6d d73d 560b cb3d e427 ffbd
000000f0: b8aa 03be 3cdf 81bd 4e1d 9dbd 7ebf 7a3f
00000100: 10ea 0dbe 7339 2dbe d871 1d3d d4b0 f7bb
00000110: e983 33be f3c7 c9bd 78dd 913c 875b 16bd
00000120: e860 eabd 3350 e23c f7c6 59bd b07a 503c
00000130: 000f e53b 18a9 56bd d427 08be 9412 3b3d
00000140: 055a 75bd b0d3 16be 68b1 883c ca1f 23be
00000150: ecf4 ba3d 7c09 693d 082f d8bd a657 82bd
00000160: e6b5 413b 80e9 963d ca70 30be 41d3 dbbd
00000170: 2d9b 383d 0fa7 f4bd 6355 26bd 6ac2 af3d
00000180: 18ca 983c 5ccd 90bb bf29 d6bd 37d7 183d
00000190: 6cf2 f9bd 86f4 99bd c8dd 13be 60e6 dc3d
000001a0: 2283 893d d8f6 973d 6411 4ebd 4460 2dbd
000001b0: 3dac bc3b c371 57bc b996 fabd 98a3 fbbd
000001c0: 2b53 51bc 8f75 14be 66f3 da3d 0032 aeb9
000001d0: 79f3 183c c0bc 60bc 6daf 15be e97f bb3c
000001e0: 1260 17bd 8317 15be 435c e7bd a076 733d
000001f0: e530 5cbd 586c 21bd 30ae 66bc 76e2 f03d
00000200: fa95 f7bd 15a5 22be de37 853d 00a3 9ebe
00000210: 3c29 89be ecd5 5bbe 85db 8cbe f65a 70be
00000220: 666b ce3d 6c24 4cbe c57e d43c 30ad 25bc
00000230: 24b8 35bd 18f9 cf3d 6452 14be c0d4 a13c
00000240: 7287 89bd 954d 84bd 74fb 4c3d fe86 89be
00000250: d4b2 5a3d d940 95be 5c90 fc3d d5f9 45be
00000260: 67cd 0dbe dff9 57be 2b08 25be 3dac 9abe
00000270: 7628 aebd ba1b 1cbe 35a4 86be dc9d 143d
00000280: 0a38 9ebd 6cc8 24bd 5dff 85be da38 65be
00000290: 240c cabd 1074 e93d bfe1 80be ae7b 9ebd
000002a0: 08cf e93d 0062 ca3c 8027 e93c e06b 72bd
000002b0: bfd9 d9bc 0b00 83be cfb4 9bbe 16f3 9fbe
000002c0: 6484 62be d155 2cbe 22a2 e2bd d405 96bd
000002d0: 88a6 cabd 9895 c8bc 0e49 9fbe f6cf f6bd
000002e0: b765 6cbe e77e 49be 1f13 87be 7c80 703d
000002f0: fed3 23be 9250 963d dc56 2fbd bc5b 26be
00000300: 6475 65bd e8c2 97bc f4c8 dcbd 30b6 d83c
00000310: 60a5 8e3c 0066 62bd 5e23 f9bd 406f a8bc
00000320: 0008 d93d 6a8f c63d 307d efbc 68e3 abbc
00000330: c0c2 26bd a071 39bd 7c63 0fbd d42c b93d
00000340: 2494 ee3d dc1e 79bd cac7 d43d f084 02bc
00000350: 4831 3e3d 26e9 a83d be0f abbd ba94 d73d
00000360: 241f 2a3d bac3 983d bc4e a0bd c030 9dbd
00000370: 2055 f1bd a6b8 eebd d042 f6bc c656 f43d
00000380: 0077 a1bc e8cf 8abd 6882 d23d ee27 fbbd
00000390: 9c4c 40bd 7452 a7bd 64e4 1e3d 1e1b 9ebd
000003a0: 9a65 c6bd ced4 95bd 4068 f1bd 28d0 bebd
000003b0: 24ce 45bd 32ee d13d 82e9 c03d 88ba babd
000003c0: 006d 5fbc d49f d83d d08c 8bbc f819 e03c
000003d0: 3018 a0bc 9ccb c0bd e03d adbd 6454 4d3d
000003e0: 2a84 86bd 344e 6c3d 1473 4a3d a0d3 10bd
000003f0: d808 f4bd c857 f03c 1462 5c3d 047e 783d
-0.09665066 0.030838408 -0.054953232 -0.09906078 -0.09355647 -0.0055012573 -0.07323471 0.10974505
-0.102825806 -0.00073164445 -0.06642465 -0.19168313 0.073511295 0.061060622 -0.08842273 -0.0058392673
-0.19796385 -0.14346959 0.10542657 -0.16122808 0.1181158 -0.10327133 -0.052932955 -0.028028743
-0.010701193 0.14996892 -0.08997381 0.024399482 0.27337566 0.02668928 0.2026383 -0.03461075
-0.20685023 0.0534601 -0.014157217 -0.02570357 -0.04867235 -0.06866047 0.7597159 -0.0437303
-0.06388272 0.15907796 0.006376609 0.0032075346 -0.49683082 0.06492894 0.016828038 0.10477031
-0.10014013 -0.009871287 0.0076082945 -0.06708799 -0.03534993 -0.12012409 -0.041753486 0.055661645
-0.024537971 0.10518881 0.099142715 -0.124587804 -0.12858093 -0.06341407 -0.07671605 0.97948444
-0.13858819 -0.16916446 0.038438648 -0.0075589214 -0.17530788 -0.098525904 0.0178058 -0.03670838
-0.11444265 0.027626133 -0.053168263 0.0127245635 0.0069903135 -0.052407354 -0.13296443 0.045672014
-0.059900302 -0.1472919 0.016686156 -0.15930095 0.091287464 0.05689381 -0.105558455 -0.06364374
0.0029557883 0.07368755 -0.17230526 -0.10733653 0.045069862 -0.119459264 -0.040608775 0.085820034
0.018651053 -0.004419012 -0.10457181 0.03731462 -0.122044414 -0.07517342 -0.14440072 0.10786128
0.06714465 0.074201286 -0.050309554 -0.042328134 0.005757837 -0.0131496815 -0.12235779 -0.122870624
-0.012776176 -0.1449797 0.10690956 -0.0003322512 0.009335392 -0.0137168765 -0.14617701 0.02288814
-0.036956854 -0.1455975 -0.112968944 0.0594393 -0.053757567 -0.039409965 -0.0140796155 0.11761944
-0.12089153 -0.15883286 0.065047964 -0.30983734 -0.26789272 -0.21468323 -0.2751123 -0.23472199
0.100790784 -0.19935769 0.025939355 -0.010112092 -0.044365063 0.10154933 -0.14484555 0.019754767
-0.06715287 -0.0646011 0.050044492 -0.26860803 0.0533932 -0.29151037 0.12332222 -0.19333585
-0.13847886 -0.21091412 -0.16116397 -0.30209532 -0.08503811 -0.15244952 -0.26297155 0.03628336
-0.07725532 -0.0402302 -0.2617139 -0.22384968 -0.09865597 0.1139909 -0.2517223 -0.07738434
0.11416441 0.024704933 0.028461218 -0.05918491 -0.026593087 -0.2558597 -0.30411384 -0.31240147
-0.22120816 -0.16829611 -0.11066081 -0.073253304 -0.098950446 -0.024485394 -0.31110424 -0.12051384
-0.23085676 -0.19677316 -0.26381776 0.058716282 -0.15998837 0.07339586 -0.042807445 -0.16245931
-0.056020156 -0.018525556 -0.10780516 0.026454061 0.017412841 -0.055273056 -0.12164949 -0.02056086
0.10597229 0.09695323 -0.029234499 -0.02098246 -0.04071307 -0.045274377 -0.035006985 0.090417534
0.11649349 -0.060820445 0.10389669 -0.007966265 0.046433717 0.082475945 -0.08352612 0.10526414
0.041533604 0.07459207 -0.078275174 -0.07675314 -0.117838144 -0.11656313 -0.030061156 0.11930613
-0.019710064 -0.06777936 0.10278779 -0.12263475 -0.04694806 -0.081700236 0.03879203 -0.07720016
-0.09687348 -0.0731598 -0.11787462 -0.093170464 -0.048292294 0.1025051 0.09419538 -0.09117609
-0.0136368275 0.1057736 -0.017034918 0.027356133 -0.019542783 -0.094138354 -0.08459067 0.05012931
-0.06568177 0.057691768 0.049426153 -0.03535807 -0.11915749 0.029338732 0.053804472 0.060667053

0.translate_net.network.2.bias f4 [64]
00000000: c634 523d 62dd fb3c 263f d9bd 647a a3bd
00000010: 3d7a 98bd 1352 9dbe 14b2 5b3d 0f8e d2bc
00000020: 9618 dcbd d2c4 883d 3717 183e 5962 c7bd
00000030: e01d 77bd 0ef6 993d 878c 2fbe 9a63 c9bd
00000040: 9f56 02be 7f2f 37be 26de 383d badb a2bb
00000050: 656a 0f3d 63e7 8ebd d8ad 01be f4cd f73c
00000060: 8c27 11be f9f7 21be 9332 45bb 8691 d4bd
00000070: 1058 80bd b103 7b3d 7454 423d 4991 57be
00000080: aa4a 84bd 7e5b 1a3e 947d b2bd 526d c3bd
00000090: d365 44be 1806 07bd ec06 05be 3844 c63c
000000a0: 89dc 123c 8bea 2f3b 0689 4fbe 1f7d 9d3a
000000b0: 4017 24bd c382 8bbd 0e4d fcbd b77e 15be
000000c0: e33b a83b dd3d 873c da5b 80bd 56b7 17bd
000000d0: 2a4e 043e c9e1 0bbe b719 513e acc7 91bd
000000e0: 5803 adbd b493 b63a d021 b13c c519 ee3c
000000f0: f534 fc3c df5a 16be 79a3 d0bc 69fd 2cbd
0.05131986 0.030745212 -0.10607748 -0.079823285 -0.0744519 -0.3072668 0.053636625 -0.025702504
-0.10746877 0.066781655 0.14852606 -0.09735555 -0.060331225 0.07517634 -0.1714345 -0.098334506
-0.12728356 -0.17889212 0.045133732 -0.004970041 0.035013575 -0.06977727 -0.12663972 0.030249573
-0.14175242 -0.1581725 -0.003008996 -0.10379319 -0.062667966 0.061282817 0.047443822 -0.21051516
-0.064595535 0.15073964 -0.087153584 -0.095423356 -0.19179468 -0.032964796 -0.12990922 0.024202451
0.0089637125 0.002684268 -0.20267114 0.0012015438 -0.040061235 -0.0681205 -0.123193845 -0.14599119
0.005134092 0.01650899 -0.06267519 -0.037040077 0.12920442 -0.13660349 0.20419966 -0.071181625
-0.084479034 0.0013929517 0.021622568 0.029065022 0.03078697 -0.14683102 -0.025468575 -0.04223386
