SE3_DS/nn_models/models/PegInHole_models/best_model_001.pth (torch, 396402 bytes, 80 tensors)

0.scale_net.network.0.weight f4 [64, 6]
000000 56 52 49 be b1 bb 18 be 84 2b eb bd cd ea 85 be
       -0.19660315 -0.14915349 -0.11482909 -0.261557
000010 e4 88 d2 bd 07 43 0d 3e 02 ad 00 be 6b 2a 23 be
       -0.10280016 0.137951 -0.12565997 -0.1593415
000020 90 2b 83 3c 2a f0 59 3c 80 27 da 3d d8 c7 5c be
       0.016011983 0.0133018885 0.10652065 -0.2156061
000030 1c d7 cf bd f3 02 43 3e 08 3c 02 3e 18 ce 87 be
       -0.10148451 0.19044094 0.12718213 -0.26524425
000040 10 db b2 3d dc 6b 76 3e 2c 66 86 be e8 6a a5 bc
       0.08733189 0.24064583 -0.26249826 -0.020192578
000050 00 2c c3 b9 f1 1d 87 bd 08 d1 6e 3d 61 7d d2 be
       -0.0003722608 -0.06597508 0.058304816 -0.41111282
000060 50 08 ed bc 9e 48 dd bd ee da aa 3e 55 ca 45 3e
       -0.028934628 -0.10804866 0.33370155 0.19315465
000070 e8 cd c5 be 5b f3 6f 3e a3 72 8f be 0f 28 90 3e
       -0.38633657 0.23432676 -0.28017148 0.28155562
000080 71 a8 5f be df f6 e2 3e d0 8e ea bd 69 b7 cf 3b
       -0.21841599 0.44328973 -0.114530206 0.006339003
000090 fa 3d 44 be 6f 73 c6 be fc 80 86 3e 7d 9a c1 3d
       -0.19164267 -0.38759944 0.26270282 0.094532944
0000a0 02 6e 52 be 49 50 8e 3e 3a ad 76 be 84 a1 ae 3e
       -0.20549777 0.27795628 -0.24089518 0.34107602
0000b0 c8 b0 33 be 05 49 7a 3d 3c dc bd 3e 3d 54 73 3e
       -0.17547905 0.061104793 0.37082088 0.23762603
0000c0 fe 62 39 be ff d2 16 3f 7e 73 c9 3e 18 32 6e 3e
       -0.18104169 0.58915704 0.39345926 0.23261297
0000d0 f2 cd c3 be 04 e5 73 3e 9c 3a 06 3e c8 70 9b 3d
       -0.3824306 0.23817831 0.13108295 0.07589871
0000e0 e8 bf 8e bd b8 29 af bd 1c ac d1 bd 20 f6 b5 be
       -0.06970197 -0.08552879 -0.102379054 -0.3553934
0000f0 7e 4a 12 be 58 79 02 3e 86 63 cc 3e 6c 46 18 3e
       -0.14286229 0.12741601 0.3991968 0.14870614
000100 68 1e 85 3d 0c d8 18 be 3c 93 1c 3e e4 c8 3f 3d
       0.0649994 -0.14926165 0.1529054 0.046822444
000110 80 2c 96 be 26 f5 66 bd 80 0d 6e bb 81 02 2e be
       -0.29330826 -0.056386136 -0.0036323965 -0.16993143
000120 ec b3 16 be ed 47 cb 3e 5a e1 9d 3e a9 ea d8 3e
       -0.14717072 0.39703313 0.30835992 0.42366531
000130 18 24 72 3e 38 93 04 be d2 ab 45 be 9b b4 1d 3e
       0.23646581 -0.12946784 -0.19303825 0.15400927
000140 7c a2 66 3e 96 97 ef 3e 95 9a 98 be fb dc 5e 3e
       0.2252292 0.46795338 -0.29805437 0.21763985
000150 88 73 83 be 9e 2b 7b 3e e8 0c 2d bd 1c 96 53 3d
       -0.2567408 0.24528357 -0.042248636 0.051656827
000160 ea a3 89 3e 23 e1 8f 3e bc 04 32 3e 36 99 af 3d
       0.2688287 0.28101453 0.17384619 0.085741445
000170 d0 de 3d 3d 56 9e 6e be 30 ab 45 3d 73 dc 98 3e
       0.04635507 -0.23302588 0.04825896 0.2985569
000180 70 b5 b9 3e 10 a3 10 be dc 21 4c 3e 6b bc 13 3c
       0.36271238 -0.14124703 0.19934791 0.00901709
000190 40 83 a8 bb 3b 1b ec bd 40 4e 79 3c 04 d9 91 bd
       -0.0051425993 -0.11528631 0.01521641 -0.071214706
0001a0 10 e2 3c bd 24 e3 8a 3e 50 2f c3 3e af 29 3e be
       -0.046114028 0.2712642 0.38122034 -0.18570589
0001b0 78 ef 2c 3d f0 b3 c6 be 42 51 8b 3e a8 41 9b be
       0.042220563 -0.38809156 0.27210432 -0.3032353
0001c0 28 9f 1b 3d 2f dc 8e be 6c 09 3e 3e 1a f8 66 be
       0.03799358 -0.27902362 0.18558282 -0.2255558
0001d0 8d 58 72 be fb c8 a6 3e 7c 2d ce bd 19 aa 46 3e
       -0.23666592 0.3257521 -0.10067269 0.19400825
0001e0 98 95 73 3d d7 e3 a2 be e8 d7 ac 3e 24 0d ed bd
       0.059468836 -0.31814453 0.33758473 -0.11574772
0001f0 20 25 08 3d 18 77 5e bd a8 31 c3 3d 27 34 cd be
       0.03323853 -0.054312795 0.095309556 -0.40078852
000200 dc 5a a7 be f0 e5 28 be ac 01 b7 3e 69 12 e7 3e
       -0.32686508 -0.16493964 0.35743463 0.45131233
000210 c4 6d 1c be 90 bf 55 3d 70 52 ca 3e 48 82 c5 3e
       -0.15276247 0.05218464 0.3951602 0.3857596
000220 17 ee 74 be 6d 21 cf be 9c ea 47 3e 72 2e b7 3b
       -0.23918949 -0.4045519 0.1952309 0.0055902535
000230 ac 0d 5b 3e 29 4a 91 be d0 ac 03 bd ec 05 54 be
       0.21391934 -0.28376892 -0.03214723 -0.20705384
000240 e8 7e 81 be a8 1f 72 be 80 8e 5a 3e 4c 1e fd be
       -0.25292134 -0.23644888 0.21343422 -0.49437177
000250 a8 06 f2 3d 1c a3 5b bf 10 ee 65 3d 60 df 91 be
       0.11817676 -0.8579576 0.056135237 -0.28490734
000260 8e 92 39 be e7 4e 60 3e f7 1d b5 be 65 40 9c 3e
       -0.18122312 0.21905099 -0.35374424 0.3051788
000270 08 d6 1d bd 17 bd f8 be 4a 1c 9b 3e 94 f3 48 be
       -0.038534194 -0.48581764 0.3029502 -0.19624168
000280 0e 4e ad 3e 3b 0d 2f 3e 80 7e e6 3c 20 d2 67 be
       0.33848614 0.17094891 0.028136492 -0.2263875
000290 c0 e8 00 3e 46 a6 82 3e 20 7b 1d 3e a0 aa a3 bc
       0.12588787 0.25517482 0.15379 -0.019978821
0002a0 ec a5 96 3e 9d bb 95 3c d4 e0 c3 3e 57 6e bb bc
       0.29423463 0.018277938 0.38257468 -0.022879763
0002b0 d4 b6 01 be e6 dd 2e be 42 34 c1 3e 75 74 24 be
       -0.126674 -0.17076835 0.37735182 -0.1606005
0002c0 e3 9d c3 be 86 c0 84 bd 9c 4a ac bd e6 74 93 be
       -0.38206396 -0.064820334 -0.08412668 -0.28800124
0002d0 c0 6b 6d bd dd 0a 9d 3e d8 84 a3 bd 56 37 ed 3e
       -0.057964087 0.3067235 -0.07984322 0.4633128
0002e0 7c e5 87 3d 71 e6 96 3e 4a 94 8f be 2b f3 7d be
       0.066355675 0.29472688 -0.28042823 -0.24799792
0002f0 a0 df bb 3d 8b 98 11 3e f0 08 f4 3d 14 5a bb 3e
       0.091735125 0.14218347 0.11915767 0.36592162
000300 6c a2 cf 3e 9f f5 95 3e 88 c6 2b be 47 ea e1 3c
       0.40553606 0.29288957 -0.16774952 0.027577532
000310 20 01 2f 3e a8 41 77 3e c4 23 a0 bd a4 09 ae 3e
       0.17090273 0.2414614 -0.07819322 0.3399173
000320 f8 ec 59 bd 49 3e 0b 3d c0 19 14 3e 2f bb e3 3d
       -0.053204507 0.033994947 0.14462948 0.11119687
000330 44 41 88 3d 82 ed 2f be 00 93 88 be 28 ed 11 be
       0.066530734 -0.17180446 -0.26674652 -0.14250624
000340 80 b0 ba bb 07 9d fd be 80 00 b4 be e0 88 63 3b
       -0.00569731 -0.49533865 -0.3515663 0.0034719035
000350 3c 6a b4 bd a7 ea fa bc d4 6b 13 be 8a 9e 01 bf
       -0.08809325 -0.03062947 -0.14396602 -0.50632536
000360 20 30 f3 bc 7b 41 e4 3d 64 98 bb bd af 9c 2e 3c
       -0.029686034 0.11145302 -0.091599256 0.0106574735
000370 a0 f9 7e bc 60 7b 77 3e b6 5d 95 be 5c 17 8d 3e
       -0.015562445 0.24168158 -0.29173058 0.27556884
000380 00 4e 46 3e 20 d7 5d 3e f6 ce 63 be 60 9b 89 be
       0.19365692 0.21664095 -0.22246918 -0.26876354
000390 c0 82 d1 bc 15 4c a8 3e a0 d2 67 3e 37 e0 83 3d
       -0.025575042 0.32870546 0.22638941 0.0643925
0003a0 95 a0 24 be a9 1e a9 be b4 33 82 be bf 3b 2d 3d
       -0.16076882 -0.33031204 -0.2543007 0.042293306
0003b0 d2 9f ad 3e 19 f9 1e bd a0 a2 85 be a5 c1 37 bd
       0.33910996 -0.038811777 -0.26100636 -0.04486241
0003c0 5c 23 a7 3e bb 96 31 bf 80 aa 1e 3c 2d 36 92 bd
       0.32644165 -0.6937062 0.009684205 -0.071392395
0003d0 6c d5 c8 3e 0f 88 4c bf a0 ec 1d 3e 45 3e af be
       0.39225328 -0.7989511 0.15422297 -0.34227195
0003e0 28 6b b0 be c5 9f 5c 3e 28 80 80 be a9 74 ac 3d
       -0.34456754 0.21545322 -0.25097775 0.08420689
0003f0 54 a0 cf bd 57 85 10 bd 04 31 20 be 40 63 4f be
       -0.10138002 -0.035283413 -0.15643698 -0.20252705

0.scale_net.network.0.bias f4 [64]
000000 c9 71 d9 bd 82 f2 a1 3e 4b d1 71 be 0b 7c 06 3e
       -0.10617406 0.3163033 -0.23614995 0.13133256
000010 dd 55 d4 bd c4 e2 77 3e e6 5a 26 3e 8c 06 d6 bc
       -0.103679396 0.24207598 0.16245613 -0.026126169
000020 23 de e5 be 4e bb 9c be 3e 3f 11 be c8 e1 3f bc
       -0.4489604 -0.30611652 -0.14184281 -0.011711545
000030 b2 ba c3 3d a7 50 48 be 91 73 c5 be 65 4f 57 be
       0.09557094 -0.19562016 -0.38564733 -0.2102638
000040 64 1e 23 3e ef 9c cf be 47 86 76 3e 2a 9b fd 3c
       0.15929562 -0.40549418 0.2407466 0.030957777
000050 2a d4 9a be e5 eb 8e be fc 2b 84 be a0 95 f0 be
       -0.30239993 -0.27914348 -0.25814807 -0.46989155
000060 8c ea 8d 3d 5c c0 b6 be bd 75 33 3e cc 41 ca bd
       0.06929502 -0.35693634 0.17525382 -0.09875831
000070 34 08 be 3d 1f a8 ae 3e d5 ae 80 bc 3f ee 99 3d
       0.09278908 0.3411264 -0.015708366 0.07516145
000080 5a 92 d4 be 14 a3 af be 22 e5 07 3d 58 ba bf 3e
       -0.41517907 -0.34304106 0.033177502 0.37446856
000090 8c 27 48 3c 2e 45 55 be 5c 95 f8 3a cf 44 26 3e
       0.01221646 -0.20827171 0.0018965411 0.16237186
0000a0 6b 53 89 3e 46 ac d9 3e 9f 32 04 be d6 ce 5f 3e
       0.26821455 0.42514247 -0.12909935 0.21856245
0000b0 03 56 c7 3e 8b 00 4b be 39 92 d2 3d 99 d3 c3 be
       0.3893281 -0.19824426 0.10281796 -0.38247374
0000c0 34 de 6b 3d be e8 60 bb 6c d3 01 3e e4 a6 d0 be
       0.057584956 -0.0034318413 0.12678307 -0.40752327
0000d0 3e cc e2 3c 55 e5 99 be e9 6d d3 3d 29 26 d8 3c
       0.02768528 -0.3005778 0.10323698 0.026385384
0000e0 ec 65 9e bc ae a7 87 3c ad f8 80 3d c1 d2 8e 3e
       -0.01933571 0.016559448 0.06297431 0.27895167
0000f0 ac 02 18 be 4d 9e 11 3d 6d c2 3b be c5 e4 0f 3e
       -0.14844769 0.035551358 -0.18335886 0.14052112

0.scale_net.network.2.weight f4 [64, 64]
000000 84 81 54 3c 14 8a 93 bd 2a 75 2b bd 26 54 ac bd
       0.012970332 -0.07204071 -0.041859783 -0.084144875
000010 77 46 68 bd 6d 25 e6 bd 34 61 aa bd d4 9e 72 bd
       -0.056707826 -0.11237607 -0.08319321 -0.0592335
000020 56 39 bf be a8 41 8d 3c a0 ad 2f bc 3c 42 3a 3d
       -0.3734843 0.017243221 -0.010722548 0.045473322
000030 59 4e 20 be f9 72 6e 3b f8 13 46 3c 2b 4f 41 bd
       -0.15654887 0.0036384447 0.012089722 -0.04719464
000040 4c c6 66 bd 84 0b ce 3d 6f 3b 82 3d 7d d9 3b bd
       -0.056341454 0.1006079 0.06358992 -0.04586171
000050 88 a7 a7 3d ca ff fe bd ac 32 ad bd 52 09 62 bd
       0.08186251 -0.12451132 -0.084569305 -0.05518467
000060 40 8d 52 bd 4a b1 34 be c2 75 0f 3d a4 d1 e1 3d
       -0.051404238 -0.17645755 0.035024412 0.11026314
000070 4d 31 7b bd df 38 eb 3d b7 5f 8d be 03 96 c1 bd
       -0.061326314 0.11485457 -0.27612087 -0.094524406
000080 0e 22 17 be 3d 03 06 be 67 a1 98 bc 87 6d c5 ba
       -0.14759085 -0.13087173 -0.01863165 -0.0015062549
000090 22 63 de 3c 5c ca 70 3c 6c 36 f7 3b 83 e7 63 3d
       0.02714688 0.014696684 0.0075443294 0.05564071
0000a0 59 ba 46 3e fe c1 ba 3b 3c 31 fd bd ab c1 25 3d
       0.19407023 0.005699395 -0.12362906 0.0404679
0000b0 87 4c 54 be de 18 a4 3d 48 20 97 3d a2 c9 f5 3d
       -0.20732318 0.080125555 0.07379204 0.12001349
0000c0 d5 96 80 be af a7 89 bd 82 58 86 3d b1 5a 6a 3d
       -0.25115076 -0.06721436 0.0655985 0.057215396
0000d0 13 b8 58 be e7 9e 8b 3b f3 be e7 3c 61 db 1c bc
       -0.21163969 0.004260886 0.028289294 -0.009573788
0000e0 ec 56 0e bd 99 41 85 bd 2b f0 32 3d 22 e3 96 bd
       -0.034750864 -0.065066524 0.043686073 -0.07367541
0000f0 ce 2a 53 bc db 28 50 be f4 ba cb 3d 93 a2 1a be
       -0.012888623 -0.20328085 0.09947768 -0.1510108
000100 6d 88 0a be 18 eb 29 bd e5 2a 9d bc e7 2a 04 3d
       -0.13528605 -0.04148397 -0.019185493 0.032267477
000110 5c 28 31 3d ec 34 64 bd c4 7d ab bd 5e d8 a7 bd
       0.04325138 -0.055714533 -0.08373597 -0.08195566
000120 07 54 9e bd 14 0e 05 3d 24 89 2a 3d a4 c9 c7 bd
       -0.07730871 0.03248413 0.041634694 -0.09755257
000130 55 40 77 bc 7a 39 e3 bd 3f 17 23 3d 40 2d 60 3d
       -0.015091022 -0.11094947 0.03981709 0.054730654
000140 19 29 e0 bd b0 72 94 3c 28 21 b4 3c 19 62 15 be
       -0.10945339 0.018121094 0.021988466 -0.14588203
000150 68 d2 49 3d b6 e7 33 be 58 17 96 3d a8 55 96 3c
       0.049272925 -0.1756886 0.07328671 0.018351391
000160 9c 87 fe bd 58 e9 f5 bd a7 26 60 bd e0 f3 8e 3d
       -0.12428209 -0.120073974 -0.05472436 0.06980109
000170 fa fe 22 3d d0 c8 66 bd 87 ca 20 be 8a ce cb bd
       0.039793946 -0.056343853 -0.15702258 -0.099515036
000180 57 b7 ac 3c 03 37 a4 bd 40 a0 16 3b 20 8b 57 3c
       0.021083517 -0.08018305 0.00229837 0.013155729
000190 63 9d 25 3d 60 22 57 bd 86 44 12 3c 09 1b 30 be
       0.0404333 -0.052523017 0.00892747 -0.17197813
0001a0 60 f0 84 bb 00 7d d7 bb 5e 20 b2 3d b7 9c 16 bd
       -0.0040569752 -0.0065761805 0.0869758 -0.03677055
0001b0 98 11 83 3d 15 b2 57 bd 80 66 22 be 58 c3 b3 3d
       0.0639984 -0.052660067 -0.15859413 0.08777493
0001c0 b4 b8 74 3d d0 dc 26 be 32 73 e7 bc b0 c7 8d bc
       0.05974646 -0.16295171 -0.028253172 -0.017307132
0001d0 2e 1a b9 bd 32 80 c1 3d 79 e9 ef bd 72 fd 9b 3c
       -0.090381965 0.094482794 -0.11714453 0.01904175
0001e0 6e f3 87 bd 45 92 29 be 80 10 92 3c 08 98 a5 3c
       -0.066382274 -0.16559704 0.017830133 0.020214096
0001f0 20 27 a7 3b c8 a6 92 3d 00 9a 7f 3a 7e c1 84 3d
       0.0051010996 0.07160717 0.0009750426 0.06482218
000200 f4 be b3 3a c5 6a 8a bd 33 1d 5d be bc 0a e0 bd
       0.0013713525 -0.06758646 -0.2159317 -0.109395474
000210 cb 06 7a 3d 6d 97 8a 3d 27 2e 0d 3d 7b 24 54 be
       0.061041635 0.067671634 0.034467842 -0.20717041
000220 b7 0c 00 3d 16 dc c2 bd 14 1f 7b 3d da da 01 be
       0.031262126 -0.09514634 0.061308935 -0.12681141
000230 bf 29 5b bc 94 af 21 3e 85 0c 0f be 96 b4 c5 bd
       -0.013376652 0.15789634 -0.1396962 -0.09653585
000240 fe 7a 04 be 50 fc 10 3c 67 b7 90 bd 79 df 92 bd
       -0.12937543 0.0088492185 -0.07066231 -0.0717153
000250 30 3c ca bc 8e 41 70 be 94 1f c2 bd c8 c9 f2 bd
       -0.024686903 -0.23462507 -0.09478679 -0.11854893
000260 eb f7 d4 bd e7 67 0d 3d ff e0 3c be 90 03 1c bd
       -0.10398849 0.034522917 -0.18445204 -0.038089335
000270 b5 14 bb bd 7e ab 21 bb 98 2c 30 bd 70 69 47 3a
       -0.09134809 -0.0024668868 -0.043011278 0.0007606959
000280 d7 82 cb bd 31 6d 0f bd 5c ca a2 3d 34 03 3f bd
       -0.09937065 -0.035016242 0.07948753 -0.046633914
000290 72 aa 3f bd e2 ea 39 3e a6 3f cc bd 6d 17 f1 bd
       -0.04679341 0.18156007 -0.099730775 -0.11772046
0002a0 f4 fa 80 3e d0 24 2a bd 55 6e 80 3c a3 1c a6 bc
       0.25191462 -0.041539013 0.01567761 -0.020277327
0002b0 63 bb f3 bd 77 87 9e bd a2 6f 99 bd 8a b6 ce bd
       -0.119009756 -0.077406816 -0.074919954 -0.1009341
0002c0 e5 6c 80 3d 73 71 d7 3c 60 cb 7d be ce 53 d7 3d
       0.0627077 0.026299214 -0.24784613 0.10514031
0002d0 99 77 11 bc 96 51 da 3d 16 be 5c 3c 1f 90 0f be
       -0.008878612 0.106600925 0.013473054 -0.14019822
0002e0 e5 01 51 bd 18 07 d7 bd 45 f5 6d 3e 61 f9 85 3d
       -0.051027197 -0.104994 0.23238094 0.06541706
0002f0 93 98 99 3a c3 8d 9f bc f6 67 a3 bc 82 69 b1 3d
       0.0011718444 -0.019476777 -0.019947033 0.08662702
000300 96 db 18 3e d3 1e 0a bd d6 e3 2b 3e 94 e8 9e 3d
       0.14927515 -0.033720803 0.16786131 0.077592045
000310 b1 1c ce bd b1 8e a3 bd fe af ad bb ee ea 0b 3e
       -0.10064066 -0.079862006 -0.005300521 0.13663837
000320 c2 79 d9 3c 84 09 46 bd 30 36 ab 3d 7e 59 6d 3c
       0.026547316 -0.04834892 0.08359945 0.014486669
000330 37 b2 80 be 3b 85 75 3d 05 e2 b2 3c 8b 13 91 3d
       -0.25135967 0.05994151 0.02183629 0.07083806
000340 a1 e2 cc 3d b4 1f 18 bd 2f 5d 54 3e 91 09 ef b7
       0.100041635 -0.03713961 0.20738672 -2.8495475e-05
000350 90 13 b9 bd 4f 62 fc 3d f0 83 50 3d 22 76 e1 bc
       -0.090369344 0.123234384 0.050907075 -0.02752215
000360 48 91 d4 3e bf c4 78 3c 8a d7 ac 3c ac 05 53 3d
       0.4151709 0.015183627 0.02109887 0.05151908
000370 c5 4e d4 3d 91 57 75 3e a2 2d 02 be 17 cc aa bd
       0.103665866 0.23959185 -0.1271272 -0.08339708
000380 c8 aa 53 bc 46 cd a0 3d 77 a8 97 bc 2e ee 19 3d
       -0.012919135 0.07851653 -0.018512947 0.03758066
000390 96 85 bc 3d 8a a7 13 bd 1a 5d 96 3d 9b 6c 71 bc
       0.09205167 -0.03604845 0.073419765 -0.014735366
0003a0 8d e9 36 be e7 8c 0a be 52 b3 45 bd 1d 94 c5 3d
       -0.1786253 -0.13530312 -0.048266716 0.09647391
0003b0 33 82 5a be 13 a6 7b 3e 05 12 52 3d e4 bf 2b 3d
       -0.2133873 0.24575071 0.051286716 0.041931048
0003c0 c3 e1 80 bd 46 b6 a1 bd a1 9e 67 3d 99 e5 e0 bb
       -0.06293061 -0.07896094 0.056547765 -0.0068633077
0003d0 33 13 a0 3b 33 95 18 bd df de 87 3d 2b cc 7f 3d
       0.004885101 -0.037251662 0.06634306 0.06245057
0003e0 61 28 63 3d c4 dd 1f be 36 6e 29 3e 3e f9 2c be
       0.05545843 -0.1561194 0.16545948 -0.16891953
0003f0 63 ab 75 bd 19 08 e6 3c fc ac 1b 3d 00 fe 8a 3d
       -0.0599779 0.028080033 0.038006768 0.06786728

0.scale_net.network.2.bias f4 [64]
000000 1d dd 08 3e a8 e5 1a be ff 76 42 bc 6f 0b ae 3d
       0.13365598 -0.1512667 -0.011869191 0.084982745
000010 ed ae 07 be 6a 36 64 3c 4e 22 2b be 23 e5 9d 3c
       -0.13250323 0.013928989 -0.16712305 0.0192743
000020 4e 23 ae bd ec 40 a3 bd 21 a3 9f bd ff 7a 15 be
       -0.085028276 -0.07971367 -0.07794786 -0.145977
000030 fd a9 cf 3d b0 0f b3 bb 50 7a 19 be 8b 2d ef 3c
       0.101398446 -0.0054645166 -0.14988065 0.029196521
000040 88 90 e3 bd a0 82 2b 3d 01 8b 0b be e5 39 d1 bd
       -0.111115515 0.04187262 -0.13627245 -0.10216121
000050 9a 6f 63 3d 2e bd 88 3d 87 b1 f2 bc 01 ce 00 be
       0.055526353 0.06676708 -0.029625667 -0.12578584
000060 dd 76 e7 bd 67 f2 da 3c 5b 86 43 3d 76 df 29 be
       -0.11301968 0.026726915 0.047735553 -0.1658915
000070 8a b6 2b 3d b0 13 37 3c f6 36 95 bd 46 ff 31 bc
       0.04192213 0.011174127 -0.072858736 -0.010864085
000080 c0 10 bf 3c 07 86 b3 3c fc 10 22 be f9 4c c1 bd
       0.023323417 0.021914495 -0.15826792 -0.094385095
000090 6b 17 0a 3c de d2 b7 3c e0 7d 5d 3d 40 d4 b5 bc
       0.008428435 0.022439416 0.054075122 -0.022195935
0000a0 f7 91 62 3c 28 a8 94 bd 3e 91 9b 3d ce 20 0b be
       0.013828746 -0.07258636 0.07596062 -0.13586733
0000b0 fa a4 2a be 08 cf f5 bd 94 ca 08 bd d0 f7 7b bd
       -0.16664496 -0.12002379 -0.03339632 -0.06151563
0000c0 89 00 5b 3d 60 1c ef bd cd 96 0a 3d 63 61 72 bd
       0.053467307 -0.11675334 0.03383522 -0.059174906
0000d0 c0 e6 36 bc f6 20 b6 bd d0 2f a6 bd e8 2f 72 bd
       -0.0111634135 -0.088930055 -0.08114588 -0.05912772
0000e0 0c 28 fc bd 43 0d ab bd 9b c5 ff bd 22 85 cf bb
       -0.12312326 -0.08352139 -0.12488862 -0.0063330093
0000f0 0e 8e 90 bc fa 58 22 3d ab 76 07 be 27 c2 6d bd
       -0.017645862 0.039635636 -0.13228862 -0.058046486

0.scale_net.network.4.weight f4 [64, 64]
000000 d5 71 41 3d 76 01 a7 3d 25 a7 1b 3e 64 76 9e 3c
       0.0472277 0.081545755 0.1520048 0.019343562
000010 23 44 f7 3c b0 b7 b1 bc c4 46 23 3e e1 03 7f 3d
       0.030183857 -0.021694034 0.15944964 0.06225956
000020 37 86 33 bd 3b c7 fd bc c4 d8 1e 3c 92 fe 09 3c
       -0.04382917 -0.03097879 0.009695236 0.008422511
000030 8e fb 83 bd 52 f7 11 3d 4d 77 54 3c 7b de bf 3b
       -0.064444646 0.035636254 0.012967897 0.005855379
000040 a4 cd 92 3d dc 87 0c 3c b5 e8 08 3e 6b 63 fe bc
       0.07168129 0.008577313 0.1337002 -0.031053266
000050 85 71 60 bd 50 75 b2 3d 86 49 0a be a0 52 b0 3d
       -0.05479576 0.08713782 -0.1350461 0.086095095
000060 44 49 9e 3c 24 94 4a bb 57 05 09 bd b9 63 30 3d
       0.019322045 -0.0030911053 -0.033452358 0.043063853
000070 e5 bd b1 3d a9 50 c9 bd a0 2e 23 3c 45 43 5b bc
       0.08678798 -0.09829838 0.009959847 -0.0133827375
000080 10 4e ec 3c 05 62 04 3e bf 51 28 be 3c 4e d1 3d
       0.028845817 0.12928016 -0.16437434 0.1022
000090 eb e3 2f 3d b5 dd c4 3d ec 12 88 3c f7 72 07 3e
       0.04294197 0.096126 0.016610585 0.1322745
0000a0 18 1a 1d 3e ac bc 4c bd 85 e0 dc bd 24 1c 34 bd
       0.15341985 -0.04998462 -0.10785011 -0.04397215
0000b0 90 6b fe 3c 63 e2 a4 bd 04 04 13 3e 48 05 d6 bc
       0.03105715 -0.08050992 0.14357 -0.026125565
0000c0 7a 3a 45 bd 0c e9 7d bd a1 30 b5 bd 52 fe b0 bc
       -0.04815147 -0.06198983 -0.08847166 -0.021605644
0000d0 7e bd a6 3d 86 57 ed 3d 40 7f 7c 3d 60 73 2f 3d
       0.081416115 0.115889594 0.061644793 0.04283464
0000e0 04 8d b6 3d f9 55 8c 3d f6 8a c5 3d 94 72 9d 3c
       0.08913615 0.068523355 0.09645645 0.019219674
0000f0 f1 1f 96 bd c3 59 72 3d 43 bc fc bc 0b f1 0b 3d
       -0.07330311 0.059167635 -0.030851489 0.034165423
000100 90 3a f1 bc d9 de 15 bc 75 92 eb 3d b1 1c f9 bc
       -0.02944687 -0.009147369 0.11502544 -0.030409189
000110 c9 95 fb 3d e1 f6 1f bd 7e d6 31 3e 40 f3 ef 3d
       0.122844286 -0.0390538 0.17366979 0.11716318
000120 dc 76 97 3c 61 8a 95 3d b7 1d 69 3d 96 68 84 3d
       0.018489294 0.07301784 0.056913104 0.06465261
000130 17 10 97 3d 8d ff d5 3c 2c 4d 01 3e c3 b1 4e 3d
       0.07376116 0.026122833 0.12627095 0.050462496
000140 d8 cb c8 3c c3 76 cf 3d b4 5d b2 bb 11 6b 1c 3e
       0.024511263 0.10130074 -0.005443299 0.15275218
000150 95 ae 52 3d 5c 38 a5 bc 6a f0 2d 3d a8 a4 02 bc
       0.051436026 -0.020168476 0.042465605 -0.007973827
000160 4d e0 c1 bd 36 a9 19 3d 7b bf 41 3d 52 b9 c3 3d
       -0.0946661 0.037514888 0.04730175 0.095568314
000170 81 75 17 3d d5 0e 5a 3d 82 1e 86 bd 6e 85 dc 3d
       0.036977295 0.0532368 -0.06548788 0.10767637
000180 40 ee 2f bc c0 2d a7 3c 22 37 0e bd 20 3e 9c 3d
       -0.010737956 0.020407557 -0.034720547 0.07629037
000190 21 e8 66 3d 87 e4 c6 bd ef 1b eb 3c 87 ad b0 bc
       0.05637372 -0.09711557 0.028699843 -0.02156712
0001a0 1f c6 40 3e 82 2e ca 3d d6 0d 49 3c ac 59 07 3e
       0.18825577 0.09872152 0.012271365 0.13217801
0001b0 c6 13 6f bd 00 a4 91 3d f1 a4 02 bc 18 b8 06 3d
       -0.058368467 0.07111359 -0.007973895 0.03289041
0001c0 ef 1b 0e 3e 72 d8 ba 3d 5d b6 fe bd eb 1a b9 bb
       0.13877843 0.09123315 -0.12437127 -0.005648961
0001d0 9c 55 06 3d 5d 03 aa 3c 3a ca cd 3d 60 be 46 bc
       0.032796487 0.020753557 0.10048337 -0.01213035
0001e0 4a bb 9d 3d 10 b8 52 3d 10 b1 93 bd 48 a0 44 bc
       0.07701738 0.051445067 -0.07211506 -0.012001105
0001f0 27 b7 95 bd 58 ec 4b 3d e5 2a 68 3d 63 d9 9e 3d
       -0.07310324 0.04978594 0.056681532 0.07756307
000200 87 60 31 3e 87 96 9a bc dc b9 1a bd 66 b8 d2 bd
       0.17321979 -0.018870605 -0.037774906 -0.102890775
000210 70 a4 75 bd b9 24 f2 3d 6a 47 d0 3d 88 81 91 3e
       -0.059971273 0.118234105 0.10169871 0.28419137
000220 93 60 0e be 8e ed 3c bd a4 33 b9 3d 77 f4 22 bd
       -0.13904028 -0.046124987 0.09043053 -0.03978392
000230 b9 40 97 bd 95 e0 d6 bd ec b3 6a 3d 06 36 98 bc
       -0.07385392 -0.104920544 0.057300493 -0.018580448
000240 3e 2e 8a 3d e0 a2 85 3e 29 f4 c2 bd e2 fd 86 3e
       0.06747101 0.26100826 -0.09519226 0.26365572
000250 ba 74 8b bc cc 8e 87 be e0 15 a2 bd 3a 1a 07 3c
       -0.017023433 -0.26476133 -0.079143286 0.008245999
000260 14 77 16 be 1b 6e a4 3d 93 b3 29 3d 78 0b 11 3c
       -0.14693862 0.080288135 0.04143102 0.008852832
000270 68 15 52 bd 14 de 24 be 30 e5 8f 3c 72 5a c0 bd
       -0.051289946 -0.16100341 0.01756534 -0.09392251
000280 56 c3 87 3d dd 1a 08 3e a4 48 00 3f 8f 3f 04 bd
       0.06629054 0.13291498 0.5011084 -0.032287177
000290 40 b4 c8 bd 8e 33 b2 bd 9f af 0a bc 60 d8 df bd
       -0.09800005 -0.087012395 -0.008464723 -0.10929942
0002a0 95 c9 ee 3d a8 0c e1 3c fe 2c da 3c d6 ba 19 3e
       0.116595425 0.027471855 0.026632782 0.15012679
0002b0 30 6d 08 3d b1 99 36 bd a8 ef a1 bd dc 49 ac bd
       0.033307254 -0.044580165 -0.07907039 -0.08412525
0002c0 b1 d4 8c 3d 60 0e ad bc 80 71 d2 3c f6 50 69 bd
       0.06876505 -0.021125019 0.025688887 -0.056961976
0002d0 c0 77 e5 3b e2 64 a4 bd 40 cb 5c bd 30 9a 93 bc
       0.0070028007 -0.08027054 -0.05390477 -0.018017858
0002e0 60 be 51 3d d8 40 ca 3d 80 41 f4 3d 70 9e ea bd
       0.051206946 0.09875649 0.11926556 -0.11456001
0002f0 5e 04 ba 3d 36 26 dd bd d6 97 52 be e6 c9 f6 3b
       0.09082864 -0.10798304 -0.20565733 0.0075313924
000300 6e c9 c1 3d 38 96 55 bd a8 cb 63 bd fc a7 33 3d
       0.09462248 -0.052145213 -0.055614144 0.043861374
000310 1a 2f bc bd 94 93 cb bd 74 e9 88 bd b2 79 8b 3d
       -0.091886714 -0.09940258 -0.06685153 0.06810321
000320 6e 1e ef bd 00 96 d3 bc 36 a8 cb 3d 1a 59 b8 3d
       -0.11675726 -0.025828362 0.09944193 0.0900137
000330 68 82 ab 3c f4 de f7 bd c0 af e8 bb d0 49 fe bd
       0.020936206 -0.12103072 -0.007101029 -0.12416422
000340 60 9f 9a bd 96 6a c1 3d 72 78 ab bd 32 73 b0 bd
       -0.075499296 0.09444158 -0.083725825 -0.08615722
000350 94 cd 79 3d 10 32 b2 bd c8 75 a7 3d 62 51 cd bd
       0.06098707 -0.08700955 0.08176762 -0.10025288
000360 12 7f 8b 3d 00 40 e4 3b c4 bd 3f 3d e6 be c7 3d
       0.06811346 0.006965637 0.046811834 0.09753208
000370 b4 27 ec 3d 46 54 be bd 6c be 03 3d 8e fc e8 3d
       0.1153101 -0.09293418 0.032164022 0.11376296
000380 b0 06 1d bd 30 41 41 3c 76 f8 99 bd 0e 67 9c bd
       -0.038336456 0.011795327 -0.07518093 -0.076368436
000390 b0 e3 7e bd c8 c6 c2 bd b8 8d 14 bd 90 02 f1 bd
       -0.06222886 -0.09510571 -0.036267966 -0.11768067
0003a0 64 67 55 3d 74 6c bf 3d a0 f7 fb bc ca 20 cd 3d
       0.052100554 0.09346858 -0.030757725 0.1001602
0003b0 ae e6 97 bd d8 44 b4 bd 6c f8 dd 3d ec 24 83 bd
       -0.074170455 -0.088021934 0.10838398 -0.06403527
0003c0 ea 1d dc 3d d4 74 b8 bd b6 c7 f3 bd 94 a9 e4 3d
       0.10747893 -0.09006658 -0.11903326 0.11165157
0003d0 46 a3 b4 bd da cd d7 3d 0a e5 bc bd 68 92 a1 3c
       -0.088202044 0.1053731 -0.09223373 0.019723132
0003e0 16 69 b9 3d e8 87 d3 bd 74 57 99 3d 20 c0 a2 3b
       0.09053247 -0.103286564 0.074873835 0.0049667507
0003f0 46 a5 f8 bd 14 68 90 bd 44 d6 e2 bd c0 a7 5a bd
       -0.121408984 -0.07051101 -0.11076024 -0.053382635

0.scale_net.network.4.bias f4 [64]
000000 7d 54 4a bd ee fa f0 bc 5c eb 25 be 6e 96 e4 bd
       -0.04939698 -0.029416528 -0.16203064 -0.11161505
000010 fd 9d 04 be 92 db b0 bd 51 2c 27 ba e3 3f 88 bd
       -0.12950893 -0.0863563 -0.0006377148 -0.066528104
000020 82 db d8 be 98 ee 5c bd a1 45 92 bd a8 57 22 bd
       -0.4235497 -0.05393848 -0.07142187 -0.039634377
000030 ea b0 d7 3d 6a 4c 20 be 2b 4c 6e bd 9b e7 c9 3b
       0.105317906 -0.1565415 -0.05817811 0.0061616427
000040 5d 48 a3 bb d8 b1 86 3e 38 e2 71 bd e0 00 a0 3a
       -0.0049829916 0.2630756 -0.05905363 0.0012207292
000050 3c b3 4e bd 84 ca fa bd f0 7a 99 bb 2f 81 a7 3e
       -0.0504639 -0.12245658 -0.0046838447 0.32715747
000060 85 75 4d bd c8 99 4a be 19 50 e3 bd c3 52 50 bd
       -0.050160903 -0.19785225 -0.11099262 -0.050860178
000070 ac 4d 3f bc a3 8d ef bd cc fe b3 bd 9b 8e ba bc
       -0.011676233 -0.11696937 -0.08788833 -0.022773078
000080 e7 bb 9a bc 71 c7 5f be 81 90 95 bc 5b 5e 3e 3e
       -0.018888427 -0.21853425 -0.018257381 0.18590681
000090 eb 8c 46 bb 99 80 34 bc fa 38 8a 3c be 87 80 be
       -0.0030296396 -0.011016988 0.016872872 -0.25103563
0000a0 8f 4b 88 3c c6 a7 ab bd 1f 78 ad 3c 3e 90 1c be
       0.016637592 -0.083816096 0.021175442 -0.15289399
0000b0 49 14 73 3e b0 b8 c4 bd 74 fc a7 bd 15 0b 82 bd
       0.23738207 -0.09605539 -0.082024485 -0.0634977
0000c0 28 bd 9e bd 73 43 11 3e 36 c5 9f bd 82 8d d7 3d
       -0.077509224 0.14185886 -0.07801287 0.10525037
0000d0 76 99 84 bd 7d 33 c4 bb 9d 8d 30 be 8c 93 2f 3c
       -0.06474583 -0.005987583 -0.17241521 0.01071633
0000e0 ba aa e0 bd ea ca 21 be 19 e2 90 bd 75 d5 5e bd
       -0.109700635 -0.15800062 -0.07074375 -0.054402787
0000f0 ac 77 06 be 8a d6 06 be 04 50 1c bd 0e 64 f5 bb
       -0.13131589 -0.13167778 -0.038162246 -0.007488734

0.scale_net.network.6.weight f4 [6, 64]
000000 f1 66 e4 bc b9 ad 3f 3d 27 01 52 3e 00 00 00 00
       -0.027881118 0.046796534 0.20508252 0.0
000010 cc 49 a4 3d 00 00 00 00 05 55 1c bd eb 29 b4 bc
       0.08021888 0.0 -0.03816702 -0.021992644
000020 f5 37 fc bd 00 00 00 00 7e 74 a0 bd da 8b 51 3d
       -0.123153605 0.0 -0.07834719 0.051158763
000030 3f 42 c3 3d 98 ad 2e 3e 5b bd 1f bd e8 07 be bb
       0.0953412 0.17058408 -0.038998943 -0.0057992823
000040 db 3e 0c bd fb 23 d7 3c 2a c8 5d bd 58 de 14 bb
       -0.03423963 0.026262274 -0.05414597 -0.0022715535
000050 00 00 00 00 00 00 00 00 64 19 11 bd 34 0e 20 be
       0.0 0.0 -0.035424605 -0.15630418
000060 1e 9b aa bc 16 86 fe bd 0e e6 32 3c d7 b5 33 be
       -0.020825919 -0.124279186 0.010919107 -0.17549835
000070 bf 33 2a bd 59 9d fc 3c ef 1c 90 3d a6 b4 9e 3d
       -0.041553255 0.030836748 0.07036769 0.077493
000080 2f 10 2b bb 4f d8 c8 bd d0 fe 8a bc dc 5e d1 3d
       -0.0026102175 -0.098068826 -0.016967207 0.10223171
000090 df 0c ca bc 06 28 a7 3d 80 65 f4 ba 29 77 48 3e
       -0.02466434 0.08161931 -0.0018645972 0.19576706
0000a0 e1 58 ca 3c ab 7f fc 3b 79 76 95 3a 71 70 ff 3b
       0.024700584 0.007705649 0.0011403105 0.0077953865
0000b0 8e a4 2c 3f 00 00 00 00 5e df c5 3c a7 2d 83 bc
       0.6743859 0.0 0.024154361 -0.01601298
0000c0 00 00 00 00 21 9f da 3d f6 ee 66 3b 90 9e dc 3d
       0.0 0.10674883 0.0035237647 0.10772431
0000d0 e1 38 7f bd d9 9b 0e 3c ca 12 16 3e 35 63 e5 3c
       -0.062310103 0.008704149 0.14655605 0.028001407
0000e0 a5 40 67 bc 25 c3 3c 3e 82 e5 81 bd ae 1b 2d bd
       -0.014114534 0.18433817 -0.06342603 -0.042262726
0000f0 63 91 41 bd 4a 42 a3 bc ab fb c3 bc 01 5c c0 bc
       -0.047257792 -0.01992907 -0.023923716 -0.02348137
000100 00 00 00 00 00 00 00 00 00 00 00 00 00 00 00 00
       0.0 0.0 0.0 0.0
000110 00 00 00 00 00 00 00 00 00 00 00 00 00 00 00 00
       0.0 0.0 0.0 0.0
000120 00 00 00 00 00 00 00 00 00 00 00 00 00 00 00 00
       0.0 0.0 0.0 0.0
000130 00 00 00 00 00 00 00 00 00 00 00 00 00 00 00 00
       0.0 0.0 0.0 0.0
000140 00 00 00 00 00 00 00 00 00 00 00 00 00 00 00 00
       0.0 0.0 0.0 0.0
000150 00 00 00 00 00 00 00 00 00 00 00 00 00 00 00 00
       0.0 0.0 0.0 0.0
000160 00 00 00 00 00 00 00 00 00 00 00 00 00 00 00 00
       0.0 0.0 0.0 0.0
000170 00 00 00 00 00 00 00 00 00 00 00 00 00 00 00 00
       0.0 0.0 0.0 0.0
000180 00 00 00 00 00 00 00 00 00 00 00 00 00 00 00 00
       0.0 0.0 0.0 0.0
000190 00 00 00 00 00 00 00 00 00 00 00 00 00 00 00 00
       0.0 0.0 0.0 0.0
0001a0 00 00 00 00 00 00 00 00 00 00 00 00 00 00 00 00
       0.0 0.0 0.0 0.0
0001b0 00 00 00 00 00 00 00 00 00 00 00 00 00 00 00 00
       0.0 0.0 0.0 0.0
0001c0 00 00 00 00 00 00 00 00 00 00 00 00 00 00 00 00
       0.0 0.0 0.0 0.0
0001d0 00 00 00 00 00 00 00 00 00 00 00 00 00 00 00 00
       0.0 0.0 0.0 0.0
0001e0 00 00 00 00 00 00 00 00 00 00 00 00 00 00 00 00
       0.0 0.0 0.0 0.0
0001f0 00 00 00 00 00 00 00 00 00 00 00 00 00 00 00 00
       0.0 0.0 0.0 0.0
000200 2f ea 99 3d 6b 0c d8 3c 3d b1 f0 3d 00 00 00 00
       0.0751537 0.026373109 0.117525555 0.0
000210 14 ba 90 3d 00 00 00 00 f6 69 29 3d 30 2b a7 3d
       0.070667416 0.0 0.041360818 0.08162534
000220 d3 a0 36 3e 00 00 00 00 1a e3 53 3d 17 68 51 3d
       0.17834787 0.0 0.051730253 0.05112466
000230 50 25 91 bc f4 65 d0 3d 21 f4 97 3d fc b4 ea bc
       -0.017717987 0.10175696 0.07419611 -0.028650753
000240 7f 18 81 3d c4 e3 63 be 40 2c 89 3d 2e f7 21 3c
       0.063035004 -0.22254854 0.06697893 0.009885592
000250 00 00 00 00 00 00 00 00 7d ff dd 3d 40 91 9e be
       0.0 0.0 0.10839746 -0.30970192
000260 d1 50 ae 3d e3 86 10 be 73 79 b5 3d 83 55 09 3c
       0.08511508 -0.14113955 0.08861055 0.008382204
000270 ec e9 05 3d 43 7a a4 bc fa 9f e5 bc f5 2a 1d 3d
       0.03269379 -0.02007783 -0.028030384 0.038371045
000280 f2 24 ec 3b 1d 39 4c bd c0 4b c0 3d 89 a3 dd bc
       0.0072065527 -0.049859155 0.09389448 -0.027055519
000290 37 37 9e 3d 3e 65 a3 bc 30 5c 4a 3b 24 a4 1a be
       0.07725375 -0.019945737 0.0030877702 -0.15101677
0002a0 2d 6d 2d 3d 71 71 c1 3d 56 00 5a 3b 0a f5 6d 3d
       0.042340446 0.09445465 0.003326436 0.058095016
0002b0 55 89 2c 3d 00 00 00 00 d5 74 40 3d 09 18 bf 3d
       0.042123158 0.0 0.04698642 0.09330756
0002c0 00 00 00 00 23 96 84 bc 67 80 97 3d 8f aa 85 3d
       0.0 -0.016184872 0.07397538 0.06526672
0002d0 59 33 a8 3d f1 23 c5 3d 67 54 68 3d 43 c7 a2 3d
       0.08212919 0.09625996 0.056721117 0.079481624
0002e0 21 5e d1 3d 01 50 83 3d e7 a3 ae 3d d6 21 7a 3d
       0.10223032 0.06411744 0.08527356 0.061067425
0002f0 6c 16 e5 3c 71 b7 ab 3d 1c b2 a8 bd 94 86 8d 3d
       0.027964793 0.08384598 -0.08237097 0.06910434
000300 00 00 00 00 00 00 00 00 00 00 00 00 00 00 00 00
       0.0 0.0 0.0 0.0
000310 00 00 00 00 00 00 00 00 00 00 00 00 00 00 00 00
       0.0 0.0 0.0 0.0
000320 00 00 00 00 00 00 00 00 00 00 00 00 00 00 00 00
       0.0 0.0 0.0 0.0
000330 00 00 00 00 00 00 00 00 00 00 00 00 00 00 00 00
       0.0 0.0 0.0 0.0
000340 00 00 00 00 00 00 00 00 00 00 00 00 00 00 00 00
       0.0 0.0 0.0 0.0
000350 00 00 00 00 00 00 00 00 00 00 00 00 00 00 00 00
       0.0 0.0 0.0 0.0
000360 00 00 00 00 00 00 00 00 00 00 00 00 00 00 00 00
       0.0 0.0 0.0 0.0
000370 00 00 00 00 00 00 00 00 00 00 00 00 00 00 00 00
       0.0 0.0 0.0 0.0
000380 00 00 00 00 00 00 00 00 00 00 00 00 00 00 00 00
       0.0 0.0 0.0 0.0
000390 00 00 00 00 00 00 00 00 00 00 00 00 00 00 00 00
       0.0 0.0 0.0 0.0
0003a0 00 00 00 00 00 00 00 00 00 00 00 00 00 00 00 00
       0.0 0.0 0.0 0.0
0003b0 00 00 00 00 00 00 00 00 00 00 00 00 00 00 00 00
       0.0 0.0 0.0 0.0
0003c0 00 00 00 00 00 00 00 00 00 00 00 00 00 00 00 00
       0.0 0.0 0.0 0.0
0003d0 00 00 00 00 00 00 00 00 00 00 00 00 00 00 00 00
       0.0 0.0 0.0 0.0
0003e0 00 00 00 00 00 00 00 00 00 00 00 00 00 00 00 00
       0.0 0.0 0.0 0.0
0003f0 00 00 00 00 00 00 00 00 00 00 00 00 00 00 00 00
       0.0 0.0 0.0 0.0

0.scale_net.network.6.bias f4 [6]
000000 d5 16 14 3a 00 00 00 00 bc cf 0e be 00 00 00 00
       0.0005649154 0.0 -0.13946432 0.0
000010 24 4a c6 bc 00 00 00 00
       -0.024205275 0.0

0.translate_net.network.0.weight f4 [64, 6]
000000 f0 db 14 3d 4d 7a 63 3e 90 98 c9 3e ef 79 5e be
       0.03634256 0.22214623 0.39374208 -0.21726201
000010 60 5d 95 3d 74 b0 46 be 08 ca 8c be 5f 1e 38 bf
       0.072932005 -0.19403249 -0.27497888 -0.7192134
000020 b0 22 99 be 29 41 04 3f 18 4a 93 3d 57 53 19 be
       -0.29909277 0.51661927 0.07191867 -0.14973198
000030 18 db 7c 3e 0c 49 dc bd 6c f5 04 3e 52 69 bc 3e
       0.24692953 -0.1075612 0.12984246 0.36799103
000040 90 48 cf 3e 2f e9 53 be e4 6a 31 3e 38 e6 27 be
       0.40485048 -0.20694421 0.17325932 -0.16396415
000050 f4 48 61 3e d5 2c 53 be 54 05 aa 3e 17 ef ba be
       0.22000486 -0.20622571 0.3320719 -0.36510536
000060 3e 49 81 be 69 31 cb be 46 85 84 3e 0c 2e c0 be
       -0.25251192 -0.39686134 0.2588293 -0.3753513
000070 90 34 b6 3e 6b 46 6b 3e 18 b6 6f 3e c0 8d 81 3b
       0.35586977 0.22976081 0.23409307 0.0039536655
000080 f8 53 25 be 08 c6 3e 3d 08 96 44 3e 20 81 82 bc
       -0.16145313 0.046575576 0.19197857 -0.015930712
000090 50 ad a2 bd b3 27 3c be ac 4e a9 be 58 d6 6d bd
       -0.07943213 -0.18374519 -0.33067834 -0.058065742
0000a0 00 f8 bf 3d 88 6e 80 be a0 b8 55 bd 9e 35 ab 3e
       0.09373474 -0.2508433 -0.052178025 0.33439344
0000b0 60 d7 26 3c 80 d9 8f 3d 78 14 56 3e 54 c9 ac bd
       0.010183185 0.07023907 0.20906246 -0.08436838
0000c0 64 19 bc bd 63 22 f9 bd 30 3b 75 bd 38 7e 89 be
       -0.091845304 -0.12164762 -0.0598709 -0.2685411
0000d0 ae 4d 90 3e 43 f8 3e be 76 a5 c8 3e c3 c4 5e 3e
       0.28184265 -0.18649392 0.39188737 0.21754746
0000e0 36 34 34 be 33 35 dd 3d 50 40 c3 3c 72 da ae bc
       -0.17598042 0.108011626 0.023834378 -0.021344397
0000f0 a9 9e 6b be 08 94 5b 3e 2e 97 b5 3e 10 d3 81 3f
       -0.23009743 0.21443188 0.35466903 1.0142536
000100 82 86 1a be ff 42 d1 3d cc 61 c0 bd fa 92 49 be
       -0.15090373 0.102178566 -0.09393653 -0.19684973
000110 60 59 36 bc 8b 23 8f be 08 b7 ca 3d c2 cb 7a bf
       -0.011129707 -0.27956805 0.09898192 -0.9796716
000120 f0 aa 60 bd b0 1d cb be 8a 69 06 be 9c 52 c4 3e
       -0.05485052 -0.39671087 -0.13126197 0.38344276
000130 88 3e b2 be 81 a2 5c be 90 1a 3a 3d 2e 85 ad be
       -0.34813333 -0.21546365 0.04543549 -0.3389067
000140 75 9e 35 be 64 cb 7f 3e 5c f0 4c 3e 3d 4a b9 be
       -0.17736228 0.24979931 0.20013565 -0.36189452
000150 65 6b 9b be fd a1 ae 3e b3 3c 69 be 66 30 0e 3e
       -0.30355373 0.34107962 -0.22777061 0.1388565
000160 c0 ae bb 3c 0b 10 ba 3e c6 99 b0 be f8 ad 8b 3e
       0.022910476 0.36340365 -0.3449232 0.27281165
000170 44 76 2f 3e 00 d0 0d be 3c de 42 be 29 71 c9 3e
       0.17134959 -0.13848877 -0.19030088 0.39344147
000180 30 fa 42 3e df 22 f4 bd 48 26 2f 3e 85 d3 97 3e
       0.19040751 -0.11920714 0.17104447 0.29653564
000190 14 9e b2 3d 1e f3 a6 3e 80 9a e3 3d a6 72 50 3e
       0.08721557 0.3260736 0.11113453 0.20356235
0001a0 da 8b 1c be 85 49 05 3f f0 2c 5e 3e ef b2 df 3d
       -0.15287724 0.52065307 0.2169683 0.10922801
0001b0 00 30 b1 39 e0 97 88 3e a4 c7 94 3e 3a 3c 11 3e
       0.00033795834 0.2667837 0.29058564 0.14183131
0001c0 38 3d 22 3e 00 f7 7c be de 92 81 3e 6a 29 12 be
       0.15843666 -0.24703598 0.25307363 -0.1427361
0001d0 f4 08 83 bd 35 8d bf be 90 ff aa 3e 89 e5 4d 3d
       -0.06398192 -0.3741242 0.33398104 0.05026773
0001e0 d0 7a 06 3e e6 33 29 be 8c cf 38 3e fc 29 44 be
       0.13132787 -0.16523704 0.18047923 -0.19156641
0001f0 0b b4 47 be 68 d4 c5 bd bc b3 2a 3e d1 27 5d 3e
       -0.19502275 -0.09659654 0.16670126 0.2159722
000200 f8 a7 7b be 24 c7 4c bc 04 f0 4a 3e 23 9a 5f be
       -0.24575794 -0.012498651 0.19818121 -0.21836142
000210 6e 45 bd 3e 0d ff 55 be f8 ec 83 3e f6 d0 95 be
       0.36967033 -0.20898075 0.2576673 -0.29260987
000220 c0 a9 a4 bc c2 c8 fa 3c ac fa 92 3d d8 d9 08 3e
       -0.020100474 0.030613307 0.07176718 0.13364351
000230 20 99 25 3d fc 25 2a 3e 50 6f 6d 3d 48 53 f9 bd
       0.040429235 0.16616052 0.057967484 -0.12174088
000240 05 dc ae be f0 af 4f 3e f8 d7 0f be 7a b3 6b be
       -0.34152237 0.20281959 -0.1404723 -0.23017684
000250 fe ef b5 3e 9b 9f c1 be ac 0e bc 3e 60 4c 50 bd
       0.35534662 -0.37817082 0.36729944 -0.050854087
000260 05 5a 71 be 8c 63 11 3e 1c 3e 41 3e f8 d3 b0 bd
       -0.23569496 0.1419813 0.18871349 -0.0863418
000270 78 ab c1 3e 88 e5 34 be a0 2c a7 be 64 d7 33 3e
       0.37826133 -0.17665684 -0.32651234 0.17562634
000280 bf 95 2b be 76 1c 95 be e0 a6 00 bc 65 48 8d 3e
       -0.16756342 -0.29123276 -0.007852286 0.27594295
000290 d8 32 6c bd c8 47 7b 3d 10 32 cc 3c dd 55 60 3e
       -0.057665676 0.061347753 0.024926215 0.21907754
0002a0 64 f3 af 3e d1 c2 af be 38 20 97 be 47 a6 4e 3e
       0.3436538 -0.3432832 -0.29516768 0.20180617
0002b0 4c bc 9c 3e 8b 97 2f bd d8 b4 6b bd cc f5 58 bf
       0.3061241 -0.042869132 -0.057545513 -0.84750056
0002c0 30 0a cc 3d 39 2d 3f 3e 50 5d 91 3d 64 cd 15 bf
       0.099628806 0.18669595 0.07097876 -0.58516526
0002d0 ac b3 9d 3e c7 a7 f2 3e 59 c7 ba be 29 b1 e6 3e
       0.3080114 0.4739363 -0.36480215 0.45057037
0002e0 cf 44 ab be fc fe 27 bf b0 7b 51 3d a7 8e e2 be
       -0.33450934 -0.6562345 0.05114335 -0.4424946
0002f0 74 db 3b 3e 31 65 93 bd 08 ea c5 3d 33 e9 1d 3e
       0.18345433 -0.07197035 0.096637785 0.1542099
000300 98 06 77 be c2 82 96 be 5c a2 9c bd ba 63 24 3e
       -0.24123609 -0.29396635 -0.07648155 0.16053668
000310 0c 28 a6 bd a2 5c bb 3e b6 49 aa 3e 49 95 bf 3d
       -0.08113107 0.3659411 0.33259362 0.09354646
000320 b2 cc c9 3e f7 62 db 3e ac 75 0f be 5e 79 6d 3e
       0.39413983 0.42848942 -0.14009732 0.23190829
000330 14 0c a0 bd 36 38 24 be ac 4c 30 3e 7c 1f 07 3e
       -0.07814804 -0.16037068 0.17216748 0.13195604
000340 ad f1 92 be e4 1d 27 3e 84 72 8c 3e 63 53 86 3c
       -0.2870001 0.16319996 0.27431118 0.016397184
000350 c0 f7 71 3e 74 fb a2 be 4c c2 8a bd af 18 0d bf
       0.23629665 -0.31832469 -0.067753404 -0.5511579
000360 88 ac 53 3d 04 b6 01 be dc 50 68 3e f5 12 cd 3e
       0.05167821 -0.1266709 0.22687095 0.40053526
000370 40 28 84 bc f5 d5 56 be 38 b4 c3 be b4 39 fc bd
       -0.016132474 -0.20980056 -0.38223433 -0.123156935
000380 a3 74 22 be a8 1f 44 3d 84 c2 72 3e b2 a2 34 be
       -0.15864806 0.047881752 0.23707014 -0.17640188
000390 40 52 a1 3d 63 7e 3f 3c c8 2d 75 3d 8a 08 a2 3e
       0.07877016 0.011687848 0.059858114 0.3164714
0003a0 14 a3 b1 bd 10 db ae 3e ee a9 b5 be 71 04 d7 bd
       -0.08673683 0.34151506 -0.3548121 -0.10498894
0003b0 2d 65 66 be f4 3a 7c bd 7e d5 19 be 18 86 d8 be
       -0.22499533 -0.06157966 -0.15022847 -0.42289805
0003c0 e3 da c4 be 90 8b e4 3e 5c 29 59 3e 0d d0 8d be
       -0.38448247 0.44637728 0.21207184 -0.27697793
0003d0 dc 37 b3 bd e0 0c f4 bc 4f 46 96 be bc 74 37 3e
       -0.08750889 -0.029791296 -0.29350516 0.17915624
0003e0 9d 11 92 be 6b ea 93 3e 80 ca a1 bc 2a 20 d6 3e
       -0.28529063 0.28889784 -0.01974988 0.41821414
0003f0 32 76 cb be 1b a5 08 3e 38 04 02 3e 51 ac c1 bd
       -0.39738613 0.13344233 0.12696922 -0.09456695

0.translate_net.network.0.bias f4 [64]
000000 46 3e 9d 3d 83 90 45 3e 34 dd 57 be 65 19 b6 3e
       0.07677893 0.19293408 -0.21080476 0.3556625
000010 62 fc 82 be 2e 31 b3 be b9 0a bb be 0e f3 c6 be
       -0.25583178 -0.3499846 -0.36531618 -0.3885731
000020 c8 76 66 be 65 04 b7 be 5c 1b bc 3d 59 59 af 3e
       -0.22506249 -0.3574554 0.09184906 0.34247854
000030 08 3f 9f be 84 a0 9a be 71 83 48 3c 93 33 88 be
       -0.31102777 -0.3020059 0.012238369 -0.26601848
000040 73 fc ae bb 80 d8 23 be f6 31 38 3d b0 a0 6e be
       -0.005340153 -0.16000557 0.04496952 -0.23303485
000050 da 66 94 be 25 eb db 3b b3 eb 8c 3d c6 60 47 be
       -0.2898472 0.006711381 0.068808936 -0.1947051
000060 b6 16 01 be 63 cc ad be 70 65 5e bd 95 22 05 bf
       -0.1260632 -0.33944997 -0.054295957 -0.52005893
000070 cd b5 9e 3d db 48 86 3e 88 60 28 3e 57 e0 df 3d
       0.077495195 0.2622746 0.16443074 0.10931461
000080 e1 72 80 3d 21 48 6a 3b 40 f0 5c be 3f 07 62 3e
       0.062719114 0.0035748559 -0.21576023 0.22073077
000090 5e 19 05 3e 98 09 99 bd c4 34 da 3d 9f 7e 5a 3e
       0.12997958 -0.07472533 0.106545955 0.21337365
0000a0 c0 3d 13 3c 77 a1 50 3e 3c 22 2d 3e e4 68 51 3e
       0.00898689 0.20374094 0.1690759 0.20450169
0000b0 c8 9a fe bd c1 a6 c0 be bd 9b 14 3e 19 b6 b7 be
       -0.12431866 -0.37627223 0.14512534 -0.35881117
0000c0 bd ed ee bd e0 5c d3 be 24 6b bf be e4 7e c2 3b
       -0.11666439 -0.41281796 -0.3738643 0.0059355367
0000d0 3c bc a6 3e aa ce ba 3e f3 f2 30 be f6 ae 7e 3d
       0.32565486 0.36485797 -0.17280178 0.062178575
0000e0 b1 8b 50 3e ac 88 95 be ae 14 0f bc 00 c3 ef 3d
       0.20365788 -0.29205835 -0.008732958 0.11707115
0000f0 90 f2 91 bc f2 67 64 bc 05 d1 35 be 45 06 aa 3e
       -0.017815858 -0.013940798 -0.17755516 0.33207908

0.translate_net.network.2.weight f4 [64, 64]
000000 6c c4 7d bd 8a 92 c5 bd 60 a1 17 bd d8 17 da 3c
       -0.0619549 -0.09647091 -0.037019134 0.026622698
000010 94 16 12 bd 00 2a e2 b9 98 ca bf 3c b6 4e e2 bd
       -0.035666063 -0.00043137372 0.023412034 -0.11050169
000020 ba 63 83 3d b8 d0 88 bc bc 9f c6 bd 68 17 46 bd
       0.06415506 -0.016701087 -0.09698436 -0.048362166
000030 24 ed af bd 90 e3 f0 bc bc b2 9c bd 6e a8 e7 bd
       -0.08590153 -0.029405385 -0.076512784 -0.11311422
000040 d8 54 84 bc 42 1d d6 bd d8 08 bb bc 00 49 c6 bb
       -0.016153738 -0.10454799 -0.022831365 -0.0060511827
000050 84 fe 64 3d 3a 9b d5 bd 4a 65 96 3d e0 b8 41 3d
       0.055906788 -0.10429998 0.07343538 0.04729545
000060 5a 44 9f 3d d8 60 3b bd 98 8c 19 3d 1a 68 98 bd
       0.07776709 -0.045746654 0.037487596 -0.07441731
000070 76 2e a4 3d 0c a2 00 3d ac 3b 96 3d 60 95 e7 bc
       0.08016674 0.03140454 0.073356 -0.02826947
000080 4a c9 cf 3d d0 fd 49 3c 54 5f 85 3d b0 8d 58 3d
       0.10145815 0.01232858 0.06512323 0.0528695
000090 a6 c6 f7 bd 90 b8 ad 3d 70 4d 71 3c 78 bd 81 bc
       -0.12098436 0.08482468 0.014727935 -0.015837416
0000a0 ea 02 cb 3d 88 67 7f 3d c0 be 6a 3b a0 5a 65 3d
       0.09912665 0.062354594 0.0035819262 0.05599463
0000b0 68 aa ba bc 44 d3 7a bd c0 d5 e0 3c f4 63 48 bd
       -0.022786334 -0.061236635 0.027445674 -0.048923448
0000c0 a4 bc 8b 3d 12 dd 9a 3d 90 7e 94 3c cc ba b1 3d
       0.0682309 0.07561697 0.018126756 0.08678207
0000d0 88 dd ad bc c0 6c d2 3c c8 d3 0e bd 70 d0 53 3c
       -0.021223798 0.025686622 -0.03486994 0.012928113
0000e0 28 cb 36 3d 98 cb 98 3c a4 a2 fe 3d 74 5c 35 bd
       0.04462734 0.018651769 0.12433365 -0.044277623
0000f0 a2 52 ce bd 00 00 81 36 bc 78 52 bd e0 df 37 bd
       -0.10074355 3.8444996e-06 -0.051384673 -0.04489124
000100 c6 bc 9b bd 28 db 9a 3d e8 e6 23 3d 18 6e d0 bc
       -0.07604365 0.07561332 0.04001513 -0.025443122
000110 40 ca 70 bd 44 fc 9d 3d 58 0f 40 bd ac e2 01 3d
       -0.05878663 0.077141315 -0.046889633 0.03171031
000120 c8 69 5b bd 8a e6 f5 bd 40 1c fa bb 08 6f dc 3d
       -0.053567678 -0.120068625 -0.007632762 0.10763365
000130 28 2a 53 bd 66 94 b0 3d a0 08 3d 3c bc 15 2c 3d
       -0.051553875 0.08622055 0.011537701 0.042012915
000140 84 6c 09 bd 30 e3 cf 3c 80 eb 78 bd 38 20 9a bc
       -0.033550754 0.025376886 -0.060771465 -0.018814191
000150 70 bd 63 bc 36 31 eb bd 16 8a 8e 3d 76 ab e2 3d
       -0.013900146 -0.114839956 0.069599316 0.1106786
000160 8a 08 fa bd 8c d3 7e 3d 4e 1e b5 3d 82 38 c7 bd
       -0.1220866 0.062213466 0.08843671 -0.09727575
000170 22 41 bb 3d f6 f9 d8 bd 9a ca 84 3d 10 36 65 3d
       0.091432825 -0.10594551 0.06483956 0.05595976
000180 88 22 ab bc 68 68 75 3d 40 f1 7e bd 0c 20 5e 3d
       -0.02089049 0.059914023 -0.062241793 0.05422978
000190 c2 ee f0 bd 7c 3c 84 3d cc e0 c2 bd b6 a1 d0 3d
       -0.117642894 0.06456849 -0.09515533 0.10187094
0001a0 82 08 83 bd a8 6c dd 3d b0 39 fa bc 6c 95 d5 bd
       -0.06398107 0.1081174 -0.030545086 -0.104288906
0001b0 60 42 03 bd fe 92 ad 3d ee 9b db bd 28 c9 5f 3d
       -0.032045722 0.08475302 -0.107231006 0.054635197
0001c0 58 f9 e2 3d 36 7b 9d bd 4c ac f7 3d e6 f2 99 3d
       0.11082715 -0.07689516 0.1209341 0.07517032
0001d0 48 04 77 bd 3e a0 98 bd 60 df 40 bd 2e bf cb bd
       -0.060306817 -0.07452439 -0.047088027 -0.09948574
0001e0 48 3f ad 3c be b8 f6 bd 30 36 25 3d 9e 27 97 3d
       0.021148339 -0.120469555 0.04033488 0.07380603
0001f0 00 83 3e 3d 56 41 f3 3d 38 4d b1 bc ac c1 94 bd
       0.04651165 0.11877696 -0.021643266 -0.072635025
000200 57 3b b5 bb c4 a6 5f be 94 d6 89 3d 6b 91 d3 bd
       -0.0055307555 -0.2184096 0.06730381 -0.10330471
000210 fb b4 a2 3d e2 e2 cc bd f2 09 ec 3d 54 12 71 3d
       0.079446755 -0.10004212 0.115253344 0.05885537
000220 64 29 03 3e 72 cb 97 3d 6c 75 b8 be b6 6d 8d be
       0.12808758 0.07411851 -0.36027086 -0.27622765
000230 70 c3 07 bc d4 1f a3 3d 55 3f 36 3e b5 00 29 3e
       -0.008286342 0.07965055 0.17797597 0.16504176
000240 35 38 cd bd 10 fd 84 3d ac f1 bb bd e5 d2 bb bb
       -0.10020486 0.0649358 -0.091769546 -0.0057319277
000250 8c dd c6 3d c2 d8 c7 3d ec 23 f6 3d 3e 63 9e bd
       0.097102255 0.0975814 0.1201857 -0.07733773
000260 44 ea 83 3d 60 05 41 3d b0 7f 24 bd 78 1c a1 bd
       0.06441167 0.047124267 -0.040160835 -0.07866758
000270 50 14 dd bd 86 41 02 3b 5f b4 ae be 70 ff 98 bd
       -0.1079489 0.001987548 -0.34121987 -0.07470596
000280 db f4 aa 3d 7f 32 b4 bd 46 57 ff bd 9d 3b 14 3d
       0.08347484 -0.08798694 -0.12467818 0.036189664
000290 66 70 11 3b c0 90 1c bd 55 46 c2 3d 0f 9c 30 bd
       0.0022192239 -0.03822398 0.09486071 -0.04311758
0002a0 46 f4 09 3e 4a 89 26 3e 0c 89 f1 3d 6f c2 91 bd
       0.13472089 0.16263309 0.11793718 -0.071171634
0002b0 6c 8e 66 bd 80 59 1c 3d 80 16 8c bd 50 f1 3b 3c
       -0.056288168 0.03817129 -0.06840229 0.011471108
0002c0 37 3c c3 3d 83 85 43 bd a4 42 08 bd 89 2f 3b 3e
       0.095329694 -0.04773475 -0.03326668 0.18279852
0002d0 3a 4f 4e 3e 3f a9 62 be f8 09 d9 39 a9 0b b9 bb
       0.2014741 -0.22134875 0.00041396893 -0.005647142
0002e0 6a 20 97 3d 8c 0c 6f 3d c2 5b 6a 3d c8 42 f8 bc
       0.07379229 0.058361575 0.057216413 -0.030305281
0002f0 1d 4e 7b 3e 73 f0 d1 3d 53 48 78 bc 1e 48 1f 3e
       0.24541517 0.1025094 -0.015153962 0.15554854
000300 95 b1 b4 bc 34 97 d1 bd 22 05 a9 bd da 98 b1 bd
       -0.022057334 -0.10233918 -0.08252932 -0.08671732
000310 48 02 c7 bd 04 da 05 bd e0 ff af 3d f4 4b ba 3d
       -0.09717232 -0.03267862 0.08593726 0.09096518
000320 70 4d 15 bd f4 85 f9 3d a8 40 36 3d 56 bd cf 3d
       -0.036450803 0.12183753 0.044495255 0.10143535
000330 22 21 b5 bd 32 e3 8f bd 53 75 e2 bd 55 67 88 bd
       -0.0884421 -0.07025756 -0.11057534 -0.06660334
000340 3a d8 38 3d 1b 17 40 be c0 4b 8f bc 5a 2c b2 3d
       0.045128085 -0.18758814 -0.017492175 0.08699866
000350 50 75 a7 bc dd 97 95 3c fd 5d 4b be a8 c4 82 3d
       -0.020441681 0.01826089 -0.19860072 0.063851655
000360 f7 43 2b 3d a0 98 73 3d 8c b5 d5 3d 3a 30 f8 bd
       0.041812863 0.059471726 0.10435018 -0.121185735
000370 16 97 e4 bd 00 5d 1e 3c 76 06 93 3d 3f f1 05 be
       -0.1116163 0.009665728 0.07178967 -0.1308031
000380 b0 f4 83 bd 97 0d 2f be 32 4c 97 bd 5b 05 fa bd
       -0.06443155 -0.17095028 -0.0738758 -0.12208053
000390 d0 db c7 bd b4 35 eb bd d0 00 df 3c 5e 8b cc bd
       -0.09758723 -0.114848524 0.027222067 -0.0998752
0003a0 b5 20 2c be 7c 16 14 3d 1b 65 04 3d 5e 4f 1f be
       -0.16809352 0.036154255 0.032322984 -0.1555762
0003b0 ac cb 80 bd b0 80 99 bd bb 7d 20 bd 5a 73 f2 3d
       -0.06288847 -0.07495248 -0.039182406 0.11838408
0003c0 40 36 15 3b 5a d8 fe 3d 64 8d 7b bd 1d 44 80 bd
       0.0022767931 0.124436095 -0.061414137 -0.062629916
0003d0 03 e5 19 be c0 42 71 3c f8 b1 84 3d 3b 4c 44 be
       -0.15028767 0.014725387 0.06479257 -0.19169705
0003e0 98 d8 4a bd 46 f3 a8 bd b2 2b 1d be d2 dc da bd
       -0.049522966 -0.08249526 -0.153487 -0.106866494
0003f0 bd 8f ec bb c0 4f 22 be 97 ff c8 3c e8 8d a6 bd
       -0.0072192834 -0.15850735 0.024535937 -0.08132535

0.translate_net.network.2.bias f4 [64]
000000 d6 5e d1 bd 64 01 c7 bd e4 67 08 3e dd 02 2b be
       -0.10223167 -0.09717062 0.13320881 -0.16700311
000010 b7 08 18 bd 75 e5 94 be 4e 55 2f 3d 90 4d aa bd
       -0.037117686 -0.29081312 0.042805962 -0.08315575
000020 d5 c2 b6 be aa d5 4e bc e6 0e d2 bc e9 a7 aa bb
       -0.3569552 -0.012624184 -0.02564187 -0.0052080047
000030 3f 27 aa bd f9 08 63 3a a9 15 4d 3d 12 4d fd 3c
       -0.08308267 0.00086607 0.050069485 0.030920539
000040 be 5e a2 bd 11 3c 91 bd 35 7f 29 be f8 72 8b 3e
       -0.07928227 -0.07091535 -0.16552432 0.27236152
000050 16 38 d1 bd 1d 20 37 bd ba 34 16 3d a3 50 a8 3c
       -0.10215776 -0.04470836 0.036671378 0.020546263
000060 5e 80 89 bd ec e2 34 bd 8a 6c 5e bc c3 01 bb 3d
       -0.06713937 -0.044161722 -0.013575682 0.091311954
000070 85 dc b0 bd 08 6e 5b 3b f2 d5 9f bd c8 af d9 bd
       -0.08635811 0.0033482332 -0.07804479 -0.10629231
000080 3a 85 c9 bd 6a a6 25 be fe c7 c8 bc 80 6b ee bd
       -0.09839864 -0.16176763 -0.024509426 -0.11641598
000090 17 da 0d 3e 57 8d 29 3d ed a2 ef 3d 0f a3 64 3e
       0.13852726 0.041394558 0.117009975 0.22327827
0000a0 74 d8 27 bd b5 44 42 bc 20 ee d4 bd 28 78 1b be
       -0.04097791 -0.011857201 -0.10396981 -0.15182555
0000b0 cd 6e 13 3c 63 79 1b bd c8 97 11 be 11 ce 66 bd
       0.008998585 -0.03795756 -0.14218056 -0.056348864
0000c0 34 f5 c2 bd e8 87 02 3d ab 22 09 3e 17 aa b6 3d
       -0.09519425 0.03186789 0.13392131 0.08919161
0000d0 7d f5 c9 bd 7b 7c 86 bd d8 2b fb bd 9c ae d3 bd
       -0.09861276 -0.065667115 -0.12264222 -0.103360385
0000e0 60 da 80 bd 5d 9f b9 bd ef e3 fb bd a7 a3 5f bc
       -0.06291652 -0.09063599 -0.12299334 -0.013649858
0000f0 9f 0a cd bc 54 95 9f bd d2 05 47 3c bc 0f 7e 3a
       -0.025029479 -0.07792154 0.012147384 0.00096916757
