SE3_DS/nn_models/models/PegInHole_models/best_model_005.pth (torch, 396402 bytes, 80 tensors)

0.scale_net.network.0.weight f4 [64, 6]
-0.13845137 0.33517152 -0.19826868 -0.47008127 -0.11801073 0.2979083 -0.36011723 -0.5024253
-0.25845206 0.064391896 -0.012927473 -0.16855669 0.0835197 0.12493721 0.14445728 -0.2062559
0.24694538 0.24290136 -0.106506884 -0.056260884 0.06071329 0.31953156 0.23762017 -0.10386568
-0.35926265 0.07297643 -0.4023965 -0.00990714 0.20111811 0.15416892 0.2815712 -0.026126971
0.27060574 -0.08581007 -0.29485616 -0.36961398 -0.10029498 -0.12551017 -0.30536032 -0.03055825
0.11555874 0.30263814 -0.008063793 0.00011605526 -0.19163868 -0.45866066 0.16179538 -0.20244172
0.39591706 0.30506548 -0.34159267 0.40816465 0.024419934 0.029108047 0.042004615 -0.35452184
0.20161974 0.056423932 -0.3253333 0.24963713 -0.14581117 -0.23979875 0.05805257 0.09893946
-0.19411024 0.07787752 0.124786735 -0.3372443 0.034303844 -0.17954147 0.11894941 -0.1639432
-0.29160598 0.29705334 -0.0766733 -0.44106328 -0.2573334 0.23858045 0.344126 0.10830627
-0.12238479 -0.49735433 0.25075036 0.23396671 0.10609621 -0.07500516 0.34950298 -0.22293127
-0.2555954 0.051256616 -0.19461058 -0.16860908 -0.35282594 0.39105296 0.3690973 -0.119621426
-0.27059183 -0.34387472 0.34933406 -0.36075583 -0.023063391 0.41900247 -0.05638805 -0.33647144
-0.11158544 0.30571014 -0.0018399656 -0.3417783 -0.37111354 0.043218523 -0.17978024 -0.15731287
0.14667356 -0.03202483 0.30041438 -0.240807 -0.035034686 0.3239809 0.3855803 -0.503489
0.17082125 0.076003395 0.057673544 -0.05125419 -0.114287764 -0.049089506 -0.061084718 -0.1962968
0.0632408 -0.02832374 0.31964034 0.3923418 0.15862048 0.22950433 0.1836729 -0.15219031
-0.39055255 -0.051785704 0.056426555 -0.44570038 -0.35839018 -0.3112763 0.29076117 -0.17981273
-0.047414303 -0.25575578 -0.19009238 0.37483636 -0.24200682 0.057985235 -0.3949075 -0.3994183
0.026386172 0.40464377 0.17787075 -0.213609 -0.15374315 -0.12817693 0.29023874 -0.1972748
0.35460675 0.21848582 -0.32080024 0.23425841 -0.36134705 0.16457002 0.22255135 -0.38622436
0.050747305 0.10516312 -0.17204015 -0.252082 0.12458515 0.30937248 0.38661802 0.21361238
0.1793204 0.54136926 0.27345985 0.024780652 0.33889872 0.0398741 -0.03413984 -0.114623725
-0.024297327 -0.08840864 -0.18606758 -0.2959527 -0.3251249 0.4720529 -0.29887995 0.054879285
0.26182526 0.23014586 -0.34164968 -0.27588022 0.31140894 0.11552358 -0.18287064 0.2530763
0.36577535 0.53383285 -0.2668556 -0.17252477 0.10901964 -0.31932417 -0.1832647 0.24287792
-0.30292037 0.067416005 0.38169873 -0.6455503 -0.32747132 -0.51695895 0.25062364 0.09210091
0.33131248 0.28649434 0.0031899214 -0.20309563 -0.07160768 0.1266772 -0.117154926 -0.67558986
0.098407626 0.13272665 -0.26653004 -0.35454202 -0.026299 -0.1581422 0.27295405 0.6424279
0.104777694 0.17340402 0.03124085 0.2886139 0.39423656 -0.077673644 -0.041549742 -0.4129902
-0.3765474 0.2667341 -0.19060197 -0.28200853 0.06335932 -0.04211782 -0.12974098 -0.60262966
-0.07548955 0.011836825 0.0066262484 0.20606564 0.22139847 -0.38581216 -0.07562286 0.396206
00000000: 32c6 0dbe 9a9b ab3e f206 4bbe 7eae f0be
00000010: 9caf f1bd 7087 983e 4961 b8be f29e 00bf
00000020: d453 84be e6df 833d c0cd 53bc 209a 2cbe
00000030: 600c ab3d 14df ff3d 9cec 133e bf34 53be
00000040: 40df 7c3e 22bb 783e 4820 dabd d071 66bd
00000050: 80ae 783d a499 a33e b452 733e 88b7 d4bd
00000060: 46f1 b7be ab74 953d ea06 cebe 8f51 22bc
00000070: e8f1 4d3e 75de 1d3e 1a2a 903e 3b08 d6bc
00000080: d68c 8a3e 31bd afbd 63f7 96be 0b3e bdbe
00000090: 7467 cdbd bd85 00be 3058 9cbe 4c55 fabc
000000a0: 10aa ec3d 63f3 9a3e 001e 04bc b162 f338
000000b0: ee3c 44be 92d5 eabe b0ad 253e e24c 4fbe
000000c0: a4b5 ca3e 8b31 9c3e 3ce5 aebe f5fa d03e
000000d0: 500c c83c 0074 ee3c 080d 2c3d e383 b5be
000000e0: 6875 4e3e c81c 673d 1692 a6be e0a0 7f3e
000000f0: 864f 15be ce8d 75be 88c8 6d3d c6a0 ca3d
00000100: d6c4 46be 407e 9f3d 3090 ff3d 49ab acbe
00000110: 3082 0c3d b8d9 37be c09b f33d bae0 27be
00000120: 614d 95be 6017 983e e406 9dbd 0cd3 e1be
00000130: 34c1 83be 6f4e 743e 4831 b03e adcf dd3d
00000140: e0a4 fabd 3aa5 febe 5a62 803e f894 6f3e
00000150: f848 d93d 4e9c 99bd 0ef2 b23e 1848 64be
00000160: 66dd 82be 75f2 513d ff47 47be dca7 2cbe
00000170: 9aa5 b4be 1838 c83e 52fa bc3e 14fc f4bd
00000180: 038b 8abe 5910 b0be eadb b23e fdb4 b8be
00000190: 70ef bcbc 7e87 d63e 28f7 66bd fc45 acbe
000001a0: e886 e4bd 0a86 9c3e 002b f1ba 91fd aebe
000001b0: 9802 bebe e805 313d 5018 38be a016 21be
000001c0: 9831 163e 782c 03bd eacf 993e 1c96 76be
000001d0: 8880 0fbd d3e0 a53e c86a c53e a8e4 00bf
000001e0: c4eb 2e3e aba7 9b3d 183b 6c3d eaef 51bd
000001f0: b40f eabd 1412 49bd f833 7abd 0702 49be
00000200: 6484 813d 3007 e8bc e6a7 a33e 06e1 c83e
00000210: 686d 223e 2f03 6b3e c014 3c3e c7d7 1bbe
00000220: 81f6 c7be 3f1d 54bd 881f 673d d732 e4be
00000230: eb7e b7be 9b5f 9fbe a6de 943e d420 38be
00000240: 8035 42bd 6cf2 82be 94a7 42be 8dea bf3e
00000250: a3d0 77be ed81 6d3d 5131 cabe 8e80 ccbe
00000260: d027 d83c 782d cf3e c023 363e 51bc 5abe
00000270: d86e 1dbe d040 03be 2c9a 943e 6802 4abe
00000280: 048f b53e bfba 5f3e ee3f a4be 70e1 6f3e
00000290: 7b02 b9be 0b85 283e 80e4 633e 33bf c5be
000002a0: 68dc 4f3d c35f d73d 4b2b 30be e410 81be
000002b0: 8026 ff3d 1266 9e3e ccf2 c53e 34bd 5a3e
000002c0: c49f 373e 2d97 0a3f ee02 8c3e cb00 cb3c
000002d0: 2284 ad3e 0653 233d 38d6 0bbd d8bf eabd
000002e0: 300b c7bc 970f b5bd 8088 3ebe 1d87 97be
000002f0: c576 a6be ebb0 f13e cb06 99be 1ac9 603d
00000300: f60d 863e 5bab 6b3e b5ec aebe 2c40 8dbe
00000310: fe70 9f3e a097 ec3d 7142 3bbe 3793 813e
00000320: e846 bb3e 45a9 083f 4ca1 88be 55aa 30be
00000330: b045 df3d 757e a3be bea9 3bbe fdb4 783e
00000340: 6118 9bbe 6711 8a3d 046e c33e c942 25bf
00000350: 52aa a7be 6c57 04bf be51 803e 679f bc3d
00000360: caa1 a93e 63af 923e 000e 513b 4df8 4fbe
00000370: 0ca7 92bd abb7 013e ecee efbd 75f3 2cbf
00000380: f089 c93d 7fe9 073e a076 88be 8886 b5be
00000390: 0071 d7bc 07f0 21be a2c0 8b3e 2876 243f
000003a0: b095 d63d d390 313e d0ec ff3c 33c5 933e
000003b0: 60d9 c93e 5c13 9fbd 1030 2abd 7473 d3be
000003c0: d2ca c0be 5f91 883e 2a2d 43be 6c63 90be
000003d0: 88c2 813d bc83 2cbd d2da 04be f045 1abf
000003e0: 449a 9abd 3eef 413c 0021 d93b df02 533e
000003f0: 48b6 623e 2c89 c5be 28e0 9abd 83db ca3e

0.scale_net.network.0.bias f4 [64]
-0.063010626 0.33700278 -0.3996619 -0.2774065 -0.036391847 0.32031307 -0.09020493 0.017000502
-0.14413768 -0.1940132 -0.08843247 -0.21835618 0.0068161855 0.22376771 -0.07473836 -0.292176
-0.15554416 -0.38055605 -0.2121694 0.4546344 -0.18114893 -0.25415254 0.02890494 0.13593508
-0.107753396 0.24037242 -0.08501617 -0.13190302 -0.09476524 -0.3260319 0.01690662 -0.107502095
-0.0036297466 -0.18867478 -0.15635902 0.1522014 -0.38285935 0.29767904 -0.28983778 0.26937777
0.13106701 0.03418534 -0.06669334 -0.33018464 0.13024543 -0.039636288 -0.17753856 -0.33478513
-0.38927028 -0.37501577 -0.05274918 -0.16395801 0.12337642 0.21324879 -0.38089937 -0.1588915
0.09527044 -0.37566307 -0.26019943 -0.15814537 -0.08966539 0.18491209 -0.085371494 0.17943047
00000000: b70b 81bd a18b ac3e 7ca0 ccbe 3a08 8ebe
00000010: 9e0f 15bd 1300 a43e 5dbd b8bd a344 8b3c
00000020: d498 13be 65ab 46be 151c b5bd c398 5fbe
00000030: 4f5a df3b 5d23 653e 6d10 99bd 1898 95be
00000040: f846 1fbe 3ed8 c2be ef42 59be d7c5 e83e
00000050: 1b7f 39be 4820 82be 0dca ec3c 9132 0b3e
00000060: d0ad dcbd 3024 763e f51c aebd 9611 07be
00000070: 4714 c2bd a7ed a6be c07f 8a3c 0f2a dcbd
00000080: 0be1 6dbb f633 41be 941c 20be afda 1b3e
00000090: 2406 c4be 6369 983e 9e65 94be e2eb 893e
000000a0: 6e36 063e ed05 0c3d 8596 88bd f60d a9be
000000b0: 0f5f 053e a959 22bd abcc 35be f568 abbe
000000c0: 6f4e c7be 1102 c0be 860f 58bd 9ce4 27be
000000d0: c7ac fc3d e45d 5a3e 3e05 c3be 74b4 22be
000000e0: 261d c33d e956 c0be dc38 85be dcf0 21be
000000f0: 7da2 b7bd 9859 3d3e 40d7 aebd 9fbc 373e

0.scale_net.network.2.weight f4 [64, 64]
-0.43254858 0.029715447 0.110021584 -0.061523005 0.12005485 -0.084842764 0.06739913 0.12808847
0.15698817 0.08316819 -0.09130842 -0.0792066 -0.09036609 -0.2984529 -0.13795596 -0.06692392
-0.106901 -0.0026851147 0.08282311 0.086881 0.053296644 -0.07215944 -0.12280713 -0.017825153
0.29975307 0.21144117 -0.0061180866 0.10386839 -0.037586004 0.28125545 0.016631484 0.39563543
-0.15724699 0.23918658 0.019504216 -0.059503954 -0.113416515 0.15185453 0.6755426 -0.12245146
-0.28982508 0.06754028 0.3073911 0.09919834 0.033127844 0.03829681 -0.07637781 0.064606994
0.06911847 -0.049349383 0.050223015 -0.015312985 0.018526454 -0.025724106 -0.08337638 -0.02370824
0.08464301 0.049953118 0.055590585 0.22041205 0.15671647 -0.71478796 0.020638824 -0.13344435
-0.010323107 0.034004208 -0.12167488 -0.08608042 -0.19452535 -0.04562043 0.060942113 -0.042083167
-0.0494332 0.07580271 0.020532563 -0.06622423 -0.13506728 -0.15851721 -0.15165985 -0.054537
-0.06697704 0.056910083 0.11638464 0.022724554 0.011747867 -0.06246683 -0.17454775 0.024902254
0.10878898 -0.14005636 0.115621164 0.108772025 -0.055796757 -0.043262556 0.026621638 0.060846
-0.1440803 -0.10194169 -0.0030608475 -0.032640625 0.042572215 -0.1416735 0.11142509 -0.18414283
0.034639362 -0.14178203 -0.034596104 0.0608166 -0.043266643 -0.1703171 -0.016991809 0.03230995
0.09118937 -0.046752572 -0.08073707 0.11414163 -0.0007586719 -0.13156243 -0.09174928 0.039773732
-0.09489241 0.051652417 0.09433134 0.04587938 -0.055722073 0.030906089 -0.064513996 0.0073251543
-0.14206116 -0.1101131 0.14841029 0.01945676 -0.097085714 -0.024476536 0.016727544 0.061105058
0.038034674 0.07890673 0.043861922 0.10872063 0.0149982 -0.017776806 0.010260746 -0.11253685
0.124868646 -0.077913344 -0.024049371 -0.046194483 0.048738748 0.10588302 0.03319247 -0.07056753
0.001983443 -0.0840547 -0.0112342145 -0.16394019 -0.050926562 0.040096417 -0.12796493 -0.051321354
-0.009412557 -0.030423269 0.07891083 -0.0157094 0.066247076 -0.07574038 0.052274764 -0.122859105
-0.06379426 -0.16656293 -0.064839825 -0.1231181 0.028164264 -0.10813805 -0.04120706 0.008564696
-0.09283267 0.00856486 0.011654844 -0.04886064 -0.06730775 0.099261895 -0.011651248 0.0058329403
-0.011770783 0.07542373 0.078233615 -0.14977242 0.04170496 0.05125457 -0.12231432 -0.039073754
-0.07865272 -0.042341735 0.014094215 0.079615965 -0.11510015 -0.044163372 -0.23728785 0.05499352
-0.11394762 -0.002461031 0.024941126 0.06140064 0.0052266214 0.027933363 -0.050312307 0.047299683
-0.03517199 -0.035701618 -0.063819915 -0.13398178 -0.06355868 -0.008886322 -0.06603951 0.07416793
-0.13996086 -0.09973545 -0.25775367 0.13344365 -0.15062898 -0.1697681 0.021811694 -0.119385175
0.09014122 -0.25186345 -0.054904386 0.21318528 0.20355643 -0.19488285 -0.30696735 0.047708575
0.1377911 -0.11627335 -0.0836063 0.0054410994 0.0223927 0.036696546 0.05094672 -0.06784098
0.04824835 0.046280146 -0.11188948 0.059227258 0.06728632 0.21954273 0.06870018 0.0671075
0.031540424 -0.033008754 0.10288006 -0.10133836 -0.15193222 0.072627775 0.06497882 -0.10100694
00000000: 0277 ddbe cf6d f33c ff52 e13d 8cff 7bbd
00000010: 51df f53d 0bc2 adbd 8e08 8a3d a029 033e
00000020: 82c1 203e 1654 aa3d e9ff babd 1237 a2bd
00000030: db11 b9bd d2ce 98be 5444 0dbe 680f 89bd
00000040: e9ee dabd c0f8 2fbb 2a9f a93d aaee b13d
00000050: 954d 5a3d 54c8 93bd 4e82 fbbd 0e06 92bc
00000060: 3c79 993e 0984 583e 3b7a c8bb f3b8 d43d
00000070: c8f3 19bd b700 903e c03e 883c ba90 ca3e
00000080: 5b05 21be 54ed 743e 4ec7 9f3c 6bba 73bd
00000090: eb46 e8bd c17f 1b3e 5cf0 2c3f d5c7 fabd
000000a0: f463 94be 8f52 8a3d 5e62 9d3e 8028 cb3d
000000b0: 10b1 073d 1edd 1c3d f86b 9cbd ac50 843d
000000c0: fc8d 8d3d 9422 4abd a6b6 4d3d 50e3 7abc
000000d0: cac4 973c 5cbb d2bc 3cc1 aabd c837 c2bc
000000e0: 5059 ad3d a49b 4c3d f4b2 633d b2b3 613e
000000f0: 487a 203e 58fc 36bf c012 a93c a3a5 08be
00000100: 4022 29bc ff47 0b3d ae30 f9bd ee4a b0bd
00000110: a731 47be 7ddc 3abd 709e 793d 665f 2cbd
00000120: 787a 4abd 743e 9b3d e833 a83c 92a0 87bd
00000130: 144f 0abe 5652 22be b84c 1bbe 3062 5fbd
00000140: 422b 89bd 8c1a 693d 125b ee3d d828 ba3c
00000150: 207a 403c 38dd 7fbd a5bc 32be d0ff cb3c
00000160: c2cc de3d ef6a 0fbe caca ec3d dec3 de3d
00000170: 248b 64bd 1434 31bd 9f15 da3c a839 793d
00000180: c989 13be cec6 d0bd 8098 48bb 2db2 05bd
00000190: 3460 2e3d dc12 11be d632 e43d f08f 3cbe
000001a0: 01e2 0d3d 4f2f 11be a5b4 0dbd d41a 793d
000001b0: 5d38 31bd 9b67 2ebe 6832 8bbc 7057 043d
000001c0: 7ec1 ba3d a07f 3fbd 7a59 a5bd 16c3 e93d
000001d0: 9ce1 46ba 4db8 06be 0ce7 bbbd c8e9 223d
000001e0: f456 c2bd 7c91 533d ca30 c13d 04ec 3b3d
000001f0: d43c 64bd c42e fd3c ea1f 84bd d907 f03b
00000200: 7b78 11be fa82 e1bd def8 173e c863 9f3c
00000210: e0d4 c6bd 0483 c8bc 3408 893c 4c49 7a3d
00000220: 3fca 1b3d da99 a13d 8fa8 333d eca8 de3d
00000230: 03bb 753c aaa0 91bc b01c 283c b879 e6bd
00000240: 22bb ff3d 0891 9fbd 3003 c5bc 6d36 3dbd
00000250: 48a2 473d 32d9 d83d d4f4 073d b685 90bd
00000260: a7fc 013b df24 acbd b60f 38bc f0df 27be
00000270: 5f98 50bd 243c 243d 3d09 03be 5736 52bd
00000280: 2037 1abc 383a f9bc 009c a13d 00b1 80bc
00000290: 8cac 873d c61d 9bbd 101e 563d 8e9d fbbd
000002a0: 91a6 82bd 798f 2abe beca 84bd 5825 fcbd
000002b0: beb8 e63c 7b77 ddbd bcc8 28bd f052 0c3c
000002c0: 0e1f bebd a053 0c3c f5f3 3e3c 1822 48bd
000002d0: a5d8 89bd d249 cb3d e0e4 3ebc 4022 bf3b
000002e0: 3eda 40bc c277 9a3d f238 a03d f15d 19be
000002f0: d2d2 2a3d 50f0 513d ee7f fabd cd0b 20bd
00000300: ad14 a1bd 876e 2dbd 6ceb 663c b20d a33d
00000310: a1b9 ebbd a7e4 34bd 96fb 72be e340 613d
00000320: 5f5d e9bd 4049 21bb 5551 cc3c 3d7f 7b3d
00000330: 1444 ab3b 82d4 e43c 4714 4ebd 50bd 413d
00000340: 8110 10bd dc3b 12bd 04b4 82bd 8532 09be
00000350: 0e2b 82bd f097 11bc b93f 87bd 5be5 973d
00000360: e651 0fbe 1a42 ccbd 4af8 83be 74a5 083e
00000370: 7c3e 1abe b0d7 2dbe 70ae b23c 3780 f4bd
00000380: f69b b83d 3ff4 80be 6ce3 60bd 3e4d 5a3e
00000390: 1971 503e 5f8f 47be d32a 9dbe 116a 433d
000003a0: 1c19 0d3e b920 eebd c839 abbd 404b b23b
000003b0: e570 b73c 1e4f 163d 82ad 503d 36f0 8abd
000003c0: 10a0 453d 4090 3d3d 5026 e5bd 4898 723d
000003d0: 69cd 893d cfcf 603e aeb2 8c3d a86f 893d
000003e0: 8830 013d 3034 07bd c8b2 d23d 7c8a cfbd
000003f0: 1f94 1bbe dfbd 943d 9e13 853d badc cebd

0.scale_net.network.2.bias f4 [64]
0.06675525 -0.18525057 -0.08786431 0.019207796 -0.06200249 0.037872024 -0.07346015 -0.23004673
-0.082879975 -0.15580389 -0.0015810239 -0.11823742 0.002036959 0.031085722 0.13292176 -0.012902841
0.05363924 -0.014105726 0.1253285 0.16666293 -0.12093848 -0.055777818 -0.047349807 0.03795376
0.03926175 0.15629289 -0.08665195 0.1321885 0.23367465 -0.1318533 -0.13730018 0.118671745
-0.14638291 0.14710362 -0.15159321 -0.07830817 -0.11279139 -0.012551968 -0.042240024 0.032885097
-0.0971614 -0.026542723 0.19976749 0.24189909 -0.020191085 -0.103048176 -0.10255867 0.034156337
-0.02363398 -0.124793366 0.0076038027 0.13374116 -0.1519336 -0.035138853 -0.07245295 -0.09628676
0.0012307328 -0.016674912 -0.00976919 -0.2185885 -0.094798915 -0.054075994 0.008907204 0.053866565
00000000: fab6 883d 53b2 3dbe 34f2 b3bd ab59 9d3c
00000010: 53f6 7dbd b21f 1b3d 4672 96bd 5f91 6bbe
00000020: fabc a9bd 0e8b 1fbe 5c3a cfba 7626 f2bd
00000030: 807e 053b 7ca7 fe3c a41c 083e 7066 53bc
00000040: d2b4 5b3d b41b 67bc 1d56 003e b0a9 2a3e
00000050: 98ae f7bd 4877 64bd dff1 41bd 6775 1b3d
00000060: eed0 203d 3e0b 203e 9476 b1bd 6c5c 073e
00000070: 6848 6f3e 8d04 07be 6b98 0cbe 2c0a f33d
00000080: 67e5 15be 55a2 163e 403b 1bbe 0960 a0bd
00000090: 2cff e6bd c5a6 4dbc e003 2dbd 86b2 063d
000000a0: 8efc c6bd 2070 d9bc d98f 4c3e 65b4 773e
000000b0: c667 a5bc ec0a d3bd 480a d2bd 84e7 0b3d
000000c0: 0c9c c1bc aa93 ffbd 5229 f93b 71f3 083e
000000d0: 7b94 1bbe c2ed 0fbd 3662 94bd fe31 c5bd
000000e0: 8a50 a13a d399 88bc f40e 20bc aad5 5fbe
000000f0: ef25 c2bd ca7e 5dbd 85ef 113c 30a3 5c3d

0.scale_net.network.4.weight f4 [64, 64]
-0.12634815 0.029624745 0.11471051 0.019213628 -0.023001956 -0.059756856 0.11635907 0.10253199
-0.038248003 0.061278448 -0.17432222 0.16349542 0.06254083 0.1547315 0.17917404 -0.009361833
-0.2459202 -0.009284621 -0.07257856 0.10943312 -0.09627837 0.06358774 -0.09205861 -0.043638587
0.07549232 0.01430809 0.046879966 -0.00030162075 0.09687525 0.1316875 -0.08098413 0.11139164
-0.06687027 0.13022733 0.14771275 -0.124191955 -0.105540834 0.080007076 0.12305263 0.03089457
-0.026793107 -0.15046038 0.18192317 0.1984487 0.11476435 0.070678264 0.044687815 -0.04643647
0.06368733 -0.01651197 0.033592977 0.038646054 0.17419608 0.06728298 0.1490638 0.037248492
-0.0012505897 0.009790454 0.002880802 0.039687812 -0.07584697 0.05255198 -0.017722115 0.023658393
-0.078861386 0.0018470436 -0.00899283 0.014225088 -0.08261821 -0.0460547 0.076879025 -0.11379136
-0.072714835 0.119942516 -0.0072433744 -0.07214786 0.10186949 0.01392495 -0.13124645 -0.0064060837
-0.10521366 0.0058585852 -0.13972956 -0.1298349 -0.104589686 -0.024148032 0.07182859 -0.038154338
0.01809972 -0.053259704 -0.00928479 -0.040599268 0.04959003 -0.03346349 -0.09063196 0.0055961683
-0.05604762 -0.149764 -0.0014256604 0.08205733 0.032914117 -0.07306076 0.026988605 -0.19604594
0.040528074 -0.08806837 -0.11027903 -0.1661179 -0.029433735 0.021424577 -0.04349196 -0.08578024
0.1369142 -0.108492054 -0.102888465 0.034046203 -0.032634404 0.004484615 0.013241435 -0.022497877
-0.09808804 0.014010803 0.009423849 0.10443704 -0.0064790845 -0.048556328 -0.12216656 -0.13796543
-0.13692264 0.037503004 0.08869416 -0.15497895 0.055576716 -0.02969457 0.020208314 -0.04918088
-0.0986308 0.0023408532 -0.15825117 -0.06541015 -0.006763026 0.01521444 -0.08918222 -0.05025585
0.09505876 -0.050843418 -0.20503096 0.017829409 -0.11947958 -0.05022186 0.13219234 0.060810544
0.058896072 -0.055215426 0.06940118 -0.04032011 -0.12364723 -0.046243135 -0.00040577352 -0.07960336
-0.010491267 -0.007979107 -0.05392502 -0.06920992 -0.010543868 -0.048631158 0.055200566 -0.16749887
-0.06756805 -0.056028605 0.0406666 -0.15328841 -0.040532846 -0.038765296 -0.014277107 0.027316509
0.06546845 -0.14007486 0.03611391 0.08151542 -0.029767599 -0.049546678 0.06688803 -0.00026595592
0.03725548 0.11920116 -0.03388273 -0.09431361 0.07158637 0.00051210437 -0.027325239 -0.07746387
-0.04387706 -0.115972206 0.029736334 -0.03439013 -0.2313137 0.0023645088 0.048204362 -0.026943978
0.1079572 0.027727723 0.03634732 0.3119695 -0.11769837 -0.15892258 -0.017877659 -0.08888456
-0.0015931407 -0.039703507 -0.034957204 0.021462593 -0.08634886 0.03508362 -0.10057115 -0.04471967
-0.05470892 0.029961534 -0.040426787 0.03961617 0.11779524 -0.13842154 -0.119275466 -0.011348057
0.057259597 0.030675223 -0.10415554 -0.09580167 -0.023873854 -0.00018173816 0.066642515 0.03539598
-0.012921035 -0.13265625 0.1077225 0.047627553 -0.06884194 0.10712227 -0.05668682 -0.2504671
0.048607104 -0.10119226 -0.088435166 -0.08149873 -0.054729823 -0.06750446 -0.13436908 -0.06468606
-0.08896949 0.042697098 -0.06014586 -0.16889955 0.048460405 0.054961372 -0.0016068212 0.012853397
00000000: 6961 01be 98af f23c 58ed ea3d e665 9d3c
00000010: 996e bcbc 9bc3 74bd aa4d ee3d 4bfc d13d
00000020: f0a9 1cbd 1cff 7a3d 8681 32be 586b 273e
00000030: 6815 803d ef71 1e3e 6679 373e 6062 19bc
00000040: 81d2 7bbe 861e 18bc 11a4 94bd 791e e03d
00000050: 982d c5bd 4a3a 823d 3989 bcbd 60be 32bd
00000060: b89b 9a3d 7b6c 6a3c 3505 403d da22 9eb9
00000070: 8866 c63d 17d9 063e 02db a5bd 4d21 e43d
00000080: 48f3 88bd 505a 053e 0342 173e 5a58 febd
00000090: cb25 d8bd c0da a33d 0403 fc3d 9c16 fd3c
000000a0: 387d dbbc 4912 1abe 114a 3a3e 2336 4b3e
000000b0: 9209 eb3d c4bf 903d 920a 373d 2b34 3ebd
000000c0: 816e 823d 1c44 87bc ca98 093d 534b 1e3d
000000d0: 7560 323e a9cb 893d 2ea4 183e e091 183d
000000e0: d4ea a3ba 2468 203c d6cb 3c3b b08f 223d
000000f0: a855 9bbd bf40 573d f82d 91bc 3fcf c13c
00000100: 1482 a1bd 8018 f23a aa56 13bc 5810 693c
00000110: bc33 a9bd daa3 3cbd c072 9d3d 720b e9bd
00000120: 84eb 94bd 6ca4 f53d d459 edbb 42c2 93bd
00000130: f4a0 d03d 7925 643c 7865 06be 20ea d1bb
00000140: 427a d7bd 60f9 bf3b 4415 0fbe 71f3 04be
00000150: 1e33 d6bd 18d2 c5bc de1a 933d b947 1cbd
00000160: dd45 943c d926 5abd 3b1f 18bc 6b4b 26bd
00000170: ea1e 4b3d 0311 09bd 409d b9bd 1060 b73b
00000180: 3092 65bd bc5b 19be 3add baba ac0d a83d
00000190: f4d0 063d e1a0 95bd 3517 dd3c 44c0 48be
000001a0: c400 263d 315d b4bd f9d9 e1bd d01a 2abe
000001b0: 041f f1bc 9882 af3c a024 32bd 8dad afbd
000001c0: 3c33 0c3e 1531 debd 30b7 d2bd 0874 0b3d
000001d0: a7ab 05bd adf3 923b 9bf2 583c 784d b8bc
000001e0: 62e2 c8bd 918d 653c 7d66 1a3c 16e3 d53d
000001f0: 804e d4bb 00e3 46bd 7632 fabd cf46 0dbe
00000200: 7335 0cbe c09c 193d 49a5 b53d cdb2 1ebe
00000210: 69a4 633d 0742 f3bc e88b a53c e471 49bd
00000220: f2fe c9bd 0069 193b 980c 22be c2f5 85bd
00000230: 609c ddbb fd45 793c 2ba5 b6bd 14d9 4dbd
00000240: 2bae c23d 3041 50bd a3f3 51be fb0e 923c
00000250: b6b1 f4bd 70b5 4dbd 6e5d 073e 7a14 793d
00000260: 023d 713d 9229 62bd 3522 8e3d b326 25bd
00000270: c23a fdbd 7169 3dbd 00be d4b9 1607 a3bd
00000280: 90e3 2bbc cdba 02bc 7be0 5cbd eebd 8dbd
00000290: 30c0 2cbc 7731 47bd fd19 623d d384 2bbe
000002a0: 1e61 8abd 407e 65bd 0592 263d a3f7 1cbe
000002b0: c505 26bd 5cc8 1ebd 87ea 69bc dfc6 df3c
000002c0: 5314 863d c96f 0fbe 2eec 133d 8ef1 a63d
000002d0: 2edb f3bc 75f1 4abd 97fc 883d 0070 8bb9
000002e0: 3499 183d bd1f f43d 9ec8 0abd 7e27 c1bd
000002f0: e09b 923d be3e 063a 2ed9 dfbc 61a5 9ebd
00000300: 6fb8 33bd d682 edbd 9d99 f33c aadc 0cbd
00000310: 80dd 6cbe e0f5 1a3b f071 453d 9eb9 dcbc
00000320: aa18 dd3d 4025 e33c ede0 143d 77ba 9f3e
00000330: d80b f1bd 9abc 22be 2b74 92bc 1c09 b6bd
00000340: eed0 d0ba 25a0 22bd 492f 0fbd 52d2 af3c
00000350: acd7 b0bd d8b3 0f3d 3ff8 cdbd f92b 37bd
00000360: 7616 60bd e471 f53c 8f96 25bd 9144 223d
00000370: a13e f13d 60be 0dbe b246 f4bd 33ed 39bc
00000380: 0a89 6a3d 9b4a fb3c 804f d5bd aa33 c4bd
00000390: 1a93 c3bc f790 3eb9 df7b 883d 60fb 103d
000003a0: c0b2 53bc 0ad7 07be 9d9d dc3d 1c15 433d
000003b0: 01fd 8cbd ec62 db3d 7030 68bd 393d 80be
000003c0: 3e18 473d e33d cfbd 7f1d b5bd cee8 a6bd
000003d0: 612c 60bd c73f 8abd 0c98 09be 207a 84bd
000003e0: a335 b6bd 27e3 2e3d 815b 76bd 01f4 2cbe
000003f0: 6b7e 463d 2d1f 613d f99b d2ba 0e97 523c

0.scale_net.network.4.bias f4 [64]
0.17037073 0.022396605 -0.09006866 0.14407562 -0.17982334 -0.074128866 -0.30680698 -0.008103706
-0.08506648 -0.16505828 -0.03726187 0.0034051721 -0.16922809 0.044149496 -0.06666851 -0.12137836
0.25249597 -0.025584634 -0.026919536 0.032489337 -0.060374714 -0.029196348 -0.027220694 -0.021192996
-0.066849485 -0.11976967 0.005856227 -0.13835444 0.018736765 0.07899746 -0.19287635 -0.05512289
0.08220281 -0.018742975 0.22155431 0.022012498 -0.27901274 -0.119462565 -0.02259999 0.047119584
-0.08251297 0.009898097 0.012828271 -0.080577396 -0.14124186 0.24191757 -0.14431798 -0.08061348
-0.039235648 -0.0751936 -0.0091913575 -0.21902332 -0.04855565 -0.041908987 -0.13378447 -0.018176612
0.24953926 0.010780849 -0.28428403 -0.102575175 0.03266914 -0.29408473 -0.16767658 -0.026437983
00000000: aa75 2e3e 1679 b73c eb75 b8bd 8f88 133e
00000010: 9c23 38be e0d0 97bd ce15 9dbe 68c5 04bc
00000020: 5637 aebd 0a05 29be e79f 18bd 4f29 5f3b
00000030: 214a 2dbe 1ad6 343d 8089 88bd 3895 f8bd
00000040: 2747 813e de96 d1bc 5c86 dcbc 8a13 053d
00000050: 7a4b 77bd 2e2d efbc effd debc ef9c adbc
00000060: 62e8 88bd cd49 f5bd 98e5 bf3b c9ac 0dbe
00000070: d87d 993c 6cc9 a13d 6181 45be 8ac8 61bd
00000080: f259 a83d de8a 99bc 22df 623e 8e53 b43c
00000090: c2da 8ebe caa8 f4bd 9d23 b9bc 7700 413d
000000a0: 8ffc a8bd a12b 223c ab2d 523c c305 a5bd
000000b0: b5a1 10be 3db9 773e 18c8 13be ae18 a5bd
000000c0: 8fb5 20bd 1aff 99bd 5997 16bc a647 60be
000000d0: 4ae2 46bd c2a8 2bbd ccfe 08be 1ee7 94bc
000000e0: 3887 7f3e 28a2 303c ad8d 91be ef12 d2bd
000000f0: 13d0 053d 4692 96be 69b3 2bbe 7894 d8bc

0.scale_net.network.6.weight f4 [6, 64]
-0.14860688 -0.0017852638 0.002605044 -0.09479536 -0.09377263 0.23301624 -0.1954024 0.010821666
0.019349152 0.057785366 0.0046248194 0.009201593 -0.043927483 -0.016584005 -0.0508656 -0.07084521
-0.19555776 -0.08472459 -0.03397475 0.1497155 -0.04080564 -0.012756295 -0.03219607 -0.021152742
0.0 -0.025528945 -0.006097149 0.06039182 0.021059118 0.4715139 0.14002563 -0.026149657
0.012427251 -0.06156464 -0.16849391 -0.025766911 0.02312493 0.0 -0.0042607943 0.013989344
0.06772037 -0.00035712525 0.0036974123 0.043324888 -0.034360666 -0.11881193 0.009393405 -0.06878975
-0.0019530194 -0.07742926 -0.010294772 0.0110760005 -0.01733949 0.009940057 -0.047147278 -0.011580851
-0.15459168 -0.008819496 0.14734533 -0.025593592 -0.0057383603 -0.023355216 0.061790176 0.015886305
0.0 0.0 0.0 0.0 0.0 0.0 0.0 0.0
0.0 0.0 0.0 0.0 0.0 0.0 0.0 0.0
0.0 0.0 0.0 0.0 0.0 0.0 0.0 0.0
0.0 0.0 0.0 0.0 0.0 0.0 0.0 0.0
0.0 0.0 0.0 0.0 0.0 0.0 0.0 0.0
0.0 0.0 0.0 0.0 0.0 0.0 0.0 0.0
0.0 0.0 0.0 0.0 0.0 0.0 0.0 0.0
0.0 0.0 0.0 0.0 0.0 0.0 0.0 0.0
-0.017608805 -0.027088022 0.016598528 -0.0072800065 -0.04694065 0.03279695 0.020942472 0.0049747345
0.035656966 0.013949024 0.016019879 0.022354234 -0.026386447 -0.023933422 0.05483533 0.017022157
-0.061124787 0.011153188 -0.025875784 0.010682981 -0.0021148736 -9.778252e-05 0.06450295 -0.0459476
0.0 -0.00697647 -0.0016914234 -0.00073992414 0.046410013 0.009290704 -0.10803718 -0.03084755
0.08456179 0.06762445 -0.048445776 -0.012421655 -0.0095459055 0.0 -0.030599788 0.005593025
-0.062208932 -0.030229526 0.033535145 0.060260866 -0.02213729 -0.049160246 0.025980255 0.059196554
0.04058893 0.101893336 -0.02333908 0.09799691 -0.022958083 0.11140066 0.0013269468 -0.0034002264
-0.04778904 -0.0021028493 0.065958306 0.003846098 -0.030442555 -0.022984246 0.010880565 0.00105781
0.0 0.0 0.0 0.0 0.0 0.0 0.0 0.0
0.0 0.0 0.0 0.0 0.0 0.0 0.0 0.0
0.0 0.0 0.0 0.0 0.0 0.0 0.0 0.0
0.0 0.0 0.0 0.0 0.0 0.0 0.0 0.0
0.0 0.0 0.0 0.0 0.0 0.0 0.0 0.0
0.0 0.0 0.0 0.0 0.0 0.0 0.0 0.0
0.0 0.0 0.0 0.0 0.0 0.0 0.0 0.0
0.0 0.0 0.0 0.0 0.0 0.0 0.0 0.0
00000000: 672c 18be 83ff e9ba 63b9 2a3b 1224 c2bd
00000010: dd0b c0bd cf9b 6e3e 9117 48be 5b4d 313c
00000020: 1d82 9e3c 59b0 6c3d cc8b 973b 47c2 163c
00000030: 4eed 33bd 2edb 87bc 7358 50bd 4b17 91bd
00000040: 4b40 48be 1684 adbd 1c29 0bbd 054f 193e
00000050: d123 27bd c7ff 50bc 07e0 03bd 8448 adbc
00000060: 0000 0000 1422 d1bc 98ca c7bb 6a5d 773d
00000070: 2c84 ac3c 456a f13e e162 0f3e ce37 d6bc
00000080: ab9b 4b3c 342b 7cbd ab89 2cbe 2115 d3bc
00000090: 7e70 bd3c 0000 0000 229e 8bbb 9033 653c
000000a0: fab0 8a3d 8a3c bbb9 4950 723b 7075 313d
000000b0: c5bd 0cbd ab53 f3bd cce6 193c a4e1 8cbd
000000c0: 75fc ffba 3b93 9ebd 67ab 28bc 1d78 353c
000000d0: 8c0b 8ebc 9fdb 223c 811d 41bd 9cbd 3dbc
000000e0: 484d 1ebe a67f 10bc b2e1 163e a7a9 d1bc
000000f0: db08 bcbb 7053 bfbc b217 7d3d ff23 823c
00000100: 0000 0000 0000 0000 0000 0000 0000 0000
00000110: 0000 0000 0000 0000 0000 0000 0000 0000
00000120: 0000 0000 0000 0000 0000 0000 0000 0000
00000130: 0000 0000 0000 0000 0000 0000 0000 0000
00000140: 0000 0000 0000 0000 0000 0000 0000 0000
00000150: 0000 0000 0000 0000 0000 0000 0000 0000
00000160: 0000 0000 0000 0000 0000 0000 0000 0000
00000170: 0000 0000 0000 0000 0000 0000 0000 0000
00000180: 0000 0000 0000 0000 0000 0000 0000 0000
00000190: 0000 0000 0000 0000 0000 0000 0000 0000
000001a0: 0000 0000 0000 0000 0000 0000 0000 0000
000001b0: 0000 0000 0000 0000 0000 0000 0000 0000
000001c0: 0000 0000 0000 0000 0000 0000 0000 0000
000001d0: 0000 0000 0000 0000 0000 0000 0000 0000
000001e0: 0000 0000 0000 0000 0000 0000 0000 0000
000001f0: 0000 0000 0000 0000 0000 0000 0000 0000
00000200: 5740 90bc b3e7 ddbc a3f9 873c 1f8d eebb
00000210: d744 40bd 1856 063d 8c8f ab3c 1903 a33b
00000220: 0a0d 123d 728a 643c 1f3c 833c 3a20 b73c
00000230: 6428 d8bc 0610 c4bc 039b 603d 0d72 8b3c
00000240: fc5d 7abd dcbb 363c 74f9 d3bc ac07 2f3c
00000250: b199 0abb 9710 cdb8 1f1a 843d 8d33 3cbd
00000260: 0000 0000 df9a e4bb c0b2 ddba 78f7 41ba
00000270: 6d18 3e3d 0938 183c 9942 ddbd 00b4 fcbc
00000280: bb2e ad3d b07e 8a3d 146f 46bd 3284 4bbc
00000290: 6e66 1cbc 0000 0000 68ac fabc b245 b73b
000002a0: cbce 7ebd e9a3 f7bc 265c 093d 19d4 763d
000002b0: 4359 b5bc 415c 49bd 8bd4 d43c 1678 723d
000002c0: 9440 263d 74ad d03d 9931 bfbc 9bb2 c83d
000002d0: 9712 bcbc 0726 e43d f2ec ad3a 55d6 5ebb
000002e0: 71be 43bd f5cf 09bb 2615 873d d10e 7c3b
000002f0: aa62 f9bc 7549 bcbc 6644 323c 37a6 8a3a
00000300: 0000 0000 0000 0000 0000 0000 0000 0000
00000310: 0000 0000 0000 0000 0000 0000 0000 0000
00000320: 0000 0000 0000 0000 0000 0000 0000 0000
00000330: 0000 0000 0000 0000 0000 0000 0000 0000
00000340: 0000 0000 0000 0000 0000 0000 0000 0000
00000350: 0000 0000 0000 0000 0000 0000 0000 0000
00000360: 0000 0000 0000 0000 0000 0000 0000 0000
00000370: 0000 0000 0000 0000 0000 0000 0000 0000
00000380: 0000 0000 0000 0000 0000 0000 0000 0000
00000390: 0000 0000 0000 0000 0000 0000 0000 0000
000003a0: 0000 0000 0000 0000 0000 0000 0000 0000
000003b0: 0000 0000 0000 0000 0000 0000 0000 0000
000003c0: 0000 0000 0000 0000 0000 0000 0000 0000
000003d0: 0000 0000 0000 0000 0000 0000 0000 0000
000003e0: 0000 0000 0000 0000 0000 0000 0000 0000
000003f0: 0000 0000 0000 0000 0000 0000 0000 0000

0.scale_net.network.6.bias f4 [6]
-0.13556491 0.0 -0.07102345 0.0 0.061102614 0.0
00000000: 87d1 0abe 0000 0000 be74 91bd 0000 0000
00000010: bc46 7a3d 0000 0000

0.translate_net.network.0.weight f4 [64, 6]
0.2550696 0.35166588 0.018850714 -0.187943 0.090637505 -0.47492543 0.2523715 -0.17694488
0.021878988 -0.014289041 0.34635252 -0.13744181 0.28728646 -0.21359518 -0.3408344 0.15840918
0.2517597 -0.32894748 0.12242341 -0.21615325 -0.1323402 0.010112726 -0.1478889 -0.04293421
0.18132317 0.021739691 0.08093169 0.049375594 0.005567163 -0.33816588 0.3208205 -0.63122886
-0.0954088 -0.13815501 -0.26047194 -0.5155636 0.086078525 -0.31120217 -0.065043956 0.046660278
-0.17526478 0.18363304 -0.1803768 0.09584828 -0.23434179 0.14130738 0.20680189 0.31085354
0.23618877 -0.0362248 -0.08765957 -0.3110155 0.060073018 -0.34334 -0.32663655 -0.110361725
0.04577124 0.5435459 -0.14600798 -0.5528063 0.33753622 0.035350583 -0.20757478 -0.064158864
-0.18412495 -0.1350173 -0.19567858 -0.31824383 0.1484167 -0.14741719 0.39724773 -0.12519348
-0.069131315 -0.07534205 -0.019002706 -0.35618022 0.24603915 0.3257094 0.19333124 -0.15172355
0.06480777 0.22671278 -0.30240345 -0.24564713 0.11595154 -0.053677812 -0.03299418 -0.19107263
0.33621305 0.36911753 0.2899027 0.36755008 0.32303715 -0.21337979 0.20808333 0.01516211
-0.22586389 -0.19308227 -0.1165078 0.032771416 0.40663403 -0.1479344 -0.047559977 -0.5515117
0.26698261 -0.783303 -0.07657999 -0.39378947 0.07338554 -0.11290246 -0.1114063 0.0346165
-0.25929588 0.17500007 -0.07210195 -0.15376693 -0.31721744 -0.23997776 0.23251629 -0.2737979
0.169325 -0.22800007 -0.17807266 0.23662078 0.060958028 0.3426498 -0.36728978 -0.36967137
0.14810675 0.081911586 0.08569348 0.22975314 -0.38048306 0.03834939 0.0053161383 -0.25104737
0.3198949 -0.29097182 0.08044702 -0.0007681336 0.056727856 0.09005381 0.1768586 -0.026287096
0.4021001 -0.132149 -0.044384062 -0.11095691 0.20647019 0.032523148 -0.0010928214 0.07617989
-0.30975246 0.39476255 0.12557507 0.36104915 0.07387221 -0.074242614 -0.35640964 -0.13864711
-0.04691565 -0.0017484983 0.14108855 -0.23545644 -0.21948914 0.094236255 0.09663141 -0.2278499
-0.30030036 -0.15268901 0.16046256 0.035645314 0.15886718 0.06090096 -0.16976254 -0.37325785
0.24669981 0.038293883 0.3407272 -0.01711369 0.22405696 -0.28612256 0.17142558 -0.6743361
-0.067502916 -0.26708382 0.074833035 0.29178706 0.34016126 -0.10468689 0.26969445 -0.17212151
-0.12235218 -0.1744437 -0.017138034 -0.18929167 0.24996662 0.10427886 -0.13233635 0.47073922
0.3570313 0.23595576 0.28097767 0.09771957 -0.3135906 -0.4607844 -0.13978925 0.006972216
0.03345886 0.18261608 0.100302815 -0.4897943 -0.07607624 0.23537739 0.33784872 -0.2331493
-0.3169096 -0.097675666 -0.40474865 0.15968944 0.36752754 -0.2521269 -0.37653476 0.17446116
0.21729147 -0.12849244 -0.352322 -0.27865934 -0.0006864071 0.29523402 -0.28117627 -0.21134135
-0.36707035 -0.26836315 0.29986715 -0.31613925 0.35579228 0.29452756 -0.20359457 -0.14587863
-0.23537542 0.12677163 0.04489413 -0.53546345 -0.31816298 0.24453072 -0.3661822 -0.48087463
-0.081370294 0.21002048 0.038270503 0.14378019 0.056728184 0.037945233 0.18309927 -0.087321185
00000000: 7c98 823e 8d0d b43e d06c 9a3c 2174 40be
00000010: 28a0 b93d 6d29 f3be d636 813e 0a31 35be
00000020: 903b b33c 951c 6abc 1e55 b13e 8cbd 0cbe
00000030: 3617 933e b2b8 5abe d981 aebe 0436 223e
00000040: a6e6 803e ce6b a8be 20b9 fa3d 4757 5dbe
00000050: 3084 07be d9af 253c 3070 17be c8db 2fbd
00000060: c8ac 393e 7017 b23c 84bf a53d 103e 4a3d
00000070: c06c b63b 1424 adbe 9642 a43e 3798 21bf
00000080: b065 c3bd 8278 0dbe 945c 85be fafb 03bf
00000090: f049 b03d e455 9fbe c435 85bd d91e 3f3d
000000a0: 9c78 33be 4d0a 3c3e b2b4 38be 1a4c c43d
000000b0: 4bf7 6fbe e2b2 103e e0c3 533e 3228 9f3e
000000c0: 78db 713e 7560 14bd dc86 b3bd 6c3d 9fbe
000000d0: 200f 763d 43ca afbe e83c a7be 5405 e2bd
000000e0: a07a 3b3d d325 0b3f 1e83 15be b784 0dbf
000000f0: 8cd1 ac3e c6cb 103d 7c8e 54be b965 83bd
00000100: 408b 3cbe fa41 0abe f75f 48be dbf0 a2be
00000110: 8cfa 173e 88f4 16be 0e64 cb3e b832 00be
00000120: b894 8dbd ef4c 9abd 90ab 9bbc 415d b6be
00000130: b0f1 7b3e 62c3 a63e a0f8 453e 6b5d 1bbe
00000140: f0b9 843d 6527 683e a0d4 9abe ec8a 7bbe
00000150: 0078 ed3d 44dd 5bbd e824 07bd 8ba8 43be
00000160: 1e24 ac3e f9fc bc3e 206e 943e 862f bc3e
00000170: 2065 a53e 3b80 5abe cc13 553e 806a 783c
00000180: dd48 67be 5cb7 45be a49b eebd 523b 063d
00000190: 5632 d03e 1e7c 17be 40ce 42bd df2f 0dbf
000001a0: f2b1 883e 8c86 48bf f8d5 9cbd c69e c9be
000001b0: 284b 963d 6839 e7bd fc28 e4bd 08ca 0d3d
000001c0: 6ec2 84be 3833 333e 30aa 93bd 1475 1dbe
000001d0: 536a a2be bbbc 75be c018 6e3e 3d2f 8cbe
000001e0: 8863 2d3e da78 69be ae58 36be b84c 723e
000001f0: 20af 793d cb6f af3e 680d bcbe 9145 bdbe
00000200: 4ca9 173e 43c1 a73d 1080 af3d 6844 6b3e
00000210: adce c2be 4014 1d3d 0033 ae3b 4889 80be
00000220: 44c9 a33e 42fa 94be 68c1 a43d 935c 49ba
00000230: 785b 683d 226e b83d 6c1a 353e 0958 d7bc
00000240: 10e0 cd3e 1152 07be 10cc 35bd 603d e3bd
00000250: ec6c 533e fe36 053d 003d 8fba 3404 9c3d
00000260: e097 9ebe 511e ca3e c096 003e 6fdb b83e
00000270: 504a 973d 830c 98bd 537b b6be 82f9 0dbe
00000280: a02a 40bd de2d e5ba 8479 103e 7e1b 71be
00000290: c3c1 60be f0fe c03d b0e6 c53d 7c51 69be
000002a0: f8c0 99be 825a 1cbe 4c50 243e d200 123d
000002b0: 14ae 223e 4973 793d 3bd6 2dbe a71b bfbe
000002c0: e09e 7c3e 0cda 1c3d cc73 ae3e 0232 8cbc
000002d0: 306f 653e a87e 92be 308a 2f3e 4aa1 2cbf
000002e0: f83e 8abd 36bf 88be 1042 993d 1d65 953e
000002f0: 9e29 ae3e 1566 d6bd 6415 8a3e 9f40 30be
00000300: c893 fabd 5fa1 32be 1065 8cbc add5 41be
00000310: 40f7 7f3e 2890 d53d 2e83 07be bb04 f13e
00000320: cecc b63e 639e 713e 4edc 8f3e 3321 c83d
00000330: f28e a0be efeb ebbe ea24 0fbe 3077 e43b
00000340: 280c 093d b6ff 3a3e 906b cd3d 52c6 fabe
00000350: dccd 9bbd c506 713e 82fa ac3e b1be 6ebe
00000360: fa41 a2be 2e0a c8bd 373b cfbe a185 233e
00000370: 922c bc3e c716 81be 2ac9 c0be f2a5 323e
00000380: a881 5e3e 8693 03be 8d63 b4be 70ac 8ebe
00000390: 00f0 33ba ea28 973e 56f6 8fbe de69 58be
000003a0: a5f0 bbbe e566 89be 3088 993e 01dd a1be
000003b0: 682a b63e 51cc 963e 187b 50be 3561 15be
000003c0: 4106 71be 6cd0 013e e8e2 373d 2214 09bf
000003d0: 42e6 a2be 4366 7a3e 3c7c bbbe 3335 f6be
000003e0: 78a5 a6bd 9c0f 573e 88c1 1c3d 1d3b 133e
000003f0: d05b 683d 766c 1b3d 607e 3b3e 73d5 b2bd

0.translate_net.network.0.bias f4 [64]
0.20766276 -0.036987994 -0.3553345 0.09392858 -0.06378344 0.37068948 -0.13158928 0.09985444
0.3782831 0.2847885 0.10100424 0.09709393 -0.030442806 0.20033275 -0.016550371 -0.39845568
0.19007659 0.20972896 -0.2511778 -0.06515703 -0.0066716215 0.056393225 -0.20984583 -0.29410446
0.19549832 -0.44523135 -0.05774429 0.25509927 0.013702236 -0.06896377 0.0058066505 -0.21369651
-0.20706218 -0.22408834 0.28820562 -0.20054875 0.25322255 0.22442558 0.1723749 0.20902348
0.1293324 -0.44357127 0.16921306 -0.09723717 -0.397635 0.0856573 0.050412025 0.19565757
-0.18003862 0.19737352 -0.068609476 -0.28799897 0.073813416 0.03410447 -0.10713473 -0.10438188
-0.10763529 -0.06800187 -0.3762635 -0.07191152 0.15226762 -0.44195285 0.009526257 -0.054116517
00000000: 8ca5 543e b980 17bd 67ee b5be a15d c03d
00000010: e4a0 82bd 03cb bd3e 57bf 06be 7c80 cc3d
00000020: 53ae c13e cccf 913e 50db ce3d 2fd9 c63d
00000030: 3163 f9bc 0724 4d3e a594 87bc 6202 ccbe
00000040: 70a3 423e 30c3 563e 609a 80be 0d71 85bd
00000050: 9e9d dabb 95fc 663d d3e1 56be dc94 96be
00000060: b630 483e 5df5 e3be 4785 6cbd 5f9c 823e
00000070: 587f 603c e13c 8dbd b745 be3b 42d3 5abe
00000080: 1c08 54be 6a77 65be b08f 933e a75c 4dbe
00000090: 63a6 813e d2cf 653e 0c83 303e 400a 563e
000000a0: b66f 043e c61b e3be 3046 2d3e 4824 c7bd
000000b0: d196 cbbe 186d af3d d77c 4e3d 755a 483e
000000c0: 0b5c 38be 491c 4a3e 2083 8cbd 9a74 93be
000000d0: 7d2b 973d 21b1 0b3d 7469 dbbd 2bc6 d5bd
000000e0: e46f dcbd 9044 8bbd 9ca5 c0be 5946 93bd
000000f0: 0bec 1b3e a547 e2be 0514 1c3c 48a9 5dbd

0.translate_net.network.2.weight f4 [64, 64]
-0.17228478 -0.04962252 -0.112210274 -0.064789526 0.044603884 0.03641288 0.06737465 0.018332625
-0.11157862 -0.02782762 0.011623689 0.006444734 -0.17373078 -0.15430509 -0.07939216 0.0701261
-0.062253434 0.05151254 0.09277612 -0.07228024 -0.06351051 -0.15261185 0.018550277 -0.036999717
-0.005713025 0.03370309 -0.00018180907 -0.050012115 -0.099863485 -0.10309206 -0.03813925 0.021673322
0.071002275 0.03220156 -0.015321067 -0.048078567 -0.18711549 -0.07282 -0.06635768 -0.1402353
0.009472943 -0.0014358461 -0.059222203 -0.006998807 -0.054827064 -0.064808 0.008960769 -0.09112386
-0.041647542 -0.17558777 -0.040916666 0.0026839823 -0.077042446 -0.12535892 -0.11398971 0.075791
-0.008549511 -0.14128108 0.068357036 -0.076882586 0.023946188 -0.061481893 0.034635097 0.05425018
-0.11494427 -0.16610569 0.09424688 -0.07357367 -0.07756598 -0.008569991 0.015618011 0.04101142
-0.1327687 -0.13746588 -0.03643779 -0.051448528 0.0726583 -0.17143714 0.049846794 0.042433694
-0.03279055 -0.10700369 0.0064795166 -0.0033731526 -0.038027585 -0.050444137 -0.12278409 -0.019664034
-0.1374013 -0.17460845 0.12117881 -0.15854222 0.008320141 -0.05511232 -0.07371301 0.027579347
-0.09469122 -0.12819159 0.08034565 0.030460875 -0.054266192 0.059785232 -0.113459356 -0.12662448
-0.14102301 -0.12378451 -0.15643764 -0.06345199 -0.04052809 0.045273572 0.02507209 0.067359656
-0.04424855 -0.10434201 0.1280667 -0.10809338 -0.1741575 -0.018733015 -0.094904706 -0.06665927
-0.12585986 0.10399248 0.12217718 0.071331844 -0.0260691 0.055557076 -0.021187864 0.12217943
-0.12887794 0.034123894 0.07755707 -0.010985842 -0.04053639 -0.047907952 -0.08593096 -0.08605279
-0.07230923 -0.1542935 0.024594406 0.0746913 -0.04583537 -0.16937692 -0.073395655 0.08035052
0.069978565 -0.17110215 -0.06379078 -0.103702255 -0.07241448 0.024694795 0.06541082 -0.1032843
-0.1666424 -0.048467144 -0.07569287 -0.022339199 -0.096355274 -0.13580026 -0.1392522 0.10103682
0.10278295 -0.041978985 -0.04201662 -0.042346403 0.030010024 -0.05092641 0.014789804 -0.07275239
0.037151437 -0.007511869 -0.11451587 0.044387564 -0.007051319 -0.1447228 -0.034187395 0.03515041
-0.005473882 -0.068021804 0.0064003468 0.06762858 -0.077011436 -0.091946214 -0.043967184 0.111994624
-0.17338686 -0.07833869 -0.09181562 0.01059483 -0.016897356 0.056323826 0.053873137 0.12405191
0.027132347 0.07390125 0.017106533 0.116222546 -0.10439676 0.09096944 -0.09793596 -0.06308058
-0.0475391 0.039107203 -0.031221896 -0.08584899 0.02313821 -0.10230164 0.10998112 0.06935927
-0.033195764 -0.02771546 -0.03429663 -0.030789033 -0.015639111 -0.11555171 0.07477526 -0.11661886
-0.09703344 0.077920824 -0.0034731627 -0.08172025 0.11454618 0.0005494058 0.11996989 -0.035973817
0.051787212 -0.07878935 0.098611146 -0.06075108 -0.00013512373 -0.08744849 -0.06800076 0.067288965
-0.06257507 0.100301355 -0.0063562393 -0.004912913 -0.10765794 0.025933653 -0.08407959 -0.1053312
-0.11521554 -0.085170195 -0.0008958876 -0.041907176 -0.10564454 -0.12310958 0.0402534 0.057241112
0.120771855 -0.04407586 0.015669048 0.045250967 0.11862968 -0.008064866 -0.11158872 -0.0039622337
00000000: 6c6b 30be fc40 4bbd 80ce e5bd 5fb0 84bd
00000010: 90b2 363d ac25 153d b8fb 893d 4d2e 963c
00000020: 5583 e4bd c0f6 e3bc 4971 3e3c 592e d33b
00000030: 7be6 31be 2702 1ebe 5b98 a2bd 469e 8f3d
00000040: 75fd 7ebd d0fe 523d 6801 be3d aa07 94bd
00000050: cc11 82bd 4846 1cbe c0f6 973c 048d 17bd
00000060: 5434 bbbb 400c 0a3d 00a4 3eb9 81d9 4cbd
00000070: 3a85 ccbd ee21 d3bd e737 1cbd 408c b13c
00000080: a469 913d c8e5 033d 3605 7bbc 08ee 44bd
00000090: 349b 3fbe a722 95bd 89e6 87bd d899 0fbe
000000a0: 6734 1b3c 0033 bcba fb92 72bd 4056 e5bb
000000b0: 5892 60bd 0fba 84bd 30d0 123c 259f babd
000000c0: 9d96 2abd 48cd 33be 3c98 27bd c0e5 2f3b
000000d0: 6ec8 9dbd 175e 00be 7073 e9bd 5038 9b3d
000000e0: 4013 0cbc fdab 10be c6fe 8b3d 9e74 9dbd
000000f0: cc2a c43c 70d4 7bbd 88dd 0d3d 7035 5e3d
00000100: e767 ebbd 9c17 2abe 8204 c13d cbad 96bd
00000110: eada 9ebd 2669 0cbc b0e2 7f3c 97fb 273d
00000120: 85f4 07be dbc3 0cbe cb3f 15bd b1bb 52bd
00000130: e0cd 943d 388d 2fbe 272c 4c3d f4ce 2d3d
00000140: 624f 06bd c024 dbbd 2052 d43b 1c10 5dbb
00000150: d0c2 1bbd 839e 4ebd 3a76 fbbd 7816 a1bc
00000160: edb2 0cbe 8fcc 32be 992c f83d e458 22be
00000170: 3351 083c 75bd 61bd d9f6 96bd 15ee e13c
00000180: 78ed c1bd a844 03be 438c a43d 1689 f93c
00000190: 3a46 5ebd 5ce1 743d 615d e8bd d9a9 01be
000001a0: 5668 10be bc82 fdbd 3031 20be 1ef3 81bd
000001b0: c800 26bd c870 393d fc63 cd3c dcf3 893d
000001c0: f83d 35bd 44b1 d5bd eb23 033e 1060 ddbd
000001d0: 5856 32be fb75 99bc 665d c2bd a884 88bd
000001e0: 68e1 00be 02fa d43d 0838 fa3d 6e16 923d
000001f0: dd8e d5bc d18f 633d 2c92 adbc 3639 fa3d
00000200: 94f8 03be 7fc5 0b3d 3ed6 9e3d f6fd 33bc
00000210: 7c09 26bd 213b 44bd 92fc afbd 723c b0bd
00000220: dd16 94bd 1eff 1dbe 357a c93c c1f7 983d
00000230: debd 3bbd 2571 2dbe 7650 96bd d08e a43d
00000240: ec50 8f3d 6735 2fbe bea4 82bd d961 d4bd
00000250: 0b4e 94bd bd4c ca3c 1cf6 853d b886 d3bd
00000260: 4ea4 2abe 7c85 46bd dd04 9bbd b200 b7bc
00000270: ea55 c5bd 390f 0bbe 2198 0ebe 64ec ce3d
00000280: de7f d23d 28f2 2bbd 9f19 2cbd 6c73 2dbd
00000290: 95d7 f53c 3698 50bd ef50 723c 34ff 94bd
000002a0: 1b2c 183d 2026 f6bb 4c87 eabd bccf 353d
000002b0: c00e e7bb 3732 14be 1508 0cbd e0f9 0f3d
000002c0: 405e b3bb 044f 8bbd 00ba d13b da80 8a3d
000002d0: 2cb8 9dbd 4c4e bcbd ef16 34bd 705d e53d
000002e0: 538c 31be 0970 a0bd d409 bcbd f095 2d3c
000002f0: 536c 8abc d0b3 663d 14aa 5c3d ee0e fe3d
00000300: a844 de3c 8a59 973d 0023 8c3c 1606 ee3d
00000310: f8cd d5bd 304e ba3d a692 c8bd 6430 81bd
00000320: 5cb8 42bd e02e 203d 10c5 ffbc 98d1 afbd
00000330: 588c bd3c 8683 d1bd c83d e13d 3c0c 8e3d
00000340: 48f8 07bd 880b e3bc a07a 0cbd 4839 fcbc
00000350: 981d 80bc 60a6 ecbd c623 993d ded5 eebd
00000360: 78b9 c6bd f494 9f3d 009e 63bb f25c a7bd
00000370: 3097 ea3d 0006 103a c6b2 f53d 4859 13bd
00000380: d41e 543d 505c a1bd a4f4 c93d 20d6 78bd
00000390: 00b0 0db9 3218 b3bd fc43 8bbd ccce 893d
000003a0: 5c27 80bd cc6a cd3d 0048 d0bb 80fc a0bb
000003b0: c47b dcbd d072 d43c ec31 acbd e2b7 d7bd
000003c0: 20f6 ebbd b66d aebd 00da 6aba dca6 2bbd
000003d0: 2a5c d8bd e020 fcbd c0e0 243d a875 6a3d
000003e0: 3c57 f73d e488 34bd 605c 803c 1459 393d
000003f0: 1ef4 f23d 8022 04bc a088 e4bd a0d5 81bb

0.translate_net.network.2.bias f4 [64]
-0.06158404 0.006203911 0.042392578 -0.061580494 -0.1184773 -0.044641525 -0.014544623 0.04616347
-0.08768968 -0.05390937 0.048992556 -0.003981814 0.17272747 0.07031854 -0.0024740691 0.023992546
0.21305534 0.1766273 0.05287762 -0.0017790624 0.020532582 0.0039296746 -0.074172944 -0.08377777
-0.32456398 -0.08042133 -0.12034558 -0.051814277 -0.035474617 0.11875904 -0.18543868 -0.05131676
-0.026597828 0.02038826 0.009211063 -0.13330713 0.043401733 -0.12691061 -0.07758049 -0.04892727
-0.06234697 -0.15426622 -0.08925464 -0.052920815 -0.09160805 -0.048754424 -0.06440005 0.071807645
0.050661515 -0.042988315 -0.08419811 -0.09806578 0.035818115 0.09753829 0.15801424 -0.13634117
-0.06409213 0.03251262 -0.19101831 -0.054568663 -0.08016699 -0.17700738 -0.10981049 -0.1022198
00000000: 8c3f 7cbd 2d4a cb3b d7a3 2d3d d43b 7cbd
00000010: 3aa4 f2bd 08da 36bd 924c 6ebc e815 3d3d
00000020: a696 b3bd 12d0 5cbd 6bac 483d e079 82bb
00000030: 78df 303e 2b03 903d fe23 22bb 048c c43c
00000040: 2e2b 5a3e c9dd 343e 3496 583d 6e2f e9ba
00000050: f233 a83c 80c4 803b fce7 97bd ae93 abbd
00000060: 402d a6be f0b3 a4bd be77 f6bd 353b 54bd
00000070: d54d 11bd f137 f33d a3e3 3dbe 8631 52bd
00000080: b0e3 d9bc 4805 a73c 00ea 163c aa81 08be
00000090: 04c6 313d dbf4 01be 85e2 9ebd f667 48bd
000000a0: 895f 7fbd f7f7 1dbe 23cb b6bd 7fc3 58bd
000000b0: 009d bbbd b8b2 47bd 2ce4 83bd e30f 933d
000000c0: 7382 4f3d 8414 30bd 0f70 acbd b6d6 c8bd
000000d0: 04b6 123d 28c2 c73d 7cce 213e 059d 0bbe
000000e0: bc42 83bd f42b 053d 4e9a 43be 6483 5fbd
000000f0: 972e a4bd 6c41 35be 52e4 e0bd 9d58 d1bd
